latest.pth (torch, 323690 bytes, 10 tensors)

conv1.weight f4 [32, 4, 8, 8]
000000 58 15 8c bc b8 89 80 3d 6a 59 95 bc bd c9 10 bd
       -0.017100021 0.06276268 -0.018231113 -0.035348643
000010 24 8b 05 bd ae b0 15 bd 85 5f 3e bc cc b9 ee bc
       -0.032603398 -0.036545448 -0.011619453 -0.02914133
000020 90 e7 84 bd 70 5a 1b bc 6b d0 c1 3c 76 32 b8 bc
       -0.064894795 -0.009482011 0.023658952 -0.022485
000030 9f 67 2d bd 96 15 ec 3c 1c b2 9f bd 59 43 8e 3c
       -0.04233515 0.028818887 -0.077976435 0.017366098
000040 f4 2b 6d bd 73 8d 6b 3d 56 05 c9 ba a8 b7 a2 bd
       -0.057903245 0.057507943 -0.0015336673 -0.07945186
000050 20 c3 e8 3b 8d 75 20 3c a4 5b c3 bd 17 1b 1d bd
       0.007103339 0.009793651 -0.095389634 -0.038355913
000060 3d 5f 32 3b e4 84 80 bd d8 56 b2 3c 89 65 16 3d
       0.002721741 -0.06275347 0.021769926 0.036717925
000070 1a 8c 8e 3b c4 4d 94 3d f9 e3 47 bc 91 e8 84 bd
       0.0043501975 0.07241395 -0.012200349 -0.06489671
000080 dc 03 79 bd 13 50 ae bc 62 3a ff bb d9 25 7d bd
       -0.060794696 -0.021278417 -0.007788942 -0.061803672
000090 b1 92 7d 3c e2 63 11 3d eb 1d d0 bc d3 69 88 3c
       0.0154768685 0.035495646 -0.025404891 0.016652023
0000a0 f1 28 3c 3d 1a af 01 bd 5f 6c ad 3d 9d 7c a5 bd
       0.045937482 -0.03166113 0.08467936 -0.08080409
0000b0 ce 1a 06 3d de 6d c5 3c c8 c6 41 3d ed 57 0c 3d
       0.032740407 0.02410024 0.047308713 0.03426354
0000c0 06 2f 92 3d d2 8f 6d bc f6 07 6b 3d 07 87 56 3d
       0.07137875 -0.0144996215 0.05738064 0.052374866
0000d0 24 b5 6c 3d f4 9f 16 3d c9 51 9e bb 5b 3c d6 3d
       0.057789937 0.036773637 -0.004831527 0.10460731
0000e0 ee e2 85 bd 02 66 38 3d 7e 3c 9d bc 72 5c e9 bd
       -0.06537424 0.045019157 -0.019193884 -0.11394586
0000f0 c5 14 4f 3c 46 d2 cf bc 17 2c 22 3c 7e 57 47 3d
       0.012639229 -0.02536882 0.009898207 0.048667423
000100 42 4e a7 bc 90 0c ef 3b ee eb 02 bb a8 2e 25 3c
       -0.020423058 0.0072951987 -0.001997705 0.0100819245
000110 68 14 98 3c e9 65 27 3d f4 66 0b 3c 90 39 1e ba
       0.018564418 0.040868673 0.008508433 -0.0006035799
000120 0b bf 67 bd 5b 5d 44 bd a5 34 30 3d a7 bd 2b 3d
       -0.056578677 -0.047940593 0.043018956 0.041928913
000130 c9 e5 08 bd cd 0b 17 3d 0f 26 bb bd df 4a 91 3d
       -0.033422265 0.03687649 -0.091381185 0.07094359
000140 4e ec 34 bb de a6 19 3d 03 33 7a ba 82 11 74 bd
       -0.002760667 0.037512653 -0.00095443445 -0.05958701
000150 fd 5e dc bc e6 8c 38 bb 4b b4 e0 bc 68 19 1c bc
       -0.026900763 -0.0028160154 -0.02742972 -0.009527542
000160 09 f4 41 bb 5a f0 37 3c 41 ba eb 3a 01 ef 44 bd
       -0.002959492 0.011226738 0.0017984585 -0.048079494
000170 27 21 1e bd 99 29 6c 3c 5b f3 9f 3c 45 b9 5f bd
       -0.038605835 0.0144142145 0.01952522 -0.054620046
000180 13 5a 87 bc 04 3b cb bc e5 31 52 bc 6b b2 1d bc
       -0.016522443 -0.024808414 -0.012829279 -0.009625058
000190 22 7f 43 bd b0 c5 ce 3c 7e 2f 0e bd 49 1a bb 3c
       -0.047728665 0.02524075 -0.03471326 0.022839682
0001a0 04 58 11 3c d8 64 29 3c 7d d2 69 bd 78 02 a4 bd
       0.008871082 0.010338984 -0.057085503 -0.080082834
0001b0 6f fa 8a 3d 4b fb 7e bc 37 9e 88 bc 32 27 f1 bc
       0.06786048 -0.015562843 -0.016677005 -0.029437635
0001c0 23 16 85 3c b0 34 90 bd a1 80 e7 bc 51 5d a9 bc
       0.016245907 -0.07041299 -0.028259577 -0.02067438
0001d0 6c 79 a9 3c b8 12 41 3d 4e 11 6b 3c 0a 93 8b 3d
       0.020687781 0.047136992 0.0143473875 0.06815155
0001e0 0d ab be bc f6 b5 0a bd e1 58 00 bc 7c e0 12 be
       -0.023274923 -0.033864938 -0.00783369 -0.14343446
0001f0 a9 de d8 3c 08 1e fe 3c e7 d3 b7 3d 7c 9f d7 3b
       0.02647336 0.03102018 0.08975964 0.0065802913
000200 b2 4b 63 bd c7 80 a6 3d 2d 10 a1 3d 99 66 75 3d
       -0.05549211 0.08130031 0.078644134 0.059912298
000210 34 1c a6 bc 48 7e 88 3c 9e ad 12 3c 31 a3 c9 3a
       -0.02027712 0.016661778 0.008952526 0.0015383718
000220 b1 63 55 bd 8f b3 20 bc be 9b c5 3b f0 ad 93 3d
       -0.052097026 -0.009808435 0.006030529 0.0721091
000230 b0 8a b2 bc 31 c6 f3 3c 1e 69 00 3d 6d f0 f2 3c
       -0.021794647 0.029757591 0.031350248 0.02965566
000240 28 89 00 bd a4 db 05 3b 6c 27 b5 bd 59 2e 8f bc
       -0.031380802 0.0020425105 -0.0884541 -0.017478155
000250 11 e7 a6 bd 01 19 86 3c f6 ab 45 bd 19 07 f3 bc
       -0.08149541 0.016369345 -0.048259698 -0.02966647
000260 33 fb 75 bb c7 a1 be bc 5d f5 11 bd 97 c5 14 bd
       -0.003753376 -0.0232705 -0.035634387 -0.03632125
000270 44 50 46 bd 31 5e 6f bc bd 87 bf 3b 4b 43 cc bb
       -0.04841639 -0.014609859 0.0058450387 -0.006233608
000280 40 f8 30 3d 7b c6 d1 3b a8 b2 99 bc 43 8d 41 3c
       0.0432055 0.0064018345 -0.018761948 0.011813465
000290 74 21 15 bd aa 7e c6 bc 17 70 38 3d c0 49 22 3d
       -0.036408857 -0.02423032 0.045028772 0.039621115
0002a0 84 52 85 3c 0d d0 19 bc e9 08 00 3d 3e a4 61 bd
       0.016274698 -0.009387982 0.031258497 -0.055088274
0002b0 0e 0d 2f bd ff b3 65 bd 4b cb c6 3c 74 b5 fa 3c
       -0.04273706 -0.05607986 0.02426686 0.030604102
0002c0 4a e3 ed bb 8a d2 b7 3c 8e 26 b8 3b 15 a9 59 bd
       -0.007259761 0.02243926 0.0056198305 -0.053139765
0002d0 fa e7 97 bd 02 5d 9f bc 8f 2c 96 3d 4b da 2e 3d
       -0.07417293 -0.01945353 0.073327176 0.04268865
0002e0 77 44 20 bc c1 e9 ae bc 8a 7e 59 bd 83 8b 0c 3c
       -0.009781948 -0.021351697 -0.053099193 0.008578184
0002f0 1f b4 21 bd ab 53 21 bc 91 b9 d6 bc 0a 31 2e 3d
       -0.039478417 -0.009846608 -0.026211532 0.042527236
000300 ea fe b9 bd 0b f0 a7 bd 3d ba e9 3c bb 92 1b bd
       -0.09081824 -0.082000814 0.028531188 -0.03798173
000310 d8 f1 bf bd 4f 9e b2 3c e7 32 cb bd 46 62 22 bd
       -0.093723 0.021804003 -0.09921818 -0.039644502
000320 09 56 98 bd ff c9 9d 3c e6 de 62 3c df 32 dd 3c
       -0.07438285 0.019261358 0.013847088 0.027001796
000330 f0 0e 62 bc 93 08 53 bd 6d 24 1d be 4b e0 58 bd
       -0.013797507 -0.05152185 -0.15345927 -0.052948277
000340 2b c6 15 bc 0c 1f fe 3c 4d 3a 18 bb 5e c8 1d 3c
       -0.009141485 0.031020664 -0.002322811 0.009630291
000350 bd a1 12 bd 73 51 41 3d e8 06 be bd cf 25 1e bd
       -0.035798777 0.047196817 -0.09278661 -0.038610276
000360 6c 0f 3e bb 93 aa 11 3d 23 4f 83 bd ee 16 c1 bc
       -0.0029000891 0.035563063 -0.064115785 -0.023570504
000370 31 00 a0 bd 76 77 d5 3b 97 b4 19 bd 18 b4 55 bd
       -0.078125365 0.006514485 -0.03752574 -0.052173704
000380 bc 29 2c bd 80 a7 2d 3d 40 3e 7e 3b 68 a9 df 3b
       -0.04203199 0.04239607 0.0038794428 0.0068256147
000390 4d 98 63 3d c7 c3 39 3c 13 65 99 3b b7 30 03 3d
       0.055565167 0.011338181 0.0046812384 0.03202888
0003a0 67 ba 18 bd f9 7e 55 bd 04 9d 1a bc 94 3f ee 3a
       -0.037287142 -0.052123044 -0.0094368495 0.0018176907
0003b0 f5 26 50 bd 14 64 10 3c 8a 73 ff bb d1 d7 f4 3c
       -0.050818402 0.008812923 -0.0077957558 0.029888066
0003c0 f5 b0 d6 3c ed ee 81 bd cf a1 3f bd b4 42 0d bc
       0.026207427 -0.063443996 -0.046785172 -0.00862186
0003d0 7a 1a d3 3b 60 f3 1e bd ab 80 5c bd 39 94 cd bc
       0.0064423652 -0.03880632 -0.053833645 -0.025095092
0003e0 67 e3 3e bd e7 33 ef 3b 0d be c1 bd 57 e9 22 bd
       -0.046603587 0.0072998884 -0.094600774 -0.03977331
0003f0 f9 32 9a bd d6 28 b5 bd 7c 79 39 bd 24 16 2a bd
       -0.075292535 -0.088456795 -0.045281872 -0.04152502

conv1.bias f4 [32]
000000 4b 72 fc bb 74 eb de 3c 71 d5 61 bd ea b0 bc bb
       -0.0077040545 0.027211882 -0.055135194 -0.0057583945
000010 66 72 00 bd 40 e4 6c 3d 88 fc d0 bc d4 be 5b bd
       -0.0313591 0.057834864 -0.025511041 -0.053648785
000020 21 94 83 3d 6c 68 6f 3b 20 46 0c bd 7d 8b b6 3d
       0.06424738 0.0036530746 -0.034246564 0.08913324
000030 4f 9e 46 bd 70 9b a9 3c f2 77 63 bd d5 bf 35 bc
       -0.04849082 0.020704001 -0.05553431 -0.0110931
000040 6a 31 bd bc c6 a5 82 3d 95 10 27 bd 9a e2 a2 bd
       -0.023094852 0.06379275 -0.0407873 -0.07953377
000050 59 4f be 3c 28 f5 56 bd 5f 44 98 3c 2e 17 41 bc
       0.023231195 -0.052479893 0.01858729 -0.011785312
000060 2d 59 ba 3c 84 d2 d9 3c 73 3a 78 bd 72 ee 92 3b
       0.0227476 0.02658964 -0.060602617 0.0044839913
000070 46 83 1e 3c 33 32 6a bd d8 93 83 3b cc 4b 97 bc
       0.009674853 -0.05717678 0.004015427 -0.01846876

conv2.weight f4 [64, 32, 4, 4]
000000 77 d4 0a 3c 78 6a 08 bd 2c d4 2d bd e4 70 a5 bc
       0.008473507 -0.03330466 -0.04243867 -0.020195432
000010 41 52 70 bc a8 20 1c bd 7e d3 9e 3c 80 b6 80 3d
       -0.014668048 -0.03811708 0.019387957 0.06284809
000020 df d4 36 bd 80 d1 5b bb 0e b3 53 3d 7e d9 da 3c
       -0.044636603 -0.003354162 0.05168443 0.026715036
000030 ba fb 36 bb f0 3b a7 3c 9e 4d ab 3c 9f 5a 5b bd
       -0.0027921037 0.020414323 0.020911034 -0.05355322
000040 4e be c7 bc c1 d7 f3 bd cb e1 31 3c 86 b4 2b bd
       -0.024382737 -0.11906386 0.010857056 -0.041920207
000050 38 4d e4 3c 0e b7 c0 bd 34 88 b1 3b 05 d6 84 bb
       0.027868852 -0.09409915 0.005417848 -0.0040538334
000060 3f 9f a4 3d ae 31 a0 bd 7f 75 55 3c 85 7f 1f bc
       0.08038186 -0.07821976 0.0130285015 -0.009734993
000070 5e 60 0c bd d9 2a 83 bc 8e 9e 89 3c fc a1 81 bd
       -0.03427159 -0.016011642 0.016799238 -0.06329724
000080 0a 70 51 bc f8 b1 a7 3b 34 61 e4 bb 1a 77 b7 bb
       -0.01278306 0.005117651 -0.0069695953 -0.005598915
000090 93 0d 8c bd 42 d1 d7 3b 71 ae 9b b9 fc 7e cd 3c
       -0.068385266 0.006586225 -0.00029693873 0.025084965
0000a0 13 58 3d bd 23 69 e0 bc 79 76 82 3d c9 c6 d7 bc
       -0.046226572 -0.027393883 0.06370253 -0.026339905
0000b0 d6 88 e8 bc 99 bc b3 bb de dd f2 3c 0c 60 4c 3b
       -0.028385561 -0.005485129 0.02964681 0.0031185178
0000c0 ab d7 39 3d e6 12 22 bc d8 7a 04 bd 6a 7a 62 bd
       0.045371693 -0.009892201 -0.032343715 -0.055292524
0000d0 b2 20 34 bc db 98 98 bc cc aa f9 3c 7f de e7 3c
       -0.010994123 -0.018627575 0.03047695 0.028304337
0000e0 7c 59 d5 bc 0d d4 11 bd e1 76 8f 3d 74 61 47 3d
       -0.026043646 -0.035602618 0.07005096 0.048676923
0000f0 b5 97 8a 3b d5 a5 98 bd a4 48 93 3a 0a 3a 95 3a
       0.0042295107 -0.07453505 0.0011236859 0.0011385095
000100 f9 8a f4 3b 75 fb d7 3c 65 b2 d3 3c 55 14 1c bc
       0.007462856 0.026365021 0.025841901 -0.009526332
000110 b6 67 d6 bc 60 70 ad 3b f1 c1 a7 bc 3f a4 c0 bb
       -0.0261725 0.005292937 -0.02047822 -0.0058789547
000120 13 20 8d bd fb bf 68 bd 01 5e 09 3d ef a3 14 3d
       -0.06890883 -0.05682371 0.033536915 0.03628915
000130 51 97 2b bd 58 80 8a bd bf ad 42 bd 40 0e a4 3c
       -0.041892353 -0.06762761 -0.04752898 0.020026326
000140 fd 6c 9b 3d 21 ba c8 bd d5 cc 00 bc e0 8b e3 bd
       0.07589147 -0.09801126 -0.007861336 -0.111106634
000150 07 3c 3c bd 4a 4f c2 bc 4b 4c 90 bd d4 74 19 3d
       -0.045955684 -0.023719449 -0.07045802 0.03746493
000160 f3 7c c4 bc b8 7b 7f bd 47 60 d4 3c 19 76 36 3d
       -0.023985362 -0.062373847 0.025924815 0.04454622
000170 ee e1 82 3d fb d5 c8 bc 72 fb 54 bc b4 b7 07 3b
       0.06390749 -0.024516096 -0.012999402 0.002070886
000180 2e 65 58 bd 70 3f 59 3c f8 72 9a bc f6 d8 7a bd
       -0.052830867 0.013259754 -0.01885365 -0.061242066
000190 4f a7 9a 3b 92 b8 14 3d ec cf c4 bb 81 8d 1f 3c
       0.004719652 0.036308832 -0.0060062315 0.009738327
0001a0 b8 26 09 bd 39 19 a4 3c 98 9b cc 3c 8f 95 19 bb
       -0.03348419 0.020031558 0.024976537 -0.002343509
0001b0 50 fb 17 ba ab 79 ac bc cd 72 c1 3c a9 f4 27 3d
       -0.00057976414 -0.02105411 0.023614312 0.04100481
0001c0 c8 c0 57 3d b6 4c 1f bd 68 0a 38 bd 31 04 ad bc
       0.052674085 -0.038891517 -0.0449318 -0.021120163
0001d0 ae cd 98 3b e6 27 99 3c a2 82 8c 3c 74 c5 8b bb
       0.004663191 0.018695783 0.017152134 -0.0042654816
0001e0 67 68 11 bd bd 8c 52 3d 75 11 4c bd 57 ae d8 3a
       -0.035499956 0.05140375 -0.049821336 0.001653145
0001f0 64 0a 88 bc 10 ba b7 bb ee e2 48 bd 6b 60 3a bd
       -0.016606517 -0.005606897 -0.049044542 -0.045502108
000200 d6 ed 8a 3d 0f 85 45 bc 81 72 8b bc 65 38 2e bd
       0.06783645 -0.012055649 -0.017022373 -0.04253425
000210 94 8d a8 bd 43 89 f5 ba b9 17 c3 bc 3c 8c 77 3d
       -0.08230129 -0.0018732924 -0.023815023 0.060436472
000220 d7 c0 59 bd 03 2a 21 3c 42 c5 c7 ba 09 69 bf bb
       -0.053162422 0.0098366765 -0.0015241283 -0.0058413786
000230 2c 35 51 3d 2f b4 e3 bc bf df 02 3c ba 2f 29 bd
       0.0510761 -0.02779588 0.007987916 -0.04130528
000240 e7 eb 88 bd 3b 42 4a bd 61 ee 5c 3b 51 7c bf 3d
       -0.0668562 -0.04937957 0.003371142 0.09349883
000250 46 61 8a bc c6 d2 32 bc d9 95 7f bd fb 8e be bd
       -0.016892087 -0.01091451 -0.062398765 -0.09304615
000260 c4 82 eb bb 3b 0c 01 3d e1 27 73 bc b8 e3 e3 3b
       -0.0071872193 0.031505805 -0.014841051 0.0069546364
000270 b8 13 7d 3c 58 c9 3d bc 24 a2 5a bc 40 21 d5 bc
       0.015446596 -0.011583649 -0.013344321 -0.026016831
000280 9b 40 e2 bd 60 86 35 bd 69 50 00 3d 97 e7 1d 3d
       -0.11047479 -0.044317603 0.031326685 0.03855094
000290 e2 80 2c bb 0f 21 b2 3c 1d d1 eb bc b5 05 49 3d
       -0.0026321937 0.02174428 -0.028786236 0.04907771
0002a0 c8 ae a8 3b 57 22 a5 3b 55 6e 85 3c 5d 1a 48 3d
       0.0051477887 0.005039494 0.016287962 0.048853267
0002b0 0e c1 dd 3b 60 34 33 bd 1e 3e 4d 3c cd 60 88 bc
       0.0067673987 -0.04375112 0.012527017 -0.01664772
0002c0 43 64 62 bc 13 54 0c bd fb e5 b7 bb ce ee 79 3d
       -0.01381785 -0.034259867 -0.0056121326 0.061018758
0002d0 33 e5 4f 3d 4e f4 a9 bc 8d ea 61 3d 22 e1 a8 3c
       0.05075569 -0.020746376 0.055155326 0.020615164
0002e0 39 93 25 3c 40 a3 b1 bd 28 b0 47 bd d2 d2 4d 3d
       0.010105901 -0.086737156 -0.04875198 0.050249882
0002f0 67 28 8a 3b 3c 81 99 bc cc de 5f bd e6 fb 5a bd
       0.004216242 -0.018738382 -0.054655835 -0.053462885
000300 64 e7 2e bd 2e 0b 2b bd c6 b3 c7 bc 88 f1 1a bc
       -0.04270114 -0.04175871 -0.024377715 -0.009457
000310 c5 17 c1 bc e9 0f 34 bd 40 2c 28 bd 79 21 63 3d
       -0.023570905 -0.043960486 -0.041057825 0.055451844
000320 87 f6 99 bd e7 79 9a bd 83 c1 6a bd a2 77 8f bc
       -0.075177245 -0.07542782 -0.057313453 -0.0175131
000330 b0 ff 56 bb b7 5f 7b 3c 5c 72 b1 3c 0e 49 b2 bc
       -0.003280621 0.015342644 0.021660976 -0.02176335
000340 92 57 f8 bc 4c 1a 8e 3d 09 c3 cb 3b 74 0b 76 3d
       -0.030315194 0.069386095 0.0062183184 0.060069516
000350 b8 f3 ae bc f9 34 36 3c 8b 2c 0c 3d 14 f0 29 3c
       -0.021356449 0.011121028 0.034222167 0.0103721805
000360 59 94 84 bd de 8c a3 bb 3c 0d 0b 3d fe ab ee 3a
       -0.064736076 -0.004991158 0.03394817 0.0018209217
000370 1f 32 b1 3c 62 00 75 3d f2 f5 2f 3d 49 4d 7e bd
       0.021630345 0.05981482 0.04295916 -0.062085424
000380 cd 2c fc bc af f6 01 3d eb a1 68 3c 39 f5 40 3c
       -0.030783081 0.031729396 0.0141987605 0.011777216
000390 80 8b 85 bd 96 8f fd 3c 34 f9 2a bd 5f 44 dd bc
       -0.06520748 0.030952256 -0.041741565 -0.027010141
0003a0 7c 78 ac 3c 17 56 48 3d 8d 8f 4d bc ca fc a8 3d
       0.021053545 0.048910227 -0.012546432 0.08251341
0003b0 5b ed 9a bd b0 f3 6e 3d b0 32 66 bd 2c b4 f7 3b
       -0.07564803 0.058337867 -0.056200683 0.00755932
0003c0 f8 ea 08 3d 01 b3 ff 3c 65 d5 96 bc 97 95 84 bb
       0.03342721 0.031213285 -0.018412301 -0.004046153
0003d0 de 61 63 bd f2 99 1e bb 0b 7f 76 bb db fc 85 bc
       -0.055513255 -0.0024200645 -0.0037612345 -0.016355922
0003e0 dd c5 3a bd 7e 4d cc 3c 74 03 0c bc 90 e8 8e bb
       -0.045598853 0.024939295 -0.008545745 -0.0043612197
0003f0 fb 46 f1 bc 0a 74 45 3c 12 5c 92 3c 5d 42 68 3d
       -0.029452791 0.012051592 0.017866168 0.056703914

conv2.bias f4 [64]
000000 49 14 c4 bd a6 3b f2 bc 84 d7 20 3d ad f1 51 bd
       -0.095741816 -0.029569458 0.03926803 -0.05125587
000010 72 31 a9 ba 29 e8 2e bd 78 8b 69 bc 00 89 bf bd
       -0.0012908413 -0.042701874 -0.014254443 -0.093523026
000020 c1 44 d2 bc df 5b 92 bd 88 85 cd 3b 21 62 74 3d
       -0.02566755 -0.07146429 0.0062720217 0.059663896
000030 c2 fa d5 bc 28 92 87 3d c1 f7 0d 3d 71 f8 87 3b
       -0.026120547 0.06619674 0.034660105 0.0041494896
000040 cd fe 2e bd 03 cf 1e 3c ef 8e 43 bb 4e 4b a3 bd
       -0.042723466 0.00969291 -0.0029839834 -0.079733476
000050 1f 0d 05 3b e3 1d 85 bc 0f 08 52 bd 47 de df bd
       0.002030201 -0.016249603 -0.051277217 -0.10931068
000060 4e a6 31 3b 3f 96 19 bc 5d 4b 37 bc 56 95 16 be
       0.0027107182 -0.0093742 -0.011187402 -0.14705405
000070 51 34 f9 3c 52 43 62 3d dd bd 1b 3d 22 a0 5d bd
       0.030420454 0.055239983 0.038022865 -0.054107793
000080 1d 92 1b 3c a5 41 91 bd 9b 9e bd bc da ee 6d bd
       0.009495285 -0.07092599 -0.023146918 -0.058089115
000090 af 2f 46 bd e6 72 78 bb 94 00 a9 3d be 85 83 3d
       -0.04838532 -0.0037910282 0.082520634 0.06421994
0000a0 c1 05 1c bc d8 c9 07 3d e4 66 5d bd 26 08 60 bd
       -0.009522856 0.033151478 -0.054053202 -0.05469527
0000b0 49 10 43 bc d2 5f 04 bd 3f 79 8e 3a bd 5e f9 bc
       -0.011905738 -0.032317944 0.0010869874 -0.030440683
0000c0 7b f4 26 bd 44 bc 81 3c df 8f 2a bc 18 9a 8d bd
       -0.0407605 0.015836842 -0.010410278 -0.06914157
0000d0 fb 01 db bc bf a4 a4 bb 1f 30 8b bb 17 3c e4 bd
       -0.026734343 -0.005024522 -0.00424768 -0.11144274
0000e0 20 60 87 3c 6c 20 8c 3d 37 cb f9 bd 57 ac 0b bc
       0.016525328 0.068421215 -0.12196963 -0.008524976
0000f0 e3 f2 bc bd b2 d2 ab bb 14 9e 81 3c 2d b0 f8 bc
       -0.092260145 -0.0052436227 0.015822448 -0.030357445

conv3.weight f4 [64, 64, 3, 3]
000000 76 3b 14 bd 14 c4 ea 3c 41 70 0c 3d d9 bb 77 bc
       -0.03618952 0.02865795 0.03428674 -0.01512047
000010 2b 9a 01 bb cb df f6 3c 2f 1c 17 bd af db 06 bc
       -0.001977573 0.03013601 -0.036892112 -0.008231088
000020 7d ca 6a bc 08 29 94 bd 28 97 64 3d 67 2e 50 3d
       -0.0143305035 -0.072343886 0.055808216 0.050825503
000030 b6 90 41 bc b7 81 69 bd 64 e9 aa 3c 7a 6d 37 3d
       -0.011814287 -0.05700847 0.020863242 0.04478214
000040 bf bd 8d 3c c7 1f 43 3d f1 6a db bb 7a 48 0c 3d
       0.017302392 0.047637727 -0.006696098 0.034248807
000050 62 0c e2 bc a9 8f 18 3d 7d d0 43 bd 97 b4 c8 3b
       -0.027593795 0.03724638 -0.04780625 0.0061250436
000060 1a 62 ee 39 b2 73 6e bd 1a c1 8a 3b f0 82 8d 3d
       0.0004546799 -0.058215804 0.0042344453 0.0690974
000070 4b 42 f7 3c 3d 9c 5c bc 3c 82 2f 3c 46 0f 87 3c
       0.030182978 -0.0134649845 0.010712203 0.016486775
000080 91 7c ea bb d1 0c 4e 3c dd a9 14 bc 47 25 7d 3d
       -0.0071559628 0.012576298 -0.009073702 0.06180313
000090 a5 5d 86 3c c6 cf 3e 3c 42 2b ac bc 67 ed 87 bb
       0.016402075 0.011646217 -0.02101672 -0.0041481736
0000a0 f2 c7 5a 3c 8d 31 2a 39 10 fa 87 3c f8 25 15 3d
       0.013353335 0.00016230922 0.016598731 0.036413163
0000b0 e5 4a 22 3b d2 1c 05 3d 2d 95 cf 3b 17 6b ab bc
       0.002476388 0.03249819 0.006334922 -0.020925088
0000c0 a6 99 95 bd cf 08 d1 3b 89 e1 ce 3c 9d ab 81 bc
       -0.07304697 0.006379224 0.025254028 -0.015828902
0000d0 c7 39 0e bd 91 ea 80 3d e2 9f 24 bc 6b 9e 86 bc
       -0.03472307 0.0629474 -0.010047885 -0.016432961
0000e0 7b 0a 1b 3d 21 df 0d bd 2e 9c 4b bc 91 59 63 bc
       0.03785179 -0.03463662 -0.012427373 -0.013876335
0000f0 47 2a ed 3c d6 9c 0a 3d 7c 54 9f bc 02 c0 5d bc
       0.028950823 0.033840977 -0.019449465 -0.013534548
000100 e3 b4 8f 3c 42 f6 f9 3c ae 49 a9 bd 73 b1 1d 3c
       0.017542308 0.030512933 -0.082660064 0.009624827
000110 08 12 50 bc 7b 83 ba bb 3e 4f 83 3d 18 b7 e8 3c
       -0.0126996115 -0.005691943 0.064115986 0.028407618
000120 45 8e 0d 3d 4b ff 6c bc 78 71 27 3c 54 e6 c5 3c
       0.034559507 -0.014465163 0.010219924 0.02415768
000130 b9 66 9f 3c 70 bc 8c 3d dc 5d 8c bc 4f 9b 84 3d
       0.019458162 0.06871879 -0.0171346 0.06474935
000140 68 74 0e bd 1a c4 7e 3d 88 64 49 bd 13 c7 c0 bb
       -0.034778982 0.062198736 -0.04916814 -0.0058831065
000150 49 78 ff 3c fa 5b 56 bd 5e c7 df ba 6c 14 51 bc
       0.031185286 -0.05233381 -0.0017072966 -0.012761217
000160 6b c4 28 3c 54 c0 3b 3d 5c 74 22 3d 46 46 1c bc
       0.010300736 0.045837715 0.03966175 -0.009538239
000170 14 8b 3c bc 97 5f 2a 3d 2f 16 5f bd ea 37 06 3b
       -0.011507768 0.041595068 -0.054464515 0.0020480105
000180 34 87 82 bc df e8 64 bd ba 91 5a 3d 83 56 e5 3b
       -0.01593361 -0.055886146 0.053361632 0.0069988384
000190 e9 7d 58 3d 2e ad 78 3d d9 cd 19 bd cf 2d 25 bd
       0.052854452 0.060712032 -0.037549827 -0.04032689
0001a0 65 c8 e2 bc b0 ea a9 bc b2 e6 f6 bc 6a b6 2d 3d
       -0.027683446 -0.02074179 -0.030139301 0.04241029
0001b0 6d 9c 30 3c ba ad 46 3d 91 3a eb 3c ef a8 92 bd
       0.010779482 0.048505522 0.02871445 -0.07161128
0001c0 a1 b9 36 3c 65 62 f2 3c fd 38 85 bc 28 d0 aa 3c
       0.011152656 0.029587934 -0.016262526 0.02085121
0001d0 8c c6 f5 3c 51 83 6a 3c fa c1 db bb 48 8f 12 bd
       0.030001901 0.014313535 -0.0067064734 -0.035781175
0001e0 b2 44 ee 3b 09 16 60 3d 9c 63 3a bd fc cc 20 3c
       0.0072713727 0.054708514 -0.04550515 0.009814497
0001f0 e6 db 41 3b c8 93 30 bd 47 eb a8 3c 4a da 25 3d
       0.0029580533 -0.043109685 0.020620001 0.04049138
000200 70 e4 b6 3c a0 32 c1 bd 66 15 a0 bc 77 7f f5 bc
       0.022325724 -0.09433484 -0.019541454 -0.029968007
000210 25 d2 2b 3d 22 d7 00 3c 39 61 e7 bc 2d 9a fd 3c
       0.041948456 0.007863792 -0.028244602 0.030957306
000220 5a 6c 79 bd e9 39 14 3d 03 7b 8c ba cb 21 45 3d
       -0.060894348 0.03618804 -0.0010717813 0.04812793
000230 d3 df ff bc 26 ee 44 3a 17 4b ad 3b 76 f0 b6 bb
       -0.031234657 0.00075122935 0.0052884924 -0.0055828644
000240 c1 85 1d bd b4 6d 9f ba 35 60 95 bb ff a2 36 3d
       -0.038457636 -0.0012163431 -0.004558588 0.04458904
000250 3b 04 05 3d ed 05 3d bd f5 71 2e bb 3e a8 d4 bc
       0.032474738 -0.04614823 -0.0026618217 -0.02595913
000260 9f f1 05 3c b7 00 84 bd 97 bc 13 bb 0f df 10 3d
       0.008175283 -0.06445449 -0.0022542828 0.035368975
000270 6d bd 1e bc 25 23 9d bc 68 e9 46 3c 02 bc 03 bb
       -0.009688717 -0.019181797 0.012140609 -0.0020101075
000280 40 e3 70 3c 33 a4 09 3d 17 10 13 3c ff ee 32 3d
       0.014702618 0.03360386 0.008976004 0.043684956
000290 00 ad b6 bc f8 b6 31 3b ab a9 ea bb a3 16 5d bd
       -0.02229929 0.0027117115 -0.0071613393 -0.053976666
0002a0 71 64 c5 3c 2c 4d 32 bd 92 83 d7 3c d3 3a e5 bc
       0.024095746 -0.043530628 0.026307855 -0.027982151
0002b0 5c 03 49 3b 0b 33 ea bc 66 cc b5 3c 59 4a 48 bd
       0.0030672168 -0.028588792 0.022192191 -0.04889903
0002c0 7d 03 72 3c 3b f3 c3 bc 70 fe 3c 3c 7c e5 84 3c
       0.0147713395 -0.023919692 0.011535272 0.016222708
0002d0 c2 cc 82 bb 00 48 6f bd 67 82 41 3d 83 1a 5a bd
       -0.003991694 -0.058418274 0.047243502 -0.05324794
0002e0 d1 a7 55 3d 8a 8c 3c 3c d1 f9 75 3c dc f0 d4 bc
       0.052161995 0.0115081165 0.015013174 -0.025993757
0002f0 43 94 87 3c 64 1f 93 3c a5 f0 89 3d e4 bb 1b 3d
       0.016550189 0.017959304 0.067353524 0.038020983
000300 b0 a6 fd 3c 06 d1 a2 bd 60 77 60 bd ee 24 d5 3c
       0.030963272 -0.07950024 -0.054801345 0.026018586
000310 b7 10 c9 3c 02 bd 76 3c 6c 2b 61 3c 1e 26 44 bd
       0.024544103 0.015059711 0.013743263 -0.047887914
000320 2a 5d a9 3b a2 ed 84 3d 04 b0 3b bd 7b 89 b0 3c
       0.0051685767 0.06490637 -0.04582216 0.02154993
000330 19 ca 82 bd f2 d1 e9 bb cb cf 07 3d c2 3a be 3c
       -0.06386203 -0.007135623 0.03315715 0.023221377
000340 ba 6f 7b 3c 54 8f 4d bc 62 34 c7 bb 33 1f 4c bc
       0.015346462 -0.012546379 -0.0060792426 -0.01245861
000350 0e 5f 00 bd b7 52 01 bc 18 57 74 bb e2 2f bf bc
       -0.03134065 -0.007893256 -0.0037283357 -0.023338262
000360 26 ff 19 bb 6c 0f 2a bd f3 c5 0b 3d b5 e6 1a bc
       -0.0023498028 -0.041518614 0.034124326 -0.009454419
000370 b1 0f ed bb ad f8 19 bb 12 9d 98 bc 41 87 80 bd
       -0.0072345366 -0.002349417 -0.018629584 -0.06275798
000380 a0 ef f2 3b 75 c5 73 bc 01 37 84 3d 37 8e 5c 3d
       0.0074138194 -0.01487862 0.06455804 0.053846564
000390 04 2a 39 3d 9d 11 b0 3c fc 04 40 3c b2 4a 00 bd
       0.045206085 0.021492774 0.011719938 -0.031321235
0003a0 28 e9 59 bc ee 6a 4b 3c cc 34 57 3d 8e 0b 9f 3d
       -0.013300218 0.012415631 0.052540585 0.07765876
0003b0 1f e7 e4 bc dc eb a9 bd 52 13 f9 bc 7b 4d ba bc
       -0.027942238 -0.0829694 -0.03040472 -0.022742024
0003c0 5a 01 d4 bc ae 04 be bc ad e4 84 3c 9a a4 25 bc
       -0.02587955 -0.02319559 0.016222322 -0.010110045
0003d0 f9 39 25 bb 8b ca 69 bc a3 5a 7d 3d c2 dc d9 bc
       -0.0025211556 -0.014269481 0.061854016 -0.026594523
0003e0 0d 00 e0 b9 b5 19 39 3d b3 c0 a1 3c 69 0d 1c bd
       -0.00042724647 0.04519053 0.019745206 -0.038098726
0003f0 25 bd cb bd 1c bc 90 bd 93 d2 23 3d 75 cb 83 3d
       -0.09948186 -0.07067129 0.03999574 0.06435291

conv3.bias f4 [64]
000000 ee 5b 50 3d 3e 2f eb 3d cf ad e5 3d 07 24 0c 3e
       0.05086892 0.1148362 0.11214792 0.13685618
000010 99 e7 2a 3c 93 51 64 bd bc b8 33 bd 4d 57 08 3e
       0.010431194 -0.055741858 -0.04387735 0.13314553
000020 c2 45 26 bd 69 84 4f bd 06 23 3e 3c 68 7c fe 3c
       -0.04059387 -0.050663386 0.01160503 0.03106518
000030 7c e1 a8 3d e0 4f 66 ba 91 3b eb 3d 69 6e a2 bd
       0.08246133 -0.0008785706 0.11485971 -0.07931215
000040 f3 1a 3d bd 4f e4 df bc 7e ee 0f be a0 ca 5b 3d
       -0.04616828 -0.027330546 -0.14055821 0.053660035
000050 6e 30 6d bc 87 25 b5 3d ce 53 35 3d 97 28 0f bd
       -0.014476879 0.088450484 0.044269376 -0.03495082
000060 9d be fd 3c c5 42 85 bc 54 dd 13 3d 37 9b 07 3e
       0.03097468 -0.01626719 0.036099747 0.13242804
000070 f4 2d 9e bd 46 f9 83 3d 11 ed 8c 3b 8a e4 a3 3c
       -0.077236086 0.064440295 0.0043007215 0.020006437
000080 37 c3 07 bc b6 82 06 bc 59 b6 dd bc 1c 8f 8f 3d
       -0.008286289 -0.008209875 -0.02706449 0.07009718
000090 fd 18 bf bc f0 f1 28 3c ba 1d 94 3d 32 74 29 bd
       -0.023327345 0.010311589 0.072322324 -0.041370578
0000a0 4b e0 c0 bc 6b ef 76 3c d6 ce 0a 3e 6f 73 0e be
       -0.023544451 0.01507173 0.13555464 -0.13911222
0000b0 34 e5 d9 bd 2f 63 03 be 01 af 06 3d 95 d3 77 bc
       -0.1063942 -0.12830804 0.03288174 -0.015126129
0000c0 7a 3d 26 3c 88 78 9c 3b 6d 18 43 3c 62 be 00 be
       0.010146493 0.0047751106 0.011907679 -0.12572625
0000d0 4d b1 ea 3d 66 c6 1c bd ed 82 b3 b9 cd a0 d7 bb
       0.11459599 -0.038275145 -0.00034239088 -0.0065804482
0000e0 81 6a d8 bd 14 1e 3f 3d 90 4f 2d bd 43 c4 b1 bc
       -0.10567189 0.046659544 -0.042312205 -0.02170003
0000f0 da f5 db bb 90 f3 0a bd 14 5d e4 bc 3a fb 9a bc
       -0.0067126574 -0.033923686 -0.027876414 -0.018918622

fc1.weight f4 [32, 64]
000000 f6 c4 cb bd 3e ca e6 bd b2 d8 a0 bd 28 db 06 bd
       -0.09949677 -0.112690434 -0.07853831 -0.032923847
000010 d0 f5 5f bc 48 4d 99 3d 38 17 86 bd a4 93 ad bd
       -0.013669446 0.07485443 -0.065473974 -0.08475426
000020 b2 12 a7 3d de 62 a6 3d 10 53 ec 3c 42 f9 98 bd
       0.08157863 0.08124326 0.028848201 -0.07469417
000030 80 2a 81 bb 20 bc e5 3b b0 c4 b6 bc e0 37 10 bc
       -0.003941834 0.0070109516 -0.022310585 -0.008802384
000040 8e 36 f5 bd a4 9d aa 3d f8 89 57 3d 88 93 f3 bc
       -0.11973296 0.08330849 0.05262181 -0.029733434
000050 d6 b9 9f 3d b4 ba b9 bd 40 ea eb bd 00 38 ae 3b
       0.07799117 -0.09068814 -0.11519289 0.0053167343
000060 58 04 b6 bc 76 55 d5 bd a8 5d b2 bd 68 9f ad bd
       -0.022218868 -0.10416691 -0.0870927 -0.0847767
000070 88 fe c9 bc 60 24 b5 bb 66 69 9c 3d ec 03 28 bd
       -0.024657503 -0.005528018 0.07637291 -0.041019365
000080 b0 55 be 3d 80 be 1a 3d 6c dd 31 bd b8 bc b0 bd
       0.09293687 0.03777933 -0.043424055 -0.08629745
000090 18 22 dc 3d 88 a7 e0 bd 26 55 b1 bd 24 06 43 bd
       0.1074869 -0.10969454 -0.08658819 -0.047613278
0000a0 e8 7d f7 3d c8 c7 a3 bc 18 e3 c3 bc e6 3d c5 bd
       0.120845616 -0.019992724 -0.023911998 -0.09630947
0000b0 b0 e7 b7 3c 62 08 ab bd d4 79 25 bd 74 35 28 bd
       0.022449344 -0.08351208 -0.040399387 -0.041066602
0000c0 28 8d bf 3d a4 1b f7 bd 80 4f 49 bb b4 b7 b3 bd
       0.09353095 -0.12065819 -0.0030717552 -0.08775273
0000d0 cc 96 61 bd b0 39 9f 3c e0 fc 35 bd f4 6b 18 bd
       -0.05507545 0.019436687 -0.044430614 -0.037212327
0000e0 0c 7e 1f bd 98 db 8d 3c 0a eb c6 3d 5c f2 64 bd
       -0.038938567 0.017316625 0.09712799 -0.055895194
0000f0 e0 9d 48 bd 36 05 89 bd ba 4c d7 3d 36 d8 fd bd
       -0.048978686 -0.06690447 0.10512681 -0.123947546
000100 fe d8 79 bd bb ca 01 bc ac e4 2f 3d 10 24 89 3d
       -0.060997956 -0.00792187 0.042942688 0.066963315
000110 d9 67 e8 3c 17 7d 23 bd 94 5b a6 bb 48 c3 58 3d
       0.02836983 -0.039914217 -0.005076835 0.05292061
000120 61 59 ea 3c 34 d5 80 bd 28 c6 8a bd 48 4a 95 3d
       0.028607072 -0.06290665 -0.067760766 0.07289559
000130 89 27 10 bd a1 13 fd 3b 6c 68 bd 3c 68 7e b5 bd
       -0.035193954 0.007723287 0.023121081 -0.08862001
000140 c9 93 91 3d ca 26 02 3e 4b b5 cb bd 91 fb 56 bd
       0.07108266 0.1271011 -0.09946688 -0.052486006
000150 0a 29 fe bc 95 bf c2 bd b1 f4 4d 3b da 0e c6 3d
       -0.031025428 -0.095091976 0.0031426365 0.096708015
000160 30 44 11 3e cc 93 86 bd c5 fc 11 3e 20 4e a4 bd
       0.14186168 -0.06571159 0.1425658 -0.08022714
000170 b4 1c 80 3d 57 b9 c0 3d c9 6d 8b 3d cb 06 10 3d
       0.06255475 0.09410351 0.06808049 0.03516273
000180 0e b4 79 bc 32 69 dc bd 47 6d 61 3d 51 0e 38 bd
       -0.015240682 -0.10762252 0.055035856 -0.04493553
000190 a5 e2 13 3e 02 86 90 3c b3 14 fa 3c 4d 39 78 bd
       0.14441927 0.017642025 0.030527448 -0.06060152
0001a0 35 2d 0c be ae 60 fe 3c 33 2b 36 bd df 39 a8 3d
       -0.1368912 0.03105196 -0.04447479 0.08214163
0001b0 5a 14 ca 3b 89 0d dc bd 10 50 db 3d 51 82 b4 bd
       0.006166977 -0.10744769 0.1070863 -0.088139184
0001c0 86 89 b7 3d a5 cd fb bd 97 9f 05 3d 4f 2a 96 bd
       0.089617774 -0.12295083 0.0326229 -0.073322885
0001d0 7d 96 c1 3d c2 c6 dc 3c 87 7a 9c bc 1a 3a 1a 3e
       0.094525315 0.026950244 -0.019101394 0.15061226
0001e0 4c d9 e3 bd 23 09 42 bd 39 57 2a bd 89 10 5a bd
       -0.111254305 -0.047371995 -0.04158709 -0.053238425
0001f0 52 0a 9b bd ca f4 7b bd 23 e1 5d 3c 03 f6 0b 3e
       -0.07570328 -0.061512746 0.013542446 0.13668065
000200 88 d4 f0 bd 0b 00 58 3c a7 d4 75 3d 3b be d6 bc
       -0.11759287 0.013183604 0.060017254 -0.026213756
000210 dc bf 00 be 7a 52 40 bd c4 c9 5d bd 98 cc 17 3d
       -0.12573189 -0.046953656 -0.054147497 0.03706035
000220 38 a1 f6 bc 40 6e ee bc 66 c1 e3 3d 7a 58 e1 3d
       -0.030106172 -0.029105306 0.11120872 0.11003204
000230 0c 45 80 bd 64 ea d3 bd b0 e5 be bc dc b1 1f 3d
       -0.0626317 -0.10347441 -0.023302883 0.03898798
000240 ad be 83 3c da 7a 02 be e1 84 4b 3d ac e8 bf bb
       0.016082132 -0.12742177 0.04968727 -0.005856594
000250 f5 7a dd bd 65 84 4f bd 42 8d a6 3c 29 5d 25 bd
       -0.10814468 -0.05066337 0.020331029 -0.040372048
000260 af d8 2d bb 97 fc f0 bd 94 ab 7c 3d a4 7a 9e bd
       -0.0026526859 -0.11766928 0.061687067 -0.077382356
000270 c0 4b ea bd 77 cb 05 3c 3f c5 47 3d d0 9f b1 bd
       -0.114402294 0.008166186 0.048772093 -0.0867306
000280 64 a4 1c bd 28 ba 65 3d 4c 9e 9c bd ec ca f0 bd
       -0.038242713 0.056085736 -0.0764738 -0.11757454
000290 34 a1 ee 3d 15 05 83 bd 0d 40 b8 3d 9c 07 e3 3d
       0.11651841 -0.06397454 0.08996592 0.11085436
0002a0 24 28 39 3d b0 5e b5 3c 73 41 3f 3d cc 99 28 bd
       0.045204297 0.022139877 0.046693277 -0.041162297
0002b0 a2 5f ff bd 8c c8 bb b9 cc 5c 8f 3d bc 94 12 bd
       -0.124694124 -0.00035816838 0.070001215 -0.035786375
0002c0 a3 d2 f1 bd c4 ba 6f 3d 4e ac 1b bd 09 34 11 bc
       -0.11807754 0.058527723 -0.03800612 -0.008862504
0002d0 db 6f 2a bc 51 7f 46 3d 31 13 7f 3d 3a 84 36 bb
       -0.010402645 0.048461262 0.06227416 -0.002784981
0002e0 b0 36 ae bc 9e a8 17 bd 4d db 89 bd 80 7d 4e 3d
       -0.021266311 -0.03702604 -0.067312814 0.050412655
0002f0 67 79 67 3c 70 ad 7b 3d e6 ca e2 bd 3c 44 f8 bd
       0.014128066 0.0614447 -0.11073856 -0.1212239
000300 4b 01 0a be ab 02 92 3d 57 5d 93 bd be f1 95 3d
       -0.13477056 0.07129415 -0.071955375 0.07321499
000310 31 53 76 bc 5f 25 98 3d 1d be 71 bb d8 13 69 3d
       -0.015034483 0.07429003 -0.0036886998 0.05690369
000320 7a 7a 35 3c 15 d5 65 3c 53 de 13 3c 25 40 47 bd
       0.011076564 0.0140278535 0.009025174 -0.048645157
000330 dc ff ac bd a5 1c 92 bd b2 19 24 3c 12 a5 f3 3c
       -0.08447239 -0.0713437 0.010015892 0.029741798
000340 0b 4d f0 bd c7 9a 8e bc d8 ed ba 3d 56 80 44 3b
       -0.11733445 -0.017407788 0.09127396 0.002998372
000350 1e f0 0c bd 70 e5 f6 3c 7d e2 29 3d 2e 33 79 3d
       -0.03440868 0.030138701 0.04147576 0.060839824
000360 dc 5d 4d bb 52 16 87 bd 40 51 48 3c 40 fd 6e 3d
       -0.0031336462 -0.06596054 0.012226403 0.058346987
000370 98 95 9f bd cc bd 0e be 28 23 e3 bd 92 c8 8d 3d
       -0.077922046 -0.1393959 -0.1109069 0.069230214
000380 80 d9 20 3d 8e 21 89 3d 28 cf 8d bd 11 be 49 3d
       0.039269924 0.06695853 -0.069242775 0.049253527
000390 41 c4 7b 3c 34 10 c3 bd 24 89 f0 bd b9 e6 80 bd
       0.015366615 -0.09524575 -0.117449075 -0.06294007
0003a0 4b 1a af bd 63 c8 9e bc 44 4d 05 be 13 06 7b 3c
       -0.08549937 -0.019382661 -0.13017756 0.015321272
0003b0 34 e4 4a 3b 09 3f fc 3c 4d 52 6d bd bf 6b ec bc
       0.0030958774 0.030791776 -0.057939816 -0.028859971
0003c0 83 a1 0f bd 88 88 8d 3d 36 9f 7a bc e1 f9 d0 bd
       -0.03506614 0.06910807 -0.015296748 -0.102039106
0003d0 f4 11 69 3d 47 ed 72 bd b5 2c ee bd a1 0e 02 be
       0.056901887 -0.059308317 -0.11629621 -0.12700893
0003e0 99 27 e5 bd 8c 11 7a 3d 84 60 09 3d a5 c4 0c be
       -0.11189193 0.06105189 0.03353931 -0.13746889
0003f0 6e f7 bb bd c4 92 7e 3d b5 1e 8a 3d 2d db 9c 3d
       -0.09178053 0.062151685 0.06744138 0.07658992

fc1.bias f4 [32]
000000 3c e0 9c 3d 92 6e 5a 3c ba 89 92 bd 90 bd 0b 3c
       0.07659957 0.013332026 -0.071551755 0.008529082
000010 03 d9 9b 3c cc bb 1e bc 2f 1c df 3d de 92 03 3e
       0.019024378 -0.009688329 0.108940475 0.12848994
000020 50 be 47 bd 65 15 c4 3c fe d3 46 3e 03 cc f2 3c
       -0.04876548 0.023935983 0.19416806 0.029638296
000030 f3 c0 cf 3c c6 e1 be bd 6b f5 07 be 23 3d 9c 3d
       0.02536056 -0.093204066 -0.13277213 0.076288484
000040 58 6c 5f bd 14 a7 02 3e b8 9e b1 3d b4 e4 b1 3d
       -0.054546684 0.12759048 0.08672851 0.086862
000050 a5 5d 6d 3d 87 cb fb 3c 9a 19 57 3c 28 64 6e bd
       0.057950635 0.030736698 0.0131286625 -0.058200985
000060 49 7e d7 3b 87 6c ab 3d cb a8 e0 3d 98 cf 05 3e
       0.0065763337 0.08370309 0.10969695 0.13067472
000070 ae 8c e3 bd 11 de 6d be 79 a9 17 3e fd 6f b2 bd
       -0.11110817 -0.23229243 0.14810742 -0.08712766

fc2.weight f4 [2, 32]
000000 f8 c9 a2 bd 85 c4 8c 3c ff 49 c1 3c fa 85 ef bd
       -0.07948679 0.017183552 0.023594854 -0.11695476
000010 4d 8d 7b bd a6 fa e4 bb 63 b2 bb 3d 8e e7 26 3d
       -0.06141405 -0.0069878874 0.09164884 0.04074817
000020 d4 d1 1c 3e 55 22 05 be 2b ec 48 3d cb 1a be 3c
       0.15314418 -0.13001378 0.049053352 0.023206135
000030 c1 34 cb 3d 21 3e 00 be c0 23 ef 3c 38 c0 30 3c
       0.099221714 -0.125237 0.029191852 0.010788016
000040 61 fe a0 bd 1d b8 50 be 1c 9a c2 3d 31 33 86 3d
       -0.07861019 -0.20382734 0.0950205 0.06552733
000050 df fa 6f 3d 1b 73 e6 3d c4 66 02 3d dd 2a 96 bc
       0.05858886 0.112524234 0.031836286 -0.018330986
000060 87 dd 1c bc 8e f5 07 bd 34 0f 2a be c4 35 51 3d
       -0.009574301 -0.033193164 -0.16607362 0.051076666
000070 93 1e 6e bd cf 13 b2 bd b5 ff c3 3d 80 2a 78 bd
       -0.058134627 -0.086951844 0.095702566 -0.060587406
000080 9a d8 34 be 2e 60 04 3d 50 a6 53 3d 4d a4 1a 3e
       -0.17660752 0.032318287 0.05167228 0.15101738
000090 89 2f 90 bd ed 1d e2 3d 33 b0 16 3d aa 60 96 3c
       -0.070403166 0.11040864 0.03678913 0.01835664
0000a0 09 37 fe bc c1 86 8c 3d b3 d8 34 3c da 80 c9 3b
       -0.031032102 0.0686164 0.011037993 0.0061493935
0000b0 3c 34 49 3d 36 00 99 bd 04 af 3e bc 49 7f 47 3d
       0.04912208 -0.07470743 -0.011638407 0.048705373
0000c0 f7 95 d2 3b 8e b3 56 bd d0 4c 0c be 8a 41 18 3d
       0.0064265686 -0.05241733 -0.13701177 0.037171878
0000d0 30 b7 1f be 04 b9 1f 3e 45 73 32 be f8 8a 46 be
       -0.15597224 0.15597922 -0.17426784 -0.1938895
0000e0 3b de 5f 3d fc d2 a0 bd 9a 63 95 3d 5c c3 8c 3d
       0.054655295 -0.07852742 0.07294388 0.06873199
0000f0 18 6c 8f bd 77 1f 5c bd b0 16 ac 3d 39 44 e0 bd
       -0.07003039 -0.053740945 0.08402765 -0.109505124

fc2.bias f4 [2]
000000 96 78 3c 3e 33 d1 b2 3d
       0.18405375 0.08731308
