latest.pth (torch, 323690 bytes, 10 tensors)

conv1.weight f4 [32, 4, 8, 8]
00000000: 6ecb 32bd 11d7 5b3d a582 0abd 6e19 f6bc
00000010: f6ba 5abd 7c9d b1bc f674 d1bc fda5 2c3c
00000020: 0b20 30bd 285b 1dbc d54e d23b 06f1 3a3a
00000030: 4775 81bd a562 8c3d 13c9 8cbd 12f6 b6bc
00000040: 815d 1abd 0a5e 103d d7a6 7dbc 1504 bdbd
00000050: 9aff d9bb 86a3 473d e5c4 99bd 0613 c0bd
00000060: ecbe dd3c ec43 8dbd 909f 073d 37dc 1d3d
00000070: 3037 e23b 5824 853d 63d5 4e3c d14d 57bd
00000080: bdde 98bd 9786 27bd 5a9f 8e3a 16f3 87bd
00000090: 35da d0bc 0e55 163d 2321 babc 70d3 5c3d
000000a0: 6e68 cd3c d1a1 f2bc 8415 9a3d 2e93 b2bd
000000b0: 36b4 383d 9f15 bdbb dbf9 6c3d ec05 983d
000000c0: faac 633d b8cd 043c 2524 853d 98eb 1a3d
000000d0: 0c3c 613d ff18 203d 4ebe ba3c 9e7b 303e
000000e0: 3b12 b3bd edde 483d 8fd1 c6bc 7a63 1cbe
000000f0: bbf0 ef3b aec3 33bd 945d 9c3c ffe8 9d3d
00000100: 639a 8dbc 49e7 99bd eb93 26bd 7556 a83c
00000110: 9c18 2d3d 5b20 6a3d 05d9 3c3c 014e bfbc
00000120: 5a5c 58bd 2056 abbd f337 283d ec03 1c3d
00000130: 9286 19bd 8ba0 6e3d ae79 aabd 399c 823d
00000140: 23ab e83c 4af6 e63c 72dc 76bc 801b edbd
00000150: 1d30 57bd 7742 913c bb21 35bc d8b2 55bd
00000160: b8f6 243c 40b7 293d 8cc1 2a3c 535e aebd
00000170: 5866 91bd 5281 c63c 5f8f b53c f6e2 83bd
00000180: 8bff 7cbd 643d 7abd fa3f 0fbd 64a7 54bd
00000190: 128f 5ebd a5a5 2f3d 765b 2cbc d735 213c
000001a0: d5c6 00bc 1313 1abd a218 91bd 1105 67bd
000001b0: 980b 9f3d 2ebf 48bd bdb1 16bc f2f4 49bd
000001c0: db1f 513c 52bc 00be 37bf ccbc f0f7 8bbd
000001d0: 2f2f 883c be4a 213d 2e40 343c 6d1b ab3d
000001e0: 5d36 31bd 2dd7 48bd 542f 85bb e8dd f5bd
000001f0: 5df1 dabc 0ce8 883b 0f2c 683d 90ef e0bc
00000200: 8786 29bd fec2 8d3d a4ea 903d 7a9e 5d3d
00000210: 4a26 46bd 141a 893c caae 97bc 5f42 06bd
00000220: 4d04 f4bc 3007 e9bc 89e6 ff3b b9ae a43d
00000230: 7e08 25bd 2980 2f3d 778c 7c3c 115c 3cbc
00000240: c12a 2b39 0478 bc3c 59d3 9dbd a096 2d3c
00000250: 2194 adbd ae68 e83c c4c5 7abd cdeb e4bc
00000260: 9702 6d3c 9990 eabc 6ec2 00bc ec8b d1bc
00000270: 0079 c8bc e35b 633b f42d 80bc 9abb dabc
00000280: b041 c53c 6c20 eabc 54e4 84bc 6f31 223d
00000290: 9bc5 c7bc 9d47 06bd d83f 073d c0b7 623c
000002a0: 7b0b 3c3b 86d9 70bc b577 cd3b a2a0 afbc
000002b0: a06c 9dbc b82e 77bd 1689 11bc fe29 ed3b
000002c0: 8ed0 9fbc da42 6d3c ab9f 49bc f071 81bd
000002d0: 01e2 66bd ed7f 7ebc aea5 473d a8f4 1e3d
000002e0: 70b4 03bd 7869 74bc 21a9 60bd 40fd b6bc
000002f0: df53 dc3a da3e 56bd eca2 ddbc 232d d03c
00000300: 86ad acbd 5df6 d6bd 7bfe 253d 3b45 bebc
00000310: 6064 dbbd 48b6 043d 7be7 00be a869 5bbd
00000320: 4382 98bd 7d2d f0bb ca43 343d c23b 9b3c
00000330: 382f 33bd d978 2dbd 1f8f 0abe 4d7c 37bd
00000340: fd69 e73c fa13 403d 7038 3e3d 0ef3 5e3c
00000350: 39b0 d5bc caad 663d f4d8 56bd 1519 32bd
00000360: 5fbe 943c fe97 ed3c 5c1e dbbc 33bf 0fbd
00000370: 22ee a6bd 69b5 a03c b95b e4bc 830c 93bd
00000380: d53d 87bd 0c4e bb3c c620 15bc 56ba 4b3c
00000390: df93 283d 63f7 9f3a 1068 e0bc d5f1 29bc
000003a0: db00 8bbd b97f fdbc b18f 64bd dca6 003b
000003b0: 7393 87bd 2097 78bb 5509 18bd ca7c e63c
000003c0: 27e2 a33c 3c17 7fbd 0fe2 8cbd 76ed f5bb
000003d0: bd67 1fbb 67df 2fbd 1bd6 7fbd 6dab fdb9
000003e0: 07f3 62bd 3879 fcbb ebe3 0dbe ea0a 42bd
000003f0: 6207 9fbd 9b68 05be 1005 97bd c30d 93bd
-0.043651037 0.0536719 -0.033816 -0.030041423 -0.053400956 -0.02168154 -0.025568467 0.010537622
-0.04299931 -0.009604253 0.006418089 0.0007131252 -0.06321197 0.068547525 -0.06874289 -0.022334132
-0.03768683 0.035245933 -0.015481672 -0.09229294 -0.0066527845 0.048739932 -0.07508258 -0.093786284
0.027068578 -0.06897721 0.033111155 0.03854009 0.0069035515 0.06501073 0.012624118 -0.052564446
-0.07464359 -0.04089984 0.0010881231 -0.06638162 -0.025494674 0.03670221 -0.022720879 0.05391258
0.02507421 -0.029618176 0.07523635 -0.087194785 0.045093738 -0.0057703997 0.05785547 0.074230045
0.055584885 0.008105688 0.06501035 0.037822336 0.054988906 0.039086338 0.022795822 0.17234656
-0.087437116 0.049040724 -0.024269847 -0.15272322 0.0073223985 -0.043887787 0.01908759 0.07710456
-0.017285531 -0.07514817 -0.04066841 0.020549038 0.042259797 0.057159763 0.011526351 -0.023352625
-0.05282245 -0.083660364 0.041068982 0.038089678 -0.037481852 0.058258574 -0.0832399 0.06377453
0.028401917 0.028193612 -0.015067207 -0.11577511 -0.05253612 0.017731888 -0.011055405 -0.05217251
0.010068588 0.041434526 0.010422122 -0.08514085 -0.07099599 0.024231587 0.022163091 -0.06439774
-0.061767142 -0.061093703 -0.034973122 -0.05191745 -0.05433566 0.04288258 -0.010519853 0.009839497
-0.007859905 -0.037615847 -0.070847765 -0.056401316 0.07765883 -0.04901045 -0.00919765 -0.049305864
0.012763943 -0.12571838 -0.024993522 -0.068344 0.016624061 0.03937792 0.01100163 0.083548404
-0.043264735 -0.049033333 -0.00406448 -0.12005216 -0.02672642 0.004178053 0.056682643 -0.027457982
-0.04138806 0.069219574 0.07076004 0.054106213 -0.04837636 0.016736068 -0.018515963 -0.03277814
-0.029787207 -0.02844581 0.0078094644 0.08041138 -0.040291302 0.042846832 0.015414349 -0.01149656
0.00016323758 0.023006447 -0.07706327 0.010594994 -0.08475519 0.028370228 -0.06122376 -0.02794447
0.0144659495 -0.028633403 -0.007858856 -0.025579415 -0.02447176 0.003469222 -0.015646912 -0.026700784
0.024079174 -0.028579913 -0.016222157 0.039597925 -0.024386218 -0.03278314 0.03301987 0.013837755
0.0028693366 -0.014700299 0.0062703737 -0.0214389 -0.019216835 -0.06034729 -0.0088827815 0.007237672
-0.019508626 0.014481271 -0.012306134 -0.0632056 -0.056367878 -0.01553343 0.04874199 0.03880754
-0.0321545 -0.014917724 -0.054848794 -0.022337556 0.0016809664 -0.052306034 -0.027055226 0.025412148
-0.084315345 -0.10496209 0.040525895 -0.023226371 -0.107125044 0.0324004 -0.12588303 -0.05356756
-0.074467205 -0.0073296414 0.04400996 0.018949393 -0.043746203 -0.042351577 -0.13531159 -0.044796277
0.028248781 0.04689405 0.04644054 0.013607753 -0.026085006 0.056318082 -0.052452996 -0.04348095
0.018157182 0.02900314 -0.026747875 -0.03509445 -0.08150889 0.019617753 -0.027875768 -0.07180121
-0.066035904 0.022864364 -0.009102052 0.012434563 0.041156646 0.0012204464 -0.02739337 -0.010372599
-0.067872725 -0.030944692 -0.055801097 0.0019630706 -0.066199206 -0.0037931874 -0.037118275 0.028135676
0.020005299 -0.062278017 -0.06879055 -0.007505114 -0.0024323307 -0.042937662 -0.062460046 -0.00048383643
-0.05540755 -0.00770488 -0.13856475 -0.04737369 -0.0776508 -0.13028185 -0.073740125 -0.07180359

conv1.bias f4 [32]
00000000: 3377 7a3d b03b 913d a490 f9bc 77fc 403d
00000010: 44bf 8dbc 82e5 a63d 7d28 10bd 7c47 9fbc
00000020: 5af0 873d 4e70 39bb 889c 2ebb 0cd4 cc3d
00000030: a418 64bd 4411 223c 1da7 21bd eeea f4b9
00000040: 1618 f1bb 573f de3d 0b4a a0bd 5239 eabd
00000050: fa31 8a3d 8398 6abd 4b40 a63c f77d 2f3d
00000060: b9bc 233c 9a1a a03d 1d83 2bbd 1cfe 85bc
00000070: 2729 a03b b3ae cdbc 93db 223d 8176 f4bc
0.061148833 0.070914626 -0.030464478 0.04711577 -0.017303117 0.08149244 -0.035194863 -0.019443266
0.0663764 -0.0028295699 -0.0026643593 0.10001382 -0.05568756 0.009891812 -0.039466012 -0.00046714343
-0.0073576076 0.10851925 -0.078266226 -0.11436714 0.067478135 -0.057274353 0.02029433 0.04284474
0.009993725 0.07817574 -0.041873086 -0.01635652 0.0048877182 -0.025107717 0.039760184 -0.029841663

conv2.weight f4 [64, 32, 4, 4]
00000000: 11f7 90ba 8dc0 a8bd d897 54bd dbef cdbb
00000010: 4b29 21bc b767 88bd 1bbd 453c e9aa 633d
00000020: bb9d 60bd 4d6d e03a be4b 103d a30c 453d
00000030: ce00 a8bc c234 753d 4ac0 2dbb b9fc bebd
00000040: d76b 0fbd 51e7 1cbe 0210 293d 211e 9fbd
00000050: 0824 753d 3efe b7bd e9e2 ae3a 410f c63a
00000060: cbe2 a43d 37a2 e7bd e684 eb3c c6ea e7bb
00000070: e99d 033b a1a7 b93c 38c7 423d 2554 a0bd
00000080: d039 d2bb 0172 a6bc b216 6d3c 2f9a 7c3a
00000090: 644d afbd 89df 6fbd d1dd b43b 9eab 9c38
000000a0: 8976 78bd d490 00bd 1255 3b3d 6bd9 1cbd
000000b0: f096 e6bc fba2 cd39 cddf 9c3c f6d4 1c3c
000000c0: 7780 013c 30b7 70bc 446e 62bc 18e7 f6bc
000000d0: bfaa cb3c 5d85 2abc 0198 723c 0286 b43c
000000e0: 7994 c8bc fa51 76bc 1553 8b3d 231a 573d
000000f0: d3bf e3bb e24d bebd 7dfd 313c fd72 1b3d
00000100: a2fa d13c 590e a03d 5660 fa3c 60ae aebb
00000110: b09a 50bd 7c65 ca3b 4e83 6ebb c769 13bc
00000120: 701d 80bd 9616 9dbd eb41 923b 1245 03bb
00000130: 9411 22bd 4799 ddbd a40f 93bc 86ac 783c
00000140: f7b7 8a3d 0cbb c8bd a131 7c3c 17c3 19be
00000150: abdb 0ebd e856 98bc 842e a3bd 9e98 ad3b
00000160: baac 44bd 51ed eebd 95a2 863b 17b0 0e3d
00000170: d921 413d c63d 3cbd 26be 1fbd 106a 36bc
00000180: 5785 84bd 822a a7bb 62b3 553c ebaa 85bc
00000190: 23ea 403c 6159 813c 0cc9 6bbc 80f9 e0bb
000001a0: 66e8 48bd 1f9b e2bc 0270 fb3c bbe0 36bc
000001b0: 8470 24bb 0516 d7bc bdd3 b43c 9c5f 703d
000001c0: 3e74 f33c eb8c 9bbd db0d 0ebd 9854 1ebd
000001d0: e85f 683d 3338 7f3c c1df 193d 5851 c7bb
000001e0: 09a9 c0bd 2e2d dd3c 95a3 e8bc 6c01 373d
000001f0: 38a2 f1bc fece 36bd 65db 07bd 1354 f4bb
00000200: 6478 603d 2dc7 7d3c fc6e 36bb adc9 993b
00000210: ecd7 9cbd 0df1 98bd 5c13 0cbd 28b8 443d
00000220: 66dd 86bd 2ec3 10bc 8f01 c3bc 9a7f b73c
00000230: 8352 973d 202e b1bd 90ba 3ebd a8ad 13bd
00000240: 54bd 6bbd cf5d dbbd f746 11bc bec6 d93d
00000250: ea07 a23d 05ab 4ebd 34de 88bd 0e24 a2bd
00000260: 4c6a 8c3c 53e6 1e3d d47e a7bc 5e5e bcbc
00000270: 40e8 3b3c 17c6 89bd c3f1 91bc 63ee 05bc
00000280: 74ae bebd efd3 34bd 3756 433d 9713 e73c
00000290: c7b2 463c e329 dfbb 95d2 7e3b 1cd5 8f3d
000002a0: 6707 29bd 6072 2cbb f149 fe3c 0454 843d
000002b0: 70f4 fdbc c35d 27bd b772 113d 4592 28bb
000002c0: 86e2 2ebc ae47 c139 d8d3 82bc 75f3 a53d
000002d0: e244 0d3d 6657 fbbc 3654 b13d 7841 123d
000002e0: a06c 423d d930 acbd 89ae 2dbd 9d0e 7f3c
000002f0: 3ff5 853c 4ac1 29bd 91f4 79bd 43a1 90bd
00000300: 6c3a dabc ac34 15bd 4fb8 14bd cc7d cdbc
00000310: 7873 6b3a c504 9cbd 4aaf 72bd cf12 813d
00000320: 3bb0 c8bd 1220 05be fec0 53bd c472 09bc
00000330: cb52 afbc 15fc 293d f8f8 213d 77b4 ebbb
00000340: 0ca7 68bd a332 9e3d 6506 b9bc 852a 743d
00000350: 66cc d8bc 0cef 31bb 3336 d23c e54b c83d
00000360: da72 7dbd fcd6 513b 7081 a83c 8e51 bdbc
00000370: eb8b 063d a905 563d 4c57 02bc f26c a2bd
00000380: 9bf6 86bd 5fe6 453d 7d23 103d 01cd 823c
00000390: 257a 40bd 3f75 253c 8df2 74bd 47af 97bd
000003a0: 8334 a23c cbb3 1c3d 8f48 06bd b12d 833d
000003b0: fb6a 9dbd 002c be3d 4a96 dfbd d69b 03bc
000003c0: 0367 683d 0208 fa3c 79c1 74bb 8ced f23a
000003d0: dfb0 babc 9cd1 a3bb 9bab bfbb f446 a6bc
000003e0: 7178 babc e65a 193d be33 443b 32d9 b1bc
000003f0: ee46 cfbc e04a afbb c886 433d 9397 9f3d
-0.001105996 -0.08239851 -0.051902622 -0.0062846965 -0.009836505 -0.06660407 0.012069012 0.055582915
-0.054837923 0.0017122418 0.035228483 0.048107754 -0.020508196 0.059864767 -0.0026512318 -0.09325547
-0.035014953 -0.15322615 0.041275032 -0.077694185 0.059848815 -0.0898404 0.0013342771 0.0015110747
0.0805107 -0.11310237 0.028749894 -0.0070775477 0.0020083135 0.02266294 0.04755327 -0.07828549
-0.006415583 -0.020318033 0.014470743 0.0009636012 -0.08559683 -0.05856279 0.0055196066 7.470626e-05
-0.06065992 -0.03138812 0.045735426 -0.038293283 -0.028148144 0.00039222077 0.019149685 0.009572258
0.007904164 -0.014692113 -0.013820235 -0.030139491 0.024861692 -0.010407773 0.014806748 0.022036556
-0.02448486 -0.015034193 0.06802956 0.05251516 -0.0069503575 -0.09292199 0.010863659 0.03795146
0.025632206 0.078152366 0.030563515 -0.0053308457 -0.05092877 0.0061766487 -0.0036394182 -0.008997387
-0.06255615 -0.076703236 0.0044634244 -0.0020030183 -0.039567545 -0.10820251 -0.017951794 0.015177852
0.0677337 -0.09801301 0.015392692 -0.15015827 -0.03487746 -0.018596128 -0.079678565 0.0052977344
-0.048016287 -0.11666358 0.0041087368 0.0348359 0.04715142 -0.04595735 -0.0389997 -0.011133686
-0.06470745 -0.005101503 0.0130432565 -0.016316852 0.011774573 0.01578969 -0.014391195 -0.00686568
-0.049049757 -0.027661858 0.030693058 -0.011161978 -0.0025091479 -0.026255617 0.02207362 0.05868493
0.029718515 -0.07595237 -0.034681182 -0.038654894 0.05673209 0.015577364 0.037566904 -0.006082695
-0.09407241 0.026999082 -0.028398314 0.04467909 -0.029496297 -0.044630997 -0.033168215 -0.0074563115
0.054802313 0.015489382 -0.0027837148 0.004693231 -0.07658371 -0.07467852 -0.03419815 0.048027188
-0.06585197 -0.008835597 -0.023804454 0.022399712 0.07388785 -0.08651376 -0.04656464 -0.036054283
-0.057553604 -0.10711252 -0.008867017 0.1063361 0.07911666 -0.050456066 -0.06683007 -0.07917033
0.01714053 0.038793873 -0.020446219 -0.022994217 0.011468947 -0.06727236 -0.017815476 -0.008174512
-0.09310618 -0.044147428 0.047689643 0.028207583 0.012127585 -0.006810413 0.003888284 0.07023069
-0.041266825 -0.002631329 0.031041117 0.06461337 -0.031000346 -0.040860903 0.03550979 -0.002572195
-0.010674125 0.00036865234 -0.015970156 0.08103076 0.03448952 -0.030681323 0.0865864 0.035706967
0.047466874 -0.084077545 -0.042402778 0.015567449 0.016352294 -0.0414441 -0.061024252 -0.07062008
-0.026639186 -0.036427185 -0.036308583 -0.025084399 0.0008981745 -0.07618097 -0.0592492 0.063024156
-0.09799238 -0.13000515 -0.051697724 -0.008389179 -0.021401783 0.04150017 0.039544076 -0.007193144
-0.056799933 0.07724502 -0.022586057 0.059610862 -0.026464652 -0.002715054 0.02566061 0.09780101
-0.06187711 0.003201901 0.020569533 -0.023110177 0.03284828 0.05225149 -0.0079553835 -0.07930936
-0.06590005 0.048315402 0.035190094 0.015966894 -0.046991486 0.010098754 -0.059801627 -0.074064784
0.01980043 0.0382574 -0.03278404 0.06405199 -0.076864205 0.09285736 -0.10917337 -0.00803276
0.056738865 0.030521397 -0.0037346764 0.0018533929 -0.022789417 -0.0049993526 -0.0058493144 -0.020297505
-0.022762509 0.037440203 0.0029938067 -0.021710012 -0.025302377 -0.005349502 0.04773596 0.07792582

conv2.bias f4 [64]
00000000: a8c6 f8bd e231 2dbd 80d0 ae3c 6b5f 6bbd
00000010: 0d08 29bd f3e1 06bd c527 89bc 0673 a6bd
00000020: 4b48 75bd 4714 b1bd 574a f3bc 05ab 083d
00000030: ca86 3abd 5844 4f3d cf2c 35bb bd2f 963c
00000040: f918 abbd b372 733b 8a7e 2a3c 9723 02be
00000050: 6368 173c c2ec 7fbd 5a52 89bd 928b fdbd
00000060: b61d a5bb 05d4 96bc 5a1a 513c 4d7c 1fbe
00000070: 4b3f 303c 9bac 163d 0ba4 04bd 4bc0 8bbd
00000080: c55b 2c3c 9b33 9ebd 8943 a4bc 216d 99bd
00000090: b6ba 40bc f52a c9bc 2b35 a43d 6804 103d
000000a0: 85ff 013c 4c56 2a3d ed61 71bd 500c 9ebd
000000b0: ac7e 933c 7bd2 dfbc 7f76 0cbd 5315 94bd
000000c0: 508e 44bd b35e eb3b 5016 77bc e632 85bd
000000d0: 1e95 33bd c010 86bc 5259 24bd 87e7 0cbe
000000e0: bbca 553a 3dc1 f33c 6087 2bbe 676c adbc
000000f0: 9518 95bd 0bf8 8f3a 4970 96bd 02fe 08bc
-0.12147266 -0.0422839 0.021339655 -0.057464045 -0.041267443 -0.032930326 -0.016742596 -0.08127408
-0.059883397 -0.08646446 -0.029698534 0.033366222 -0.0455387 0.050602287 -0.0027645116 0.01833331
-0.083543725 0.0037147223 0.010406146 -0.12708889 0.009241196 -0.06248165 -0.067051604 -0.123801365
-0.005038942 -0.018411646 0.01276263 -0.1557476 0.010757278 0.036785703 -0.032383006 -0.06823786
0.010519926 -0.07724687 -0.020051735 -0.07491518 -0.011763265 -0.024556616 0.080179535 0.035160452
0.007934456 0.041586205 -0.05893128 -0.07717192 0.018004738 -0.027322045 -0.034292694 -0.0723063
-0.047987282 0.00718292 -0.015081003 -0.06503849 -0.04384338 -0.016365409 -0.040124245 -0.13760196
0.00081555144 0.02975523 -0.1675086 -0.021169854 -0.07280079 0.0010983957 -0.073456354 -0.008361341

conv3.weight f4 [64, 64, 3, 3]
00000000: bf95 1abd cee8 2d3c 80a7 6c3c 6143 013b
00000010: 7526 293c 9941 9c3c 311f 4abd 3730 7dbc
00000020: 3275 cabc 14b7 74bd f7d5 203d 4e6b 783d
00000030: d8fd cfbc 646c 2dbd 7357 b83c df71 103d
00000040: ebd9 d73c 7997 ff3c 10cc 493c 8dd7 ee3c
00000050: 2b40 5ebd bc2b 8d3c 40c3 80bd 07bb 2a3d
00000060: f2bc 2abc 92cf 30bd 0016 1a3c bc92 4f3d
00000070: dbfa 013d 764d c0bc cfba 263c 8c8b 9e3c
00000080: b9b5 02bc 5f71 7b3b fb19 03bd 1ca3 4c3d
00000090: f4d0 f33c c477 d13c 9cb9 96bc 7261 5ebc
000000a0: b5e5 303d 0a3f 00bd bc78 783c bd08 953d
000000b0: 4531 a4bc 62dd e83b 0f0a 0ebb 998e 2abd
000000c0: c408 24bd 24fa 81bb 4054 373d 7d5f 91bc
000000d0: 72c1 0bbd 893f 8c3d f774 953c 25d9 a2bb
000000e0: a140 753c f6aa 18bd 6b4f b7bc 1d95 33bd
000000f0: af03 6b3c c150 24bb 990c 64bc d027 203b
00000100: 01ee 133c a636 bcbc 86c1 d1bd a6d9 1bbb
00000110: 394a 44bd e49d 92bc 0e88 983d e67d 843c
00000120: 41c4 d53c b2a7 7fbc b87a 5cbc 2a97 b23b
00000130: a92e 673c f6b2 9c3d 1a8e 05bd 2a3d 993d
00000140: ede0 303c 6d9f 633d a367 87bd 9566 c8bc
00000150: 052c 343d db30 80bd 86aa a7bc cf14 d0bc
00000160: 8661 0bbc fb05 a23d 9383 be3c a922 a33c
00000170: 2043 6dbc fdf3 733d 8a7c 92bd 94ec e9bc
00000180: 9051 bebc bb89 5bbd aa10 553d b55a 203c
00000190: e523 4c3d 9ad6 333d 2e64 7cbc 1025 6cbc
000001a0: 0902 82bd b4b1 0dbd e9e4 4fbd fe06 673d
000001b0: 3e39 d63c 6687 023d c868 a43b e184 a4bd
000001c0: d266 823c f3fa d23a d5c8 e1bc 587b 0b3d
000001d0: d216 aa3c c8ad bebb be24 413c 1a77 6abd
000001e0: 686e 3b3b bd6c 693d a724 4fbc 20ff a8bb
000001f0: d53c dfba 86dc dbbc cd15 2c3c b239 433d
00000200: 4c81 303a ec11 cebd 531b bcbc 0360 dfbc
00000210: eb3d e33c 96b4 063d 55d9 c8bc aa16 863c
00000220: 845c 5dbd 1db2 2c3d e160 b13a 1551 2b3d
00000230: 02f8 11bc 0d06 093b a505 c23c a89f d8bc
00000240: 3318 c3bc 8f3d 8cbc e88a d5bc 2e03 7c3d
00000250: 47a5 aa3b c20f 88bd 425e f3bb c62d 7dbc
00000260: 6e10 59bc b225 6fbd 8671 203b 94ca 683b
00000270: 562d 2fbc 78bc 7fbc 9acc 443c 19c7 9fbc
00000280: c054 bd3c d757 093d e470 af3c 6a61 433d
00000290: 3d74 943c 0004 ed3c 06b5 7cbc d5d9 7bbd
000002a0: 5228 04ba d4bc 51bd 1230 633d a16f 4cbd
000002b0: 4171 e5ba 9076 d0bc 90fa 0c3d 0926 0dbd
000002c0: 1323 a7bc ef73 21bd 1839 8a3b 0380 3f3c
000002d0: 50d7 133c 7f71 90bd 25d1 133d 55f2 51bd
000002e0: 41dc 353d 921b 303d 8a89 353b 21dd bcbb
000002f0: 52a8 8ebc 70de b13b 54aa 4a3d 045e bb3c
00000300: 0f3d a33c 0575 a2bd 86a2 58bd e29a 153c
00000310: cecb 3d3b 4f22 293d 84fb c43c 5c8e a8bd
00000320: bd7d 9abc f30b 943d e380 68bc 2891 cfbb
00000330: 9b39 abbd 4e65 1ebc 3e62 913b 0fe1 7f3c
00000340: 653e 563c 66da 81bc 5ae4 703a 4b67 9dbb
00000350: ff78 8dbd 0122 d1bc 6a33 853b 636f ddbc
00000360: 6baf c5bc a43c 66bc e43f 003d 7cba 2dbc
00000370: a461 f7bc 1ae0 083a 9937 08bd 66f4 d4bc
00000380: 51d9 6e3d 11d2 babc bd25 8e3d 959f 373d
00000390: 7392 843d b200 1bbc 57c9 89bc fcec 39bd
000003a0: d3fd 8e3b 9868 e13c 70d0 703d 5917 e63d
000003b0: 76b4 22bd 5137 87bd 6e77 2fbd d433 5abc
000003c0: cef7 d8bc 7168 9cbc 79a5 aebc eb1d 9fbb
000003d0: 7d4a 7ebc 39e9 1bbd 3586 8e3d 0426 59bd
000003e0: 8911 d8bb e8d9 d63c a7ee 9c3c e1f6 8a3c
000003f0: bd08 d1bd b546 42bd 0536 f03c 8c12 913d
-0.037740465 0.010614587 0.014444232 0.0019724 0.01032411 0.019074248 -0.049346153 -0.01545339
-0.024714086 -0.05974491 0.039266553 0.06064921 -0.025389597 -0.042339697 0.022502637 0.035264846
0.026349029 0.031200157 0.012316719 0.029155517 -0.054260414 0.017232768 -0.06287241 0.04168227
-0.010421025 -0.043166704 0.009404659 0.050677046 0.031733375 -0.023474436 0.010176375 0.01935365
-0.007977896 0.0038367135 -0.0320072 0.04996024 0.029762723 0.025569804 -0.018399052 -0.013573037
0.043187816 -0.03131012 0.015165504 0.07277057 -0.020043025 0.007106469 -0.0021673476 -0.041639898
-0.040047422 -0.0039665867 0.04475808 -0.017745728 -0.03412003 0.06848056 0.01824425 -0.0049697333
0.014969022 -0.037272416 -0.022376737 -0.043843377 0.01434414 -0.0025072547 -0.013919019 0.0024437793
0.0090289125 -0.022975277 -0.1024199 -0.0023780852 -0.047922347 -0.017897554 0.07447825 0.016173314
0.026094558 -0.0156039465 -0.013456993 0.005450149 0.014110246 0.076513216 -0.03260622 0.07482369
0.010795814 0.055571962 -0.06611564 -0.024462977 0.043987293 -0.062593184 -0.020467054 -0.025400547
-0.008507138 0.07911297 0.023256099 0.019913988 -0.014481336 0.059558857 -0.0715266 -0.028555192
-0.023232251 -0.053598147 0.052017845 0.009787251 0.04983892 0.043905832 -0.015404744 -0.014413133
-0.063480444 -0.0345933 -0.050755415 0.056403153 0.026150342 0.031867407 0.0050173737 -0.08033157
0.01591817 0.0016096517 -0.027561584 0.034053177 0.020762835 -0.005819056 0.011788545 -0.05724249
0.0028599743 0.056988467 -0.012643016 -0.0051573664 -0.0017031679 -0.026838552 0.010503245 0.047662444
0.0006733134 -0.10062012 -0.022962248 -0.027267462 0.027739486 0.032887064 -0.024517694 0.016368229
-0.054043308 0.04216205 0.00135329 0.041825373 -0.008909227 0.0020908148 0.023684332 -0.026443318
-0.02381525 -0.017119197 -0.026067212 0.06152647 0.005207691 -0.066436306 -0.007427008 -0.015452808
-0.013248546 -0.05838556 0.0024481728 0.0035521137 -0.010691961 -0.015608899 0.012011671 -0.019504117
0.023111701 0.033531036 0.021416135 0.047700323 0.018121833 0.028932571 -0.015424019 -0.061487038
-0.00050414086 -0.05120547 0.055465765 -0.049911145 -0.0017505066 -0.02544716 0.034418643 -0.0344601
-0.020402467 -0.039417204 0.004218232 0.011688235 0.0090235025 -0.07052898 0.036088128 -0.051256496
0.044399504 0.042995043 0.0027700388 -0.0057636653 -0.017414246 0.005428128 0.049478844 0.022871979
0.019926576 -0.07932476 -0.05288937 0.009131165 0.0028960588 0.041292485 0.024045713 -0.08230278
-0.018858785 0.07228842 -0.014190885 -0.0063344426 -0.08360597 -0.009667708 0.00443676 0.015617623
0.013076399 -0.01585121 0.00091893005 -0.0048035732 -0.06907844 -0.02552891 0.004064967 -0.027030652
-0.024131497 -0.014052544 0.03131093 -0.010603543 -0.030197926 0.0005221382 -0.033256147 -0.025995445
0.058312718 -0.022805246 0.06940792 0.044829924 0.064732455 -0.009460615 -0.01681964 -0.04539202
0.0043637543 0.027515694 0.05879253 0.11234922 -0.039722882 -0.06602348 -0.042838506 -0.013318021
-0.02648535 -0.01909277 -0.021319138 -0.0048558614 -0.015520689 -0.038064215 0.06959192 -0.05301477
-0.006593887 0.026226953 0.019156767 0.016963424 -0.10206745 -0.047430713 0.029322634 0.07083616

conv3.bias f4 [64]
00000000: 24bd ba3d 946e 253e db09 163e b16f 373e
00000010: 4b89 6f3c 75b7 96bd bcb8 33bd 19f3 2e3e
00000020: 71a5 fbbc 8f06 3dbd 5468 39bb 9973 5c3c
00000030: 123b 3e3d cbae b63a 8909 b93d 96bd b9bd
00000040: fe7a 89bd 0242 3ebd 5561 2fbe 90cb 2b3d
00000050: 347c c0bc b667 0b3e 83a8 d83d df36 f4bc
00000060: 73ae 253d 0c7b 18bd ec47 373d 336f 353e
00000070: 8326 b9bd 6d29 443d 568e 6cbb 2b25 173d
00000080: f8e5 b2bc c34a f03c ff26 3abd af4a 3f3d
00000090: d99b a3bc 7bd3 523c 1204 923d 0bca 18bd
000000a0: 46cd 71bc 5936 0dbc bc5e 3e3e b4b6 fbbd
000000b0: 4345 15be 64f1 17be a1af 0b3d 1b12 123c
000000c0: 4941 78bc 8878 9c3b b415 ed3b e017 febd
000000d0: 9b8b 0d3e b3dd 33bd 388b 2ebc e94b 14bc
000000e0: 0ca9 edbd 260d 773d f87f 6bbc b158 28bd
000000f0: bc94 5dbc 90f3 0abd 6f09 12bd 3afb 9abc
0.09118107 0.16155463 0.14652197 0.179137 0.014620136 -0.073592104 -0.04387735 0.17084922
-0.030718537 -0.046148833 -0.0028290944 0.013455295 0.046443053 0.001393759 0.09035022 -0.09069364
-0.06712912 -0.04644967 -0.17126973 0.04194218 -0.023496725 0.13613781 0.10579016 -0.02981132
0.04044957 -0.03722672 0.044746324 0.177182 -0.09040549 0.04789107 -0.003609558 0.03690068
-0.021838173 0.029332524 -0.045447346 0.046702083 -0.019971775 0.012867804 0.071296826 -0.03730206
-0.014758414 -0.0086189145 0.18590826 -0.12290707 -0.14577202 -0.14838177 0.03410304 0.0089154495
-0.015152284 0.0047751106 0.007235253 -0.124068975 0.13822787 -0.0439126 -0.0106533095 -0.0090513015
-0.11604509 0.060315274 -0.014373772 -0.041100208 -0.013524231 -0.033923686 -0.035653528 -0.018918622

fc1.weight f4 [32, 64]
00000000: f6c4 cbbd 3eca e6bd b2d8 a0bd 28db 06bd
00000010: d0f5 5fbc 484d 993d 3817 86bd a493 adbd
00000020: b212 a73d de62 a63d 1053 ec3c 42f9 98bd
00000030: 802a 81bb 20bc e53b b0c4 b6bc e037 10bc
00000040: 8e36 f5bd a49d aa3d f889 573d 8893 f3bc
00000050: d6b9 9f3d b4ba b9bd 40ea ebbd 0038 ae3b
00000060: 5804 b6bc 7655 d5bd a85d b2bd 689f adbd
00000070: 88fe c9bc 6024 b5bb 6669 9c3d ec03 28bd
00000080: b055 be3d 80be 1a3d 6cdd 31bd b8bc b0bd
00000090: 1822 dc3d 88a7 e0bd 2655 b1bd 2406 43bd
000000a0: e87d f73d c8c7 a3bc 18e3 c3bc e63d c5bd
000000b0: b0e7 b73c 6208 abbd d479 25bd 7435 28bd
000000c0: 288d bf3d a41b f7bd 804f 49bb b4b7 b3bd
000000d0: cc96 61bd b039 9f3c e0fc 35bd f46b 18bd
000000e0: 0c7e 1fbd 98db 8d3c 0aeb c63d 5cf2 64bd
000000f0: e09d 48bd 3605 89bd ba4c d73d 36d8 fdbd
00000100: a8a7 91bd 9d33 42bd 27ba 013d ec89 a03d
00000110: c92e 993c 1e48 3ebd 945b a6bb cf51 083d
00000120: 4aac c13c 260f 30bd 1a17 e1bd ac5b 4d3d
00000130: 73ae 27bd 5784 bb3c 718f 3cbc 5a8f b3bd
00000140: b968 c93d 0d8a 023e 4b32 fdbd 36e8 5fbd
00000150: 079c b5bd 0405 ccbd 5ac4 923b ed13 043e
00000160: ffe8 313e f734 b4ba 3d56 353e 8d78 babd
00000170: e613 8c3d 93d9 4e3d 7ee7 943d 70c4 673c
00000180: 77dc f2ba 8ce8 5bbd f10b 5d3d 10fc b2bd
00000190: 3348 1b3e 207c a43c 6bc7 f23c 3ce2 b7bd
000001a0: c5df 02be 8e73 b63c d963 40bd 1aac 2b3e
000001b0: c3b9 84bb fae9 99bd 123f b03d 7939 bebd
000001c0: 731b c33d a5cd fbbd abce f43c 47d8 82bd
000001d0: e05f d53d 57e9 db3b 3bcd 97bc f8ea 153e
000001e0: c307 b3bd bbef 62bd 4481 6ebc 9659 64bd
000001f0: d85f 91bd caf4 7bbd 8883 d63c 03f6 0b3e
00000200: 0455 f7bd 0b00 583c b0d3 683d 20c0 f0bc
00000210: 1500 04be 7153 4dbd c4c9 5dbd cbcb 0a3d
00000220: 38a1 f6bc f337 04bd e540 dd3d 7a58 e13d
00000230: 0bc4 86bd 64ea d3bd 23e7 d8bc dcb1 1f3d
00000240: adbe 833c da7a 02be ea83 3e3d 21f8 13bc
00000250: 76fb e3bd 4585 5cbd 378b 8c3c 1e5e 32bd
00000260: 35f4 bebb 97fc f0bd acaa 6f3d 27fb a4bd
00000270: c04b eabd 77cb 053c 48c4 3a3d d09f b1bd
00000280: 55a5 29bd 7cb9 583d 4c9e 9cbd ecca f0bd
00000290: bc20 e83d 9885 89bd 8abf b13d 1987 dc3d
000002a0: 2f27 2c3d a95d 9b3c 7c40 323d b89a 35bd
000002b0: 0df0 02be 1d87 67bb 49dc 883d bc94 12bd
000002c0: 2353 f8bd c4ba 6f3d 4eac 1bbd fe37 45bc
000002d0: 3573 5ebc 5c7e 393d 3a12 723d 3a84 36bb
000002e0: b238 c8bc 9ea8 17bd d05b 90bd 807d 4e3d
000002f0: e377 333c 70ad 7b3d e6ca e2bd 3c44 f8bd
00000300: 3ae5 0dbe 345d 863d fda8 9bbd cf99 8b3d
00000310: 1ede a9bc 2367 a03d 1dbe 71bb 6629 603d
00000320: c81b c23b 69e7 833c cce0 213c 1e70 6abd
00000330: 019c c6bd 3bbf 8abd f959 c93a e0fc 143d
00000340: 8b95 f8bd 13b0 d2bc 2589 b93d 747b 40bb
00000350: cb83 1bbd 01e1 cc3c 15b9 163d f728 623d
00000360: 6337 eebb 6ab2 91bd 0a8e 003c 8140 5c3d
00000370: 9895 9fbd 8a81 15be 2c34 e7bd 66d3 8a3d
00000380: bf1d 143d 7b44 7f3d 28cf 8dbd 739f 3f3d
00000390: 9d6f 373c 0b0e bbbd 22cc f7bd 6de9 6cbd
000003a0: 9fa6 babd d45d 97bc 9c5f 0abe a655 513c
000003b0: ef34 ffba 47fd cf3c 4503 5cbd e9df 11bd
000003c0: d49f 0fbd 8888 8d3d 369f 7abc 70ef d4bd
000003d0: b998 5a3d a29b 7ebd ea33 f8bd 20f6 06be
000003e0: 3162 f0bd c4f9 6a3d 24c0 fe3c d5b1 0bbe
000003f0: 9783 c2bd c492 7e3d 7139 803d 2ddb 9c3d
-0.09949677 -0.112690434 -0.07853831 -0.032923847 -0.013669446 0.07485443 -0.065473974 -0.08475426
0.08157863 0.08124326 0.028848201 -0.07469417 -0.003941834 0.0070109516 -0.022310585 -0.008802384
-0.11973296 0.08330849 0.05262181 -0.029733434 0.07799117 -0.09068814 -0.11519289 0.0053167343
-0.022218868 -0.10416691 -0.0870927 -0.0847767 -0.024657503 -0.005528018 0.07637291 -0.041019365
0.09293687 0.03777933 -0.043424055 -0.08629745 0.1074869 -0.10969454 -0.08658819 -0.047613278
0.120845616 -0.019992724 -0.023911998 -0.09630947 0.022449344 -0.08351208 -0.040399387 -0.041066602
0.09353095 -0.12065819 -0.0030717552 -0.08775273 -0.05507545 0.019436687 -0.044430614 -0.037212327
-0.038938567 0.017316625 0.09712799 -0.055895194 -0.048978686 -0.06690447 0.10512681 -0.123947546
-0.07112056 -0.047412504 0.03167167 0.078388065 0.018699067 -0.046455495 -0.005076835 0.033281144
0.023641724 -0.042983197 -0.109907344 0.050136253 -0.040937852 0.022890253 -0.0115088085 -0.087675765
0.098344274 0.12747975 -0.12363108 -0.054664813 -0.088676505 -0.09961894 0.0044789733 0.12898226
0.17374037 -0.0013748695 0.17708679 -0.091050245 0.06839733 0.050500464 0.07270716 0.014145955
-0.0018528838 -0.05368857 0.053966466 -0.08739483 0.1516426 0.020078719 0.029636106 -0.08978698
-0.12780674 0.022271898 -0.046970222 0.1676487 -0.004050465 -0.075153306 0.0860578 -0.09288306
0.0952672 -0.12295083 0.029883703 -0.06388908 0.10418677 0.006711166 -0.018530479 0.14640415
-0.08741715 -0.055404406 -0.0145571865 -0.0557495 -0.07098359 -0.061512746 0.026185766 0.13668065
-0.12076762 0.013183604 0.056842506 -0.029388487 -0.12890656 -0.050128404 -0.054147497 0.03388576
-0.030106172 -0.03227992 0.10803393 0.11003204 -0.06580361 -0.10347441 -0.026477402 0.03898798
0.016082132 -0.12742177 0.04651252 -0.0090313265 -0.11131947 -0.053838033 0.017156227 -0.04354679
-0.0058274516 -0.11766928 0.058512375 -0.08055716 -0.114402294 0.008166186 0.045597345 -0.0867306
-0.04141744 0.052911267 -0.0764738 -0.11757454 0.113343686 -0.06714934 0.08679111 0.10767955
0.042029556 0.01896556 0.04351853 -0.044337004 -0.12786885 -0.0035328337 0.06682641 -0.035786375
-0.12125232 0.058527723 -0.03800612 -0.012037275 -0.013577272 0.04528652 0.059099413 -0.002784981
-0.024441097 -0.03702604 -0.07048762 0.050412655 0.010953876 0.0614447 -0.11073856 -0.1212239
-0.13856974 0.06560746 -0.07600591 0.06816446 -0.020735797 0.07832172 -0.0036886998 0.05472698
0.005923722 0.016101556 0.009880256 -0.05723583 -0.09697724 -0.067747556 0.0015361897 0.036373973
-0.12137898 -0.025718724 0.09059361 -0.0029370459 -0.037967484 0.025009634 0.0367976 0.05521485
-0.007269786 -0.07114108 0.007846365 0.053772453 -0.077922046 -0.14600196 -0.11289248 0.06778602
0.03616118 0.062321167 -0.069242775 0.046782922 0.011196044 -0.09133538 -0.12099482 -0.0578398
-0.09113812 -0.018477358 -0.13513035 0.012776768 -0.0019470731 0.025389327 -0.053714056 -0.035613928
-0.035064533 0.06910807 -0.015296748 -0.103972316 0.053368304 -0.06216014 -0.12119277 -0.13179827
-0.117374785 0.0573671 0.03109748 -0.13642056 -0.09497755 0.062151685 0.06260956 0.07658992

fc1.bias f4 [32]
00000000: 3ce0 9c3d 9891 883c 9809 99bd 8352 803b
00000010: 03d9 9b3c 80c7 dd3c 8b9e 313e d317 f83d
00000020: 0b31 3ebd b4dd e03c 56f4 5f3e 1faf f73c
00000030: 7727 c83d 0063 c5bd 6159 0cbe c366 e03d
00000040: 586c 5fbd 877a da3d b446 a73d c566 143e
00000050: e276 a23d 949a a83d 8bad 8e3b b3c9 6abd
00000060: 9b9c 8d3d 42b1 013e 20ba e23d e76f 023e
00000070: 037c e1bd 0281 94be 7a2f 573e 36e7 b6bd
0.07659957 0.016670987 -0.07472533 0.003916086 0.019024378 0.027072668 0.17345636 0.12113919
-0.04643349 0.027449466 0.2187055 0.030234871 0.09773152 -0.096380234 -0.1370597 0.109571
-0.054546684 0.106679015 0.081677824 0.14492328 0.07932831 0.082326084 0.004354184 -0.05732126
0.06914636 0.12665275 0.11070657 0.12738 -0.110099815 -0.29004675 0.21014205 -0.08930819

fc2.weight f4 [2, 32]
00000000: f8c9 a2bd 6c29 983d 8d48 a73c 4352 e7bd
00000010: 4d8d 7bbd a96f b53b 4d2b af3d 3833 113d
00000020: 8959 273e 99f1 18be 9dbe c03b 5888 8a3d
00000030: e6bc bf3d c609 fdbd a326 cd3c 4054 243c
00000040: 61fe a0bd 577a 45be 7ae9 bb3d 38f2 4e3d
00000050: 501d 843b e5d8 fe3d ee7b 303d 8bfe eabb
00000060: a22a ffbd 4793 c7bd 46ec 21be 3fe7 613d
00000070: 61b7 96bd b6d1 85bd 4b70 c23d 28b3 6fbd
00000080: 9ad8 34be 0024 193d 50a6 533d 301b 173e
00000090: 892f 90bd 079d 353d d105 2b3d 81fe 943c
000000a0: b6f4 1c3c d805 9b3d a7b7 9ebd a216 2c3d
000000b0: 3a45 973d c57e 92bd 04b7 3cbc ce53 123d
000000c0: f795 d23b 2643 09bd c571 0dbe c9e7 503d
000000d0: 8134 5ebe 0094 193e 16d1 20be f93f 27be
000000e0: 3e76 3cbc 566d 2bbe 8739 9c3c 4560 663d
000000f0: a274 48bd d0d8 61bd f1d6 9a3d abf0 d2bd
-0.07948679 0.074297756 0.020420337 -0.11294987 -0.06141405 0.0055369926 0.08553181 0.035449237
0.16342749 -0.14935912 0.005882098 0.06764287 0.093622014 -0.1235538 0.025042837 0.010029852
-0.07861019 -0.1928495 0.091753915 0.050523967 0.0040318146 0.12443713 0.04308694 -0.007171457
-0.124593034 -0.09744888 -0.15812787 0.055152174 -0.073591955 -0.0653414 0.094940744 -0.058520466
-0.17660752 0.037387848 0.05167228 0.14756465 -0.070403166 0.044339206 0.041753594 0.018187763
0.009579828 0.07569474 -0.07749873 0.04201377 0.07386251 -0.071530856 -0.011518244 0.035724454
0.0064265686 -0.033511303 -0.13812931 0.051002298 -0.21699716 0.14997864 -0.1570476 -0.16332997
-0.0115028005 -0.16740927 0.0190704 0.056244154 -0.048939355 -0.05513841 0.07560528 -0.1029981

fc2.bias f4 [2]
00000000: e74c 803e 8636 d63d
0.25058672 0.10459618
