latest.pth (torch, 323690 bytes, 10 tensors)

conv1.weight f4 [32, 4, 8, 8]
0	0xbd215062	-0.0393833
1	0x3d30cc0b	0.04316334
2	0xbc6d1474	-0.014470208
3	0xbc306036	-0.010765126
4	0xbced2e58	-0.028952762
5	0xbcbc47ba	-0.02298342
6	0x3ae6dede	0.0017614027
7	0xbd2908e0	-0.04126823
8	0xbda67fd2	-0.081298485
9	0xbb95fa2d	-0.0045769424
10	0x3c805ef0	0.01567027
11	0x3bd37704	0.0064533968
12	0xbd0241d7	-0.03180107
13	0x3d069d45	0.032864828
14	0xbd38d512	-0.045125075
15	0xbd01af37	-0.03166124
16	0xbd267622	-0.040640004
17	0x3d8d3d4d	0.06896458
18	0x3a9888da	0.0011637465
19	0xbd3d772f	-0.04625624
20	0x3c954a19	0.01822381
21	0xbbab41c3	-0.0052263453
22	0xbd110668	-0.0354065
23	0xbd1f3a86	-0.03887417
24	0x3b027ef8	0.0019912105
25	0xbd6bcf00	-0.057570457
26	0x3cf239ab	0.029568514
27	0x3d1723e5	0.036899466
28	0x3ccef043	0.02526105
29	0x3d89ef3b	0.06735083
30	0x3cc2a811	0.023761781
31	0xbd6cb134	-0.05778618
32	0xbd6d20c2	-0.05789257
33	0xbb472212	-0.0030385298
34	0x3c40f0c5	0.011776154
35	0xbd0e24ac	-0.03470294
36	0x3d249658	0.04018244
37	0x3c3561cd	0.011070681
38	0xbd4cb803	-0.049980175
39	0x3cf5e142	0.030014638
40	0x3cdd66d6	0.027026575
41	0xbc98918b	-0.018624088
42	0x3d82c651	0.06385482
43	0xbd4b0252	-0.04956276
44	0x3d3f293e	0.04667019
45	0x3c642b59	0.0139263505
46	0x3d6c4f7d	0.057692993
47	0x3cf6974e	0.030101445
48	0x3d61d2f5	0.055132825
49	0xbbbef2ef	-0.0058273
50	0x3d621985	0.05520012
51	0x3da143d8	0.07874268
52	0x3d9a045f	0.07520365
53	0x3d85e5fb	0.06538006
54	0x3bbf75b5	0.005842889
55	0x3db68fc9	0.089141436
56	0xbdb66598	-0.08906096
57	0x3cd154b6	0.025553089
58	0x3b1498d5	0.0022674103
59	0xbd93c174	-0.07214633
60	0x3ac7495a	0.0015204356
61	0xbc61ba71	-0.013777361
62	0xbb44f4d3	-0.0030053153
63	0x3c0f9438	0.008763365
64	0xbcf7fbcf	-0.030271439
65	0x3c4c60b8	0.012474231
66	0x3c3586bb	0.0110794855
67	0x3c3ac57d	0.011399624
68	0x3ba282c6	0.004959437
69	0x3cd17ecc	0.025573157
70	0x3c67009e	0.014099268
71	0x3c8b3061	0.016990842
72	0xbd2b3832	-0.04180164
73	0xbd599216	-0.053117834
74	0x3d2e0cc9	0.04249266
75	0x3d484bbc	0.04890035
76	0xbd5f16f8	-0.054465264
77	0x3d018fa1	0.031631116
78	0xbd9255b1	-0.071452506
79	0x3d7831a9	0.060594235
80	0xbb332836	-0.00273372
81	0x3cdeefe3	0.027213996
82	0x3bf78ce2	0.0075546363
83	0xbd0af992	-0.033929415
84	0x38af09f6	8.346506e-05
85	0xbc0787e4	-0.008272145
86	0xbd2cc345	-0.04217841
87	0xbb202b79	-0.0024439974
88	0x3ab32eb9	0.0013670541
89	0x3ca45d3b	0.020063987
90	0x3c95aea7	0.018271757
91	0xbcfa8104	-0.030579098
92	0xbd46b80f	-0.048515376
93	0x3c5f2510	0.013619676
94	0xbb34d2f5	-0.002759156
95	0xbd764707	-0.06012633
96	0xbbf39700	-0.007433772
97	0x3acaddc9	0.0015477474
98	0x3bf89807	0.0075864824
99	0xbc2f6e33	-0.010707426
100	0xbccf3113	-0.025291955
101	0x3d1c7591	0.038198058
102	0xbd2b441a	-0.041812994
103	0x3bb3a4f6	0.0054823114
104	0x3c88480a	0.016635913
105	0xbcc2deae	-0.023787823
106	0xbd3077cb	-0.043082993
107	0xbd9bb661	-0.076031454
108	0x3d3d25c9	0.046178613
109	0xbc987442	-0.018610124
110	0xbbb90e1f	-0.0056474353
111	0xbd0db08b	-0.034592193
112	0x3c8c31b4	0.017113544
113	0xbd9a3533	-0.07529678
114	0x3c0bb7c9	0.0085277045
115	0xbb05a4c3	-0.0020392395
116	0x3d294812	0.041328497
117	0x3d3dbe1d	0.046323884
118	0x3d005bde	0.03133761
119	0x3da01e02	0.078182235
120	0xbd05ddf8	-0.03268239
121	0xbc89d871	-0.01682684
122	0xbccba111	-0.024857076
123	0xbdf146a9	-0.117810555
124	0x3cbb4a9e	0.022862729
125	0x3cdff041	0.027336242
126	0x3d717cd1	0.058956925
127	0xbc7b9507	-0.015355355
128	0xbcecc50a	-0.02890255
129	0x3d806081	0.06268407
130	0x3d740f4a	0.059584893
131	0x3d8af9fc	0.06785962
132	0xbd5ec84f	-0.054390248
133	0x3c82a890	0.015949517
134	0xba8c4d78	-0.001070424
135	0x3b21ae3c	0.0024670502
136	0xbd35b8d4	-0.04436572
137	0x3ba17941	0.0049277847
138	0xbc852d72	-0.016257022
139	0x3d97adc3	0.07406189
140	0xbcfd2ea2	-0.030906025
141	0x3cb90c2d	0.022588814
142	0x3bda49da	0.006661636
143	0x3d07fe04	0.033201233
144	0xbd1c95aa	-0.03822867
145	0xbba11944	-0.004916342
146	0xbd9c7be8	-0.07640821
147	0xbb06bf9a	-0.002056098
148	0xbd23a52b	-0.03995244
149	0x3cbc3302	0.022973541
150	0xbd56097d	-0.052255142
151	0xbd43ecd2	-0.04783327
152	0xbb8e7be7	-0.0043482664
153	0xbcdaa5cd	-0.026690388
154	0xbca89558	-0.020579025
155	0xbd09c11c	-0.03363143
156	0xbd3c74da	-0.046009876
157	0xbc99a622	-0.018755976
158	0x3bf2a17b	0.007404504
159	0xbc1297e8	-0.00894735
160	0x3d1f6f7c	0.03892468
161	0x3c557d2b	0.013030331
162	0xbc9d9abc	-0.019238822
163	0x3d098ae3	0.03357972
164	0xbd1aefb9	-0.037826274
165	0x3b813aa9	0.0039437604
166	0x3d3e22ed	0.046420027
167	0x3cfe0b98	0.031011388
168	0x3c79f050	0.015255049
169	0x3b93caf3	0.0045102774
170	0x3d17d5f0	0.03706926
171	0xbd0c01e0	-0.034181476
172	0xbdc31105	-0.095247306
173	0xbd8a74a9	-0.067605324
174	0xbabef793	-0.0014569632
175	0x3c74c672	0.014939891
176	0xba6a6fbb	-0.0008943041
177	0x3cb018f0	0.021496266
178	0x3b801aca	0.0039094435
179	0xbd01ab12	-0.031657286
180	0xbd3771a3	-0.044786107
181	0x3c4d24c1	0.01252097
182	0x3d972fa3	0.07382133
183	0x3d3b110a	0.045670547
184	0xbbb92a80	-0.0056508183
185	0xbc657581	-0.014005066
186	0xbd0005c3	-0.031255495
187	0xbd282788	-0.041053325
188	0xbcf96700	-0.030444622
189	0xbbdddae1	-0.006770477
190	0xbd186c5c	-0.037212715
191	0x3c9dc701	0.019259932
192	0xbd773b23	-0.06035913
193	0xbdb1e130	-0.08685529
194	0x3d33e78d	0.043921996
195	0xbbdf2009	-0.006809239
196	0xbd9413b9	-0.07230324
197	0x3d15508d	0.036453772
198	0xbdd74bda	-0.105125144
199	0xbc2aa1d8	-0.010414563
200	0xbd67d93a	-0.056603648
201	0x3c29813d	0.010345754
202	0x3d3e9ad6	0.04653438
203	0x3d753b48	0.059870988
204	0xbc648704	-0.013948206
205	0xbceccf17	-0.028907342
206	0xbdd89cde	-0.10576795
207	0xbbdfcde3	-0.0068299635
208	0xba96926c	-0.0011487729
209	0x3cfed6ae	0.031108227
210	0xbc5bc0f3	-0.013412702
211	0x3d4127fb	0.04715727
212	0xbcdcc649	-0.026950018
213	0x3d8e6174	0.069521815
214	0xbd57298c	-0.052529857
215	0xbcac0069	-0.02099629
216	0xbc746fd0	-0.014919236
217	0x3ca2bf46	0.019866597
218	0xbd614f3d	-0.05500721
219	0x3cd13e42	0.025542382
220	0xbdc28ea2	-0.09499861
221	0x3cce914c	0.025215767
222	0xbc7d02b2	-0.015442537
223	0xbd249bc3	-0.04018761
224	0xbd19b05c	-0.037521705
225	0x3d5a5ca5	0.05331101
226	0x3d0ab432	0.033863254
227	0x3d513d83	0.051084053
228	0x3d60c309	0.0548735
229	0x3d33e766	0.04392185
230	0x3d2e772b	0.042594116
231	0x3d66a873	0.05631299
232	0xbd51ec4d	-0.051250745
233	0xbd491c6d	-0.049099375
234	0x3cf5ba89	0.029996173
235	0x3cdabb66	0.026700687
236	0xbd01dfa8	-0.031707436
237	0xbc805f10	-0.01567033
238	0x3c39bcaa	0.011336485
239	0x3c03c3d1	0.008042292
240	0x3c89ea04	0.01683522
241	0xbd63ee15	-0.055646975
242	0xbcec0df4	-0.028815247
243	0xbb107b38	-0.00220461
244	0x3ca40a5d	0.020024473
245	0xbc6bb4ea	-0.014386395
246	0xbbe161ef	-0.0068781297
247	0x3ce3cd01	0.027807714
248	0xbd661ff8	-0.05618283
249	0x3bd750b1	0.0065708985
250	0xbd51d0a3	-0.051224362
251	0xbbe0c4f7	-0.0068594175
252	0xbd4b69d5	-0.049661476
253	0xbd99afc9	-0.075042315
254	0xbcb0cc2e	-0.021581735
255	0xbd43d0b8	-0.04780647

conv1.bias f4 [32]
0	0xbd20748c	-0.039173648
1	0xba823466	-0.0009933829
2	0xbd811f62	-0.06304814
3	0x3b865618	0.0040996186
4	0xbc446b5e	-0.011988489
5	0x3d5d6c8c	0.054058596
6	0xbbdd0c32	-0.0067458386
7	0xbd69fd6c	-0.057126448
8	0x3d2d528e	0.04231506
9	0x3a22a0d7	0.00062037766
10	0xbd07191b	-0.032982927
11	0x3d8c4073	0.0684823
12	0xbc8d3501	-0.017237188
13	0x3a968f7d	0.0011486855
14	0xbd40237a	-0.046908833
15	0xba86c09c	-0.0010280791
16	0xbc8eaabe	-0.0174154
17	0x3c84f8ee	0.01623198
18	0xbcfbf489	-0.030756252
19	0xbd5217b5	-0.05129214
20	0xbbdd4ebc	-0.0067537706
21	0xbd06e680	-0.032934666
22	0xbbcf3a5e	-0.0063240966
23	0xbc8b56be	-0.017009135
24	0x3be718d8	0.007052522
25	0xbb8ab4d0	-0.0042329803
26	0xbd5c3093	-0.05375726
27	0xbb17b33d	-0.0023147606
28	0x3ca16b01	0.019704344
29	0xbd9ab730	-0.075544715
30	0x3b18535f	0.0023243052
31	0xbb83050e	-0.0039984053

conv2.weight f4 [64, 32, 4, 4]
0	0x3c848e36	0.016181093
1	0xbce79a71	-0.028271886
2	0xbd4df2c7	-0.05028036
3	0x3b6f63bd	0.0036527955
4	0xbcd9a894	-0.026569642
5	0xbd017a55	-0.031610806
6	0x3d325b52	0.04354412
7	0x3d9af023	0.07565334
8	0xbd1b2963	-0.037881266
9	0x3c8d6483	0.017259842
10	0x3d5fed22	0.054669507
11	0x3b5e8a44	0.0033956924
12	0xbc689545	-0.014195745
13	0x3d2a0c4c	0.041515633
14	0xbb47a4c5	-0.00304632
15	0xbd3e4381	-0.046451095
16	0x3be75bbc	0.007060496
17	0xbd8ed14e	-0.069735155
18	0x3d293469	0.041309748
19	0xbc1c8c0f	-0.009554877
20	0x3c708589	0.014680275
21	0xbd59b42e	-0.05315035
22	0xbc5dadfc	-0.013530251
23	0xbd3c57c8	-0.045982152
24	0x3d9c1925	0.076219834
25	0xbd21ae32	-0.039472766
26	0x3c24b957	0.010053954
27	0x3b71b92c	0.0036884053
28	0xbd554890	-0.052071154
29	0x3d2ec2e2	0.042666323
30	0x3b81345a	0.0039430084
31	0xbd2a0b3c	-0.04151462
32	0x3c8444de	0.01614612
33	0x3b85e2b1	0.0040858616
34	0xbcb40ea4	-0.021979637
35	0x3cb31ccb	0.021864315
36	0xbd81edfe	-0.063442215
37	0x3d1786ea	0.0369939
38	0x3b901cd4	0.004397968
39	0x3d22eb37	0.0397751
40	0xbcef54cb	-0.029215237
41	0xbd12e2b4	-0.035860732
42	0x3d6ac85a	0.057319976
43	0xbd023e41	-0.03179765
44	0xbc1c7b94	-0.009550948
45	0x3c98b6e2	0.018641893
46	0xbb4e3f06	-0.003147067
47	0x3bddabbe	0.006764858
48	0x3cc2bbcc	0.02377119
49	0xbcfeef16	-0.031119864
50	0xbcdb9ea0	-0.026809037
51	0xbd2c5426	-0.042072438
52	0xbd37cde4	-0.044874087
53	0xbb0ea748	-0.0021767188
54	0x3ba3be20	0.00499703
55	0x3ccd89c3	0.025090104
56	0xbd6110fb	-0.054947834
57	0x3d11b98b	0.03557734
58	0x3d28cfc0	0.04121375
59	0x3c826077	0.015915139
60	0xbc41a375	-0.011818756
61	0xbd71e1eb	-0.059053343
62	0xbc046c51	-0.008082465
63	0xbb8d3bc8	-0.004310105
64	0x3cc37f1b	0.02386432
65	0x3d092426	0.03348174
66	0x3d22bbe9	0.039729986
67	0x3c3334e8	0.010937907
68	0xbc8a94bf	-0.01691663
69	0x3bb507e0	0.0055246204
70	0x3c71ac42	0.014750542
71	0xbbe1c770	-0.00689023
72	0xbd34a90a	-0.04410652
73	0xbd48e341	-0.04904485
74	0x3cfd0d8b	0.030890247
75	0x3d24c772	0.04022927
76	0xbd1c44df	-0.038151618
77	0xbd6b2eab	-0.057417553
78	0xbd346e43	-0.044050466
79	0x3bdf3f89	0.006812994
80	0x3d02b461	0.031910304
81	0xbd62b750	-0.0553506
82	0xbc8c4ae3	-0.017125553
83	0xbdaa14d2	-0.083047524
84	0xbd65d164	-0.056107894
85	0xbc97bf05	-0.018523702
86	0xbd32582b	-0.043541115
87	0x3c93dce7	0.01804967
88	0xbbc246a6	-0.005928832
89	0xbc8085d6	-0.015688818
90	0x3d11fc31	0.0356409
91	0x3d0290f3	0.031876516
92	0x3d576be3	0.052593123
93	0xbccb3d97	-0.024809642
94	0xbcdcafe0	-0.026939332
95	0x3cc15c9b	0.023603728
96	0xbcfd2284	-0.030900247
97	0x3c3a3ce3	0.011367056
98	0xbcbb84c6	-0.02289046
99	0xbd6a45cc	-0.05719547
100	0xbb9edd1e	-0.0048481366
101	0x3c84475a	0.016147304
102	0xba8576a4	-0.0010182452
103	0x3c8f7719	0.017512845
104	0xbd0d1586	-0.034444354
105	0x3c8a0269	0.016846852
106	0x3ce19456	0.027536552
107	0x3be61e0e	0.0070226258
108	0xbb230412	-0.0024874252
109	0xbd077e00	-0.033079147
110	0x3cb33128	0.021874025
111	0x3d066658	0.032812446
112	0x3cc644e3	0.02420277
113	0xbd51e039	-0.051239226
114	0xbd49e6ab	-0.049292248
115	0xbd2123df	-0.03934085
116	0x3c6954d4	0.014241416
117	0x3afcc0b1	0.0019283501
118	0x3be09eac	0.0068548527
119	0xbc9d508a	-0.019203443
120	0xbc26815a	-0.010162676
121	0x3d2a7544	0.04161574
122	0xbd76ce9c	-0.06025563
123	0xbc506822	-0.01272014
124	0x3a924adf	0.0011161229
125	0xbcc4b5fd	-0.02401256
126	0xbd635be3	-0.055507552
127	0xbd56d80d	-0.052452136
128	0x3d81baf6	0.06334488
129	0xbccf10ea	-0.02527662
130	0xbd3e04d5	-0.046391327
131	0xbc708e18	-0.014682315
132	0xbd817c5f	-0.0632255
133	0x3c3dd401	0.01158619
134	0xbd34257b	-0.043981057
135	0x3d4853bc	0.04890798
136	0xbd5f1338	-0.054461688
137	0x3cf1c51e	0.029512938
138	0xbc86fbd7	-0.016477508
139	0x3c84416b	0.016144475
140	0x3d2482b7	0.040163722
141	0x3b1a0f1f	0.0023507548
142	0xbaf0caee	-0.0018371025
143	0xbd2a8e3e	-0.04163956
144	0xbd10c610	-0.035345137
145	0xbc8f662a	-0.01750477
146	0xbc2c38ab	-0.010511558
147	0x3dcad6dc	0.099042624
148	0xbd80cbb7	-0.062888555
149	0xbd59789c	-0.053093538
150	0xbd23e29a	-0.040011026
151	0xbd9c426e	-0.07629858
152	0xbcbca926	-0.023029875
153	0x3d1c8910	0.03821665
154	0xbc204490	-0.009781972
155	0xbc24e8cf	-0.0100652715
156	0x3cc5d607	0.024149908
157	0x3c434eec	0.011920672
158	0x3aa9b80f	0.001294853
159	0xbceaf604	-0.028681763
160	0xbd3dcf5c	-0.04634033
161	0xbd5a7481	-0.053333763
162	0x3c814220	0.015778601
163	0x3d17f490	0.037098467
164	0xbc7a4340	-0.015274823
165	0x3c479053	0.012180406
166	0xbce5df41	-0.028060557
167	0x3d02f127	0.031968262
168	0x3ce5c974	0.028050162
169	0xbc101690	-0.008794442
170	0x3cf83df4	0.030302979
171	0x3c978d18	0.018499896
172	0x3c375eac	0.011192005
173	0xbce93fe6	-0.028472852
174	0xbbe2b4e9	-0.006918539
175	0xbb8138cd	-0.0039435388
176	0xbc28996e	-0.010290487
177	0xbd00cdc4	-0.031446233
178	0x3b8b11f9	0.004244086
179	0x3d73171b	0.059348207
180	0x3c018a2b	0.007906477
181	0xbcf9b3c8	-0.030481234
182	0x3d220064	0.039551154
183	0x3d4d9171	0.05018753
184	0xbd27d1ac	-0.040971443
185	0xbcd39246	-0.025826585
186	0xbc882026	-0.016616892
187	0x3cc55a90	0.024091035
188	0x3c507177	0.012722365
189	0x3c077d78	0.00826966
190	0xbd3b07b2	-0.045661636
191	0xbd07e813	-0.033180308
192	0xbce39b11	-0.027783902
193	0xbd63735b	-0.055529933
194	0xbc7e07ec	-0.015504818
195	0xbcc345e9	-0.023837047
196	0xbd2ad7cb	-0.041709702
197	0xbb397bd9	-0.0028302579
198	0xbc8600f2	-0.016357873
199	0x3cde5dcc	0.027144335
200	0xbd659ba4	-0.056056634
201	0xbcfcdff6	-0.030868512
202	0xbc81deaf	-0.015853254
203	0xbcaea80c	-0.021320365
204	0x3d153f0e	0.036437087
205	0x3cbc6557	0.022997541
206	0x3cc06a38	0.023488149
207	0xbd475564	-0.04866542
208	0xbcfe3a8c	-0.031033777
209	0x3d2a7283	0.041613113
210	0xbbc2fc5f	-0.005950495
211	0x3d0c19e8	0.034204394
212	0xbd3f4783	-0.04669906
213	0xbc7ca6d3	-0.015420633
214	0x3d11227e	0.035433285
215	0xb99e6fd9	-0.0003021944
216	0xbd9560f6	-0.072938845
217	0xbd073591	-0.03301007
218	0x3cf220ac	0.029556595
219	0xbce2092a	-0.02759226
220	0x3d10cadf	0.035349723
221	0x3d3e3b5a	0.04644332
222	0x3d34a0bf	0.044098612
223	0xbcee424d	-0.029084349
224	0xbd0cb3b7	-0.034351077
225	0x3d2d9a1c	0.0423833
226	0x3c8f7421	0.01751143
227	0x3d16e24d	0.03683691
228	0xbd3a51c3	-0.04548813
229	0x3b6fa0e9	0.0036564416
230	0xbcbde08c	-0.023178361
231	0xbd25003c	-0.040283427
232	0x3bf61132	0.007509374
233	0x3ca338da	0.01992457
234	0xbcc4d8ff	-0.024029253
235	0x3d4612c8	0.048357755
236	0xbd99d07b	-0.075104676
237	0x3d4bd5a6	0.049764298
238	0xbd464b58	-0.048411697
239	0xbcc2385d	-0.023708517
240	0x3da37483	0.07981207
241	0x3d0e8513	0.03479488
242	0xbc64998e	-0.013952626
243	0xba7e9349	-0.0009711278
244	0xbd940a87	-0.072285704
245	0xbc614bb9	-0.013750964
246	0x3b621539	0.0034497513
247	0xbcdd82fb	-0.027039995
248	0xbd3d10e0	-0.04615867
249	0x3cb0b6ec	0.021571599
250	0x3c92a326	0.01790006
251	0xbcdebe97	-0.02719049
252	0xbc724097	-0.014785907
253	0x3cf08d1a	0.029364157
254	0x3cbc8aef	0.023015467
255	0x3d0acec5	0.033888597

conv2.bias f4 [64]
0	0xbd721177	-0.059098687
1	0xbcc86f75	-0.02446721
2	0x3d344ee0	0.044020534
3	0xbd5bb4aa	-0.05363909
4	0xbc74572a	-0.01491336
5	0xbd007a0a	-0.031366386
6	0xbc39403f	-0.011306821
7	0xbdb935fa	-0.09043498
8	0xbc16cf1d	-0.009204653
9	0xbcc8c60a	-0.024508495
10	0xbc0c78d6	-0.008573731
11	0x3d5cd824	0.053917065
12	0xbc85314d	-0.01625886
13	0x3d516292	0.051119395
14	0x3d309fa8	0.04312101
15	0x3cc23b39	0.02370988
16	0xbd1a5f4c	-0.03768854
17	0x3c72a4e9	0.014809825
18	0xbc84d9f8	-0.016217217
19	0xbd27cc84	-0.040966526
20	0xbb15d2a0	-0.0022861138
21	0xbca15fa9	-0.019698935
22	0xbd81ca67	-0.06337433
23	0xbda8097b	-0.08204933
24	0x3b9d79d5	0.0048057833
25	0x3c9bb76a	0.019008357
26	0xbcc84edd	-0.024451667
27	0xbdd814fd	-0.10550878
28	0x3b4463d9	0.002996674
29	0x3d9eb394	0.077490956
30	0x3d2b4512	0.041813917
31	0xbb651261	-0.0034953582
32	0x3bcc9a62	0.00624399
33	0xbd8d3453	-0.06894746
34	0x3c2f7c5c	0.010710802
35	0xbd0731f0	-0.03300661
36	0xbd008c76	-0.031383954
37	0x3ca54892	0.020176206
38	0x3da34c64	0.07973555
39	0x3d85ebeb	0.065391384
40	0xbc01543d	-0.007893619
41	0x3cd024b7	0.025408132
42	0xbd0ce98b	-0.03440241
43	0xbd640154	-0.05566533
44	0xbb5ab768	-0.0033373479
45	0xbc76a1cd	-0.015053225
46	0x3c4fc5e8	0.012681462
47	0xbb456fb7	-0.0030126402
48	0xbca13933	-0.019680595
49	0x3cc4e1d7	0.02403347
50	0x3a4d2c73	0.0007826753
51	0xbd9e5b1a	-0.0773222
52	0xbbbc9013	-0.0057544797
53	0xbb4d1b54	-0.0031296806
54	0x3c7c01cd	0.015381289
55	0xbdbbfebb	-0.09179445
56	0x3cd23690	0.025660783
57	0x3d92bf4a	0.07165392
58	0xbde494b0	-0.111611724
59	0xbc52450d	-0.012833846
60	0xbd61c269	-0.055117045
61	0x3ba910cd	0.0051594735
62	0x3d0f562f	0.0349943
63	0xbca49e37	-0.020094974

conv3.weight f4 [64, 64, 3, 3]
0	0xbc92e237	-0.017930133
1	0x3ce039fd	0.027371401
2	0x3d1eac04	0.038738266
3	0xbc95c577	-0.018282635
4	0x3ced11a0	0.028939068
5	0x3d20ea9f	0.039286252
6	0xbd2f2212	-0.0427571
7	0x3ab1ce86	0.0013565577
8	0xbca9b9e9	-0.020718532
9	0xbd3e6b05	-0.04648878
10	0x3c5cd60c	0.013478767
11	0x3d0bfcb4	0.034176543
12	0xbcb793a1	-0.022409262
13	0xbc856218	-0.016282126
14	0x3c68b9d2	0.014204459
15	0x3d5a4b75	0.053294618
16	0x3d0a6119	0.033784006
17	0x3ca7af78	0.020469412
18	0x3c1198a3	0.008886489
19	0x3cea330f	0.0285888
20	0x3c044f91	0.008075611
21	0x3c9554ee	0.018228974
22	0xbccc4804	-0.024936683
23	0xbca5c77a	-0.02023672
24	0x3c44f2ac	0.012020748
25	0xbd470729	-0.048590813
26	0x3af31a68	0.0018547298
27	0x3d88c885	0.06678871
28	0x3d081d0c	0.033230826
29	0xbce92f39	-0.0284649
30	0x3c48a94d	0.012247396
31	0x3cbd7bc1	0.0231303
32	0xbd18ff3e	-0.037352793
33	0x3d26513e	0.040604822
34	0xbd041c93	-0.032253813
35	0x3d2f5247	0.042803075
36	0x3d2dbc31	0.0424158
37	0xbb65a5e2	-0.00350415
38	0xbd1d1dcf	-0.038358506
39	0x3c00daeb	0.007864694
40	0x3cc9511e	0.024574813
41	0x3c065813	0.0081997095
42	0xbc1c12e0	-0.0095259845
43	0x3ce7bea9	0.028289156
44	0xba6be549	-0.0008998705
45	0x3d24a76c	0.04019873
46	0xbc04fb0f	-0.008116498
47	0xbc990736	-0.018680196
48	0xbd73a600	-0.05948448
49	0x3d226421	0.03964627
50	0x3ce16619	0.027514504
51	0xbccf5455	-0.025308767
52	0xbd88c024	-0.06677273
53	0x3d132187	0.035920646
54	0x3c8bfc94	0.017088212
55	0xbccdfca6	-0.025144886
56	0x3d4232bf	0.047411676
57	0xbce78d8c	-0.028265737
58	0xbc9c8946	-0.019108426
59	0xbc8791f1	-0.016549082
60	0x3ce3c20d	0.027802492
61	0x3d0a4e1a	0.03376589
62	0xbd11590a	-0.035485305
63	0xbc82ace8	-0.015951589
64	0xbcc38e8b	-0.02387168
65	0x3d22eef0	0.03977865
66	0xbd70a4d7	-0.058750954
67	0x3bf559b7	0.0074875015
68	0xbc7a049e	-0.01525989
69	0x3b877250	0.0041335
70	0x3ce8914f	0.028389601
71	0x3b746ba0	0.0037295595
72	0x3cd7a3ec	0.026323281
73	0xbccb8dd0	-0.024847895
74	0x3cb436ab	0.021998724
75	0x3d1a3135	0.037644584
76	0x3cbf8b3f	0.023381827
77	0x3c9bfe61	0.019042196
78	0x3ada92d8	0.0016675843
79	0x3ced0790	0.02893427
80	0xbce9199e	-0.028454598
81	0x3dad8081	0.08471776
82	0xbd2f549d	-0.042805303
83	0xbbb2b416	-0.005453597
84	0x3c8977df	0.016780792
85	0xbc4c8988	-0.012483962
86	0x3c246ea8	0.010036148
87	0xbc80dbee	-0.01572987
88	0xbbd253f3	-0.006418699
89	0x3d4218e1	0.047387008
90	0x3cfcc3f1	0.03085515
91	0xbc9ad713	-0.018901384
92	0x3c062721	0.00818804
93	0xba8366ac	-0.0010025105
94	0xbce5f5ef	-0.028071372
95	0xbd3916f6	-0.045187913
96	0x3beaee6d	0.007169536
97	0xbd3967dc	-0.045265064
98	0x3cef6a05	0.029225359
99	0xbb69e410	-0.0035688914
100	0x3d209864	0.03920783
101	0x3d70ea5f	0.058817264
102	0xba0ffed7	-0.0005492991
103	0xbd1f5be1	-0.038905982
104	0x3c0ef2d4	0.008724887
105	0xbc7f46b5	-0.015580823
106	0xbc83fe40	-0.016112447
107	0x3d0adb61	0.033900622
108	0x3ce36cf2	0.02776191
109	0x3d40d21a	0.04707537
110	0x3cabf3f7	0.020990355
111	0xbd5a6457	-0.053318348
112	0x3c8e0128	0.017334536
113	0x3d2454fd	0.040120114
114	0xbc3ab6c2	-0.011396112
115	0x3b975fe8	0.004619587
116	0x3d1e43ec	0.038638994
117	0x3d03c909	0.032174144
118	0xbc0c45b1	-0.008561538
119	0xbd505acc	-0.05086784
120	0x3c952df5	0.01821039
121	0x3d5158ea	0.051110186
122	0xbd5500f8	-0.052002877
123	0xbd20e2e5	-0.039278883
124	0x3cd16942	0.025562886
125	0xbd1555b6	-0.036458693
126	0x3d17626d	0.0369591
127	0x3d2d18df	0.042260047
128	0x3abe6fcb	0.0014529167
129	0xbda8e7ca	-0.08247335
130	0xbbedfd63	-0.007262872
131	0xbcf21fc8	-0.02955617
132	0x3cf1d9af	0.029522745
133	0x3ca28da5	0.019842932
134	0xbce02d27	-0.02736528
135	0x3c33e57b	0.010980005
136	0xbd73cfc2	-0.059524305
137	0x3d202cc0	0.039105177
138	0xbcac9e1d	-0.021071488
139	0x3d052630	0.03250712
140	0xbd174130	-0.036927402
141	0xba40f87e	-0.0007361247
142	0x3c928bdc	0.017888956
143	0xbc5bebb1	-0.013422892
144	0xbcd4f5d0	-0.025996119
145	0x3b82d8de	0.0039931377
146	0xbb8f7438	-0.004377868
147	0x3d367300	0.044543266
148	0x3d13d613	0.03609283
149	0xbd7ea49a	-0.062168695
150	0x3c1e3c75	0.009657969
151	0xbcae3977	-0.021267636
152	0xbbf8bde3	-0.0075909956
153	0xbd1181e9	-0.035524283
154	0xbc653a45	-0.013990943
155	0x3cebd108	0.028786197
156	0xbac3ff5a	-0.001495342
157	0x3c0ff3da	0.008786166
158	0x3cb926cf	0.022601513
159	0x3be9ed9e	0.007138922
160	0x3b18bdc9	0.002330648
161	0x3cda3304	0.026635654
162	0xbb8d7dec	-0.0043179896
163	0x3c4dcfb4	0.012561727
164	0xbcddaf4a	-0.027061123
165	0xbd043d38	-0.032284945
166	0xbc3288f9	-0.010896915
167	0xbd970c11	-0.07375348
168	0x3d3a36b0	0.04546231
169	0xbd1cbce8	-0.038266093
170	0x3c9d4314	0.019197024
171	0xbca45e47	-0.020064486
172	0x3c87171c	0.016490512
173	0xbc928a64	-0.017888255
174	0x3aa21451	0.0012365674
175	0xbca04873	-0.019565796
176	0x3ce04683	0.027377373
177	0xbc8ebf1e	-0.017425116
178	0xbc26bc75	-0.010176768
179	0x3c52246a	0.012826065
180	0xbbcf2b00	-0.0063222647
181	0xbd0982d8	-0.033572048
182	0x3d12cdfb	0.03584097
183	0xbd73f36f	-0.05955833
184	0x3d490951	0.04908115
185	0xbd02980a	-0.031883277
186	0x3b92b628	0.004477281
187	0xbcc0961c	-0.023509078
188	0x3ce52765	0.027972886
189	0xbc2a88f4	-0.010408629
190	0x3d68535f	0.056720134
191	0x3c3bdfb5	0.01146691
192	0x3ccaa05e	0.024734672
193	0xbd1962fb	-0.03744791
194	0xbd0b9065	-0.034073252
195	0x3cb6cf8f	0.022315769
196	0x3ccfca68	0.02536507
197	0x3bb4611e	0.0055047413
198	0x3c9b1888	0.018932596
199	0xbcf9a94b	-0.030476233
200	0xbcbbd8ce	-0.022930529
201	0x3d3849ec	0.044992372
202	0xbd0b2d5c	-0.033978805
203	0x3cbfc60a	0.023409862
204	0xbd3f0316	-0.046633802
205	0x3cb25e75	0.021773556
206	0x3bdfb971	0.0068275263
207	0x3d0c1453	0.03419907
208	0x3b126ffa	0.0022344575
209	0xbcaa0f59	-0.020759271
210	0x3c914110	0.01773122
211	0xbc5ab030	-0.01334767
212	0xbd370c6d	-0.044689585
213	0xbc276393	-0.010216611
214	0xbcc325c4	-0.023821719
215	0xbd1aacc4	-0.03776242
216	0x3c6e2bdb	0.014536823
217	0xbc5d751c	-0.013516691
218	0x3ccf7558	0.025324509
219	0xbbd7f406	-0.006590369
220	0xbb71067f	-0.0036777554
221	0x3c9e12d8	0.019296095
222	0xbc89ee34	-0.016837217
223	0xbd5ffa73	-0.054682206
224	0x395592bb	0.00020367924
225	0x3c86c380	0.016450644
226	0x3d25586c	0.04036753
227	0x3d3e07c9	0.046394143
228	0x3d0d4b0e	0.034495406
229	0x3cafafb1	0.02144608
230	0xbba7be74	-0.0051191393
231	0xbcc56f4a	-0.024100918
232	0x3b2917e2	0.0025801589
233	0x3c3cc5a2	0.011521729
234	0x3d5731ee	0.05253785
235	0x3d79b629	0.060964737
236	0xbcd2950b	-0.025705835
237	0xbd8a205c	-0.06744453
238	0xbcb099b5	-0.021557668
239	0xbd021625	-0.0317594
240	0xbc863236	-0.016381364
241	0xbcdb2be5	-0.026754329
242	0xbc534fdb	-0.012897457
243	0x3beaeb2d	0.0071691484
244	0x3c6ef7f1	0.014585481
245	0xbcae01bc	-0.021241061
246	0x3cd87a1d	0.026425416
247	0xbcb3e0d0	-0.021957785
248	0xbb7b05f8	-0.0038303118
249	0x3d2236e5	0.039603133
250	0x3d18316a	0.0371565
251	0xbcf89f94	-0.03034953
252	0xbd2570b4	-0.040390685
253	0xbd8e5ed9	-0.069516845
254	0x3d6325ae	0.055455856
255	0x3d0dcb84	0.034617916

conv3.bias f4 [64]
0	0x3d294b19	0.041331384
1	0x3d8a2f7f	0.067473404
2	0x3d85c050	0.06530821
3	0x3db0f0c2	0.08639671
4	0x3a6f3e26	0.00091263873
5	0xbd0b3575	-0.033986527
6	0xbd26dea0	-0.040739655
7	0x3dd96b53	0.106161736
8	0xbd1e2c16	-0.038616262
9	0xbd75ccf5	-0.060009915
10	0x3c4bbe0b	0.0124354465
11	0x3cbb3b68	0.022855476
12	0x3d5e7026	0.05430617
13	0x3c29cbfe	0.010363577
14	0x3d72df68	0.059295088
15	0xbd5266e4	-0.051367655
16	0x38b6c9c7	8.71602e-05
17	0xbd0720b8	-0.032990187
18	0xbdb28891	-0.08717454
19	0x3c683beb	0.014174442
20	0x3c126eba	0.008937532
21	0x3d23dbc0	0.04000449
22	0x3d366ef5	0.04453941
23	0xbd028ea9	-0.031874333
24	0x3cd83f81	0.026397469
25	0xbbe9873a	-0.007126716
26	0x3cec74b2	0.028864238
27	0x3da9b5ae	0.08286606
28	0xbd9a601b	-0.07537862
29	0x3d70a8c1	0.058754686
30	0x3b32b726	0.002726981
31	0xbcdb152c	-0.026743494
32	0x3bd68357	0.0065464186
33	0x3c4fd6e1	0.0126855085
34	0xbd0a3698	-0.03374347
35	0x3d710935	0.05884667
36	0xbcf707f4	-0.03015516
37	0x3c66dcfe	0.014090775
38	0x3d9019ae	0.07036148
39	0xbcd504ba	-0.02600323
40	0xbcf89329	-0.030343609
41	0x3cca831e	0.024720725
42	0x3d993164	0.07480124
43	0xbde43ccb	-0.11144408
44	0xbd7d2491	-0.06180245
45	0xbde0feee	-0.10986124
46	0x3d473172	0.04863114
47	0xbc29ff27	-0.010375774
48	0x3c83bc3a	0.016080964
49	0x3b9c7888	0.0047751106
50	0x3c40d0ee	0.011768563
51	0xbdb96b22	-0.09053637
52	0x3d9cf14b	0.076632105
53	0xbd018aee	-0.031626634
54	0x3c96c001	0.018402101
55	0xbc9be31e	-0.019029196
56	0xbd905ccc	-0.070489496
57	0x3d433fe1	0.04766834
58	0xbd08d5d4	-0.033407047
59	0xbcefad6c	-0.029257499
60	0xbc927611	-0.017878564
61	0xbc934f2a	-0.017982084
62	0xbd2ab4fb	-0.041676503
63	0x38e21a85	0.000107814594

fc1.weight f4 [32, 64]
0	0xbdcbc4f6	-0.09949677
1	0xbde6ca3e	-0.112690434
2	0xbda0d8b2	-0.07853831
3	0xbd06db28	-0.032923847
4	0xbc5ff5d0	-0.013669446
5	0x3d994d48	0.07485443
6	0xbd861738	-0.065473974
7	0xbdad93a4	-0.08475426
8	0x3da712b2	0.08157863
9	0x3da662de	0.08124326
10	0x3cec5310	0.028848201
11	0xbd98f942	-0.07469417
12	0xbb812a80	-0.003941834
13	0x3be5bc20	0.0070109516
14	0xbcb6c4b0	-0.022310585
15	0xbc1037e0	-0.008802384
16	0xbdf5368e	-0.11973296
17	0x3daa9da4	0.08330849
18	0x3d5789f8	0.05262181
19	0xbcf39388	-0.029733434
20	0x3d9fb9d6	0.07799117
21	0xbdb9bab4	-0.09068814
22	0xbdebea40	-0.11519289
23	0x3bae3800	0.0053167343
24	0xbcb60458	-0.022218868
25	0xbdd55576	-0.10416691
26	0xbdb25da8	-0.0870927
27	0xbdad9f68	-0.0847767
28	0xbcc9fe88	-0.024657503
29	0xbbb52460	-0.005528018
30	0x3d9c6966	0.07637291
31	0xbd2803ec	-0.041019365
32	0x3dbe55b0	0.09293687
33	0x3d1abe80	0.03777933
34	0xbd31dd6c	-0.043424055
35	0xbdb0bcb8	-0.08629745
36	0x3ddc2218	0.1074869
37	0xbde0a788	-0.10969454
38	0xbdb15526	-0.08658819
39	0xbd430624	-0.047613278
40	0x3df77de8	0.120845616
41	0xbca3c7c8	-0.019992724
42	0xbcc3e318	-0.023911998
43	0xbdc53de6	-0.09630947
44	0x3cb7e7b0	0.022449344
45	0xbdab0862	-0.08351208
46	0xbd2579d4	-0.040399387
47	0xbd283574	-0.041066602
48	0x3dbf8d28	0.09353095
49	0xbdf71ba4	-0.12065819
50	0xbb494f80	-0.0030717552
51	0xbdb3b7b4	-0.08775273
52	0xbd6196cc	-0.05507545
53	0x3c9f39b0	0.019436687
54	0xbd35fce0	-0.044430614
55	0xbd186bf4	-0.037212327
56	0xbd1f7e0c	-0.038938567
57	0x3c8ddb98	0.017316625
58	0x3dc6eb0a	0.09712799
59	0xbd64f25c	-0.055895194
60	0xbd489de0	-0.048978686
61	0xbd890536	-0.06690447
62	0x3dd74cba	0.10512681
63	0xbdfdd836	-0.123947546
64	0xbd90c813	-0.07069411
65	0xbcd807bb	-0.026370874
66	0x3d2ba3ee	0.041904382
67	0x3d3a2aee	0.045451097
68	0x3d25ae96	0.0404497
69	0xbc2b66f5	-0.010461559
70	0xbba65b94	-0.005076835
71	0x3d64be15	0.05584534
72	0x3d1fa92a	0.038979687
73	0xbd27952e	-0.040913753
74	0xbd8b702a	-0.06808503
75	0x3cd0bc46	0.0254804
76	0xbd36d863	-0.044639956
77	0x3bb667ef	0.005566589
78	0x3b75914e	0.0037470642
79	0xbdcbdd19	-0.099542804
80	0x3db1c164	0.086794645
81	0x3df756dd	0.12077115
82	0xbd909906	-0.07060437
83	0xbd545525	-0.051839013
84	0xbce8ec2d	-0.02843293
85	0xbdd012cd	-0.10159836
86	0x3c62f6a2	0.013852747
87	0x3db15688	0.08659083
88	0x3df5e631	0.12006796
89	0xbd808de0	-0.062770605
90	0x3df177a3	0.11790397
91	0xbdb81200	-0.08987808
92	0x3d470c82	0.048595913
93	0x3dcf2129	0.10113747
94	0x3d8b27ab	0.067946754
95	0x3d07b2a4	0.03312935
96	0xbcb25a8d	-0.021771694
97	0xbdcd72ef	-0.100316875
98	0x3d22d5b7	0.039754596
99	0xbd1c19ac	-0.03811042
100	0x3de3d34b	0.11124285
101	0x3cafa6b4	0.021441795
102	0x3d3e370f	0.046439227
103	0xbd84f0de	-0.06491254
104	0xbe07308a	-0.1320211
105	0x3d0f2471	0.034946863
106	0xbd0d784c	-0.034538552
107	0x3d7cfe32	0.061765857
108	0x3c592d82	0.013255479
109	0xbdcf4d48	-0.10122162
110	0x3de149be	0.11000393
111	0xbda1f621	-0.079082735
112	0x3dd58251	0.104252465
113	0xbdfbcda5	-0.12295083
114	0x3d1cd3aa	0.038287796
115	0xbdd14d60	-0.10219836
116	0x3db5121a	0.08841343
117	0x3cccb572	0.024988864
118	0x3cc8328a	0.024438161
119	0x3de095ce	0.10966073
120	0xbd5145df	-0.051092025
121	0xbd9ee3b1	-0.077582724
122	0xbcd143ed	-0.025545085
123	0xbd251740	-0.040305376
124	0xbda7310d	-0.081636526
125	0xbd776724	-0.060401097
126	0xbba76cdf	-0.005109414
127	0x3defaa65	0.11702422
128	0xbdea5318	-0.1144163
129	0x3c8605b8	0.016360149
130	0x3d816bc0	0.0631938
131	0xbcbcb880	-0.023037195
132	0xbdfafe52	-0.12255539
133	0xbd334fa8	-0.043777138
134	0xbd5dc9c4	-0.054147497
135	0x3d24cf70	0.04023689
136	0xbcf6a138	-0.030106172
137	0xbcee6e40	-0.029105306
138	0x3dea42d6	0.11438529
139	0x3de1587a	0.11003204
140	0xbd73873c	-0.05945514
141	0xbdd3ea64	-0.10347441
142	0xbca4dff8	-0.020126328
143	0x3d2cb4a4	0.04216446
144	0x3c9dc120	0.019257128
145	0xbdfe7456	-0.12424533
146	0x3d5886f8	0.05286309
147	0xbb2fa380	-0.0026800334
148	0xbdd6f98c	-0.10496816
149	0xbd42818c	-0.047486827
150	0x3cc09300	0.023507595
151	0xbd185a54	-0.03719552
152	0x3a095300	0.0005238503
153	0xbdea7b52	-0.11449303
154	0x3d84d738	0.06486362
155	0xbd97f934	-0.074205786
156	0xbdea4bc0	-0.114402294
157	0x3c39d6f0	0.011342749
158	0x3d54c818	0.051948637
159	0xbdab1e60	-0.08355403
160	0xbd1ca464	-0.038242713
161	0x3d65ba28	0.056085736
162	0xbd9c9e4c	-0.0764738
163	0xbdf0caec	-0.11757454
164	0x3df522a2	0.11969496
165	0xbd790750	-0.06079799
166	0x3dbec174	0.09314242
167	0x3de9890a	0.11403091
168	0x3d392824	0.045204297
169	0x3ccf6468	0.025316432
170	0x3d4c444c	0.04986982
171	0xbd2899cc	-0.041162297
172	0xbdf8de38	-0.1215176
173	0x3b38af80	0.0028180778
174	0x3d95de3c	0.073177785
175	0xbd1294bc	-0.035786375
176	0xbdeb5154	-0.114901215
177	0x3d6fbac4	0.058527723
178	0xbd0ea978	-0.034829587
179	0xbbba5180	-0.005685985
180	0xbbecc8c0	-0.0072260797
181	0x3d538224	0.051637784
182	0x3d860b02	0.06545068
183	0x39cd4800	0.0003915429
184	0xbcae36b0	-0.021266311
185	0xbd0aa5c8	-0.033849508
186	0xbd8359ee	-0.06413637
187	0x3d4e7d80	0.050412655
188	0x3c8dc260	0.0173046
189	0x3d7bad70	0.0614447
190	0xbde2cae6	-0.11073856
191	0xbdf8443c	-0.1212239
192	0xbe06c096	-0.13159403
193	0x3d98841d	0.074470736
194	0xbd8cdbe5	-0.06877879
195	0x3d9c7330	0.07639158
196	0xbc4247aa	-0.011857906
197	0x3d98255f	0.07429003
198	0xbb71be1d	-0.0036886998
199	0x3d7616b5	0.06008025
200	0x3c698602	0.014253141
201	0x3c65d515	0.0140278535
202	0x3c47e963	0.01220164
203	0xbd3a3d48	-0.0454686
204	0xbda67e6a	-0.0812958
205	0xbd8b9b36	-0.068167135
206	0x3c58253b	0.01319247
207	0x3d06d56b	0.032918375
208	0xbde9cbad	-0.11415801
209	0xbc692a04	-0.014231209
210	0x3dbaedd8	0.09127396
211	0x3bca573f	0.0061749513
212	0xbd0cf01e	-0.03440868
213	0x3d087599	0.033315275
214	0x3d36e55a	0.04465232
215	0x3d831b06	0.06401639
216	0x383412a0	4.293269e-05
217	0xbd871652	-0.06596054
218	0x3c7c5cc9	0.015402981
219	0x3d7c001d	0.061523546
220	0xbd9f9598	-0.077922046
221	0xbe0b7d17	-0.13621937
222	0xbddca1b6	-0.107730314
223	0x3d944a04	0.0724068
224	0x3d20d980	0.039269924
225	0x3d89218e	0.06695853
226	0xbd874dbf	-0.06606626
227	0x3d49be11	0.049253527
228	0x3c97e7e8	0.018543199
229	0xbdbc8ec3	-0.09206917
230	0xbdf08924	-0.117449075
231	0xbd74ca91	-0.059763495
232	0xbda898da	-0.08232279
233	0xbc84c2a5	-0.016206095
234	0xbe020c8f	-0.12700103
235	0x3c9788d0	0.018497854
236	0x3bcd8929	0.0062724543
237	0x3d0b2262	0.033968337
238	0xbd6d524d	-0.057939816
239	0xbcd265fc	-0.025683396
240	0xbd0fa183	-0.03506614
241	0x3d8d8888	0.06910807
242	0xbc4693be	-0.012120185
243	0xbdd0f9e1	-0.102039106
244	0x3d7614d1	0.060078446
245	0xbd65ea6c	-0.056131765
246	0xbdee2cb5	-0.11629621
247	0xbdfd9bd8	-0.123832405
248	0xbde52799	-0.11189193
249	0x3d838a35	0.06422845
250	0x3d096084	0.03353931
251	0xbe0cc4a5	-0.13746889
252	0xbdbbf76e	-0.09178053
253	0x3d7e92c4	0.062151685
254	0x3d90a026	0.07061796
255	0x3d9cdb2d	0.07658992

fc1.bias f4 [32]
0	0x3d9ce03c	0.07659957
1	0x3ae3d388	0.0017381767
2	0xbd8c0876	-0.06837551
3	0x3c3fc8e3	0.01170561
4	0x3c9bd903	0.019024378
5	0xbc7bd036	-0.015369466
6	0x3d565b13	0.05233295
7	0x3df52b2a	0.119711235
8	0xbd33c7bd	-0.043891657
9	0x3c381345	0.011235063
10	0x3dfa2164	0.122134
11	0xbacad0a6	-0.0015473559
12	0xbd2ae9b8	-0.041726798
13	0xbdc2d5d6	-0.09513442
14	0xbe07f56b	-0.13277213
15	0x3d582299	0.05276737
16	0xbd5f6c58	-0.054546684
17	0x3de340f8	0.11096376
18	0x3db82011	0.08990491
19	0x3c83217e	0.016007181
20	0x3d68a74d	0.056800175
21	0xbc08f05e	-0.008358089
22	0xbbd3675d	-0.006451531
23	0xbd94adbd	-0.072597004
24	0x3bd77e49	0.0065763337
25	0x3dab6c87	0.08370309
26	0x3dc6e2b9	0.09711213
27	0x3e0a7a7c	0.13523287
28	0xbde38cae	-0.11110817
29	0xbe19f3d0	-0.15034413
30	0x3dcdb5c1	0.100444324
31	0xbdda30b7	-0.10653823

fc2.weight f4 [2, 32]
0	0xbda2c9f8	-0.07948679
1	0xbc6c28ff	-0.014414071
2	0x3cc28808	0.023746505
3	0xbdf60763	-0.12013128
4	0xbd7b8d4d	-0.06141405
5	0xbe04bc2e	-0.1296241
6	0x3dc09afd	0.09404562
7	0x3da65e26	0.08123426
8	0x3da02d73	0.07821169
9	0xbe231d48	-0.15929139
10	0x3d181129	0.03712574
11	0x3d01ed39	0.031720374
12	0x3dbf3fdd	0.09338353
13	0xbe002bec	-0.12516755
14	0x3cef23c0	0.029191852
15	0x3c634e7e	0.013873694
16	0xbda0fe61	-0.07861019
17	0xbe55d231	-0.20880963
18	0x3dc29a1c	0.0950205
19	0x3d90b843	0.07066395
20	0x3d066d71	0.032819215
21	0x3df1962f	0.11796223
22	0x3c660e9b	0.014041568
23	0xbd5202fe	-0.051272385
24	0xbc1cdd87	-0.009574301
25	0xbd07f58e	-0.033193164
26	0xbe305189	-0.17218603
27	0x3d5460bb	0.051850062
28	0xbd6e1e93	-0.058134627
29	0xbd5a4c92	-0.05329568
30	0x3dba742d	0.0910419
31	0xbd95c1f8	-0.07312387
32	0xbe34d89a	-0.17660752
33	0x3cc64d31	0.02420673
34	0x3d60a920	0.05484879
35	0x3e1aa017	0.15100132
36	0xbd902f89	-0.070403166
37	0x3ddefb2c	0.10887751
38	0x3d2604cd	0.040531922
39	0x3d174d5d	0.036939014
40	0xbd8c6967	-0.068560414
41	0x3d054e9e	0.03254568
42	0x3b9940f5	0.004676933
43	0x3d5654ce	0.05232697
44	0x3d39c44c	0.04535322
45	0xbd9addfa	-0.0756187
46	0xbc3eaf04	-0.011638407
47	0x3d3cdb8d	0.046107817
48	0x3bd295f7	0.0064265686
49	0xbd9c5bee	-0.07634722
50	0xbe0f8d85	-0.14018829
51	0x3d3f793b	0.046746474
52	0xbe425739	-0.18978585
53	0x3e169a0f	0.14707206
54	0xbe17d950	-0.14828992
55	0xbe394434	-0.18092424
56	0x3d5fde3b	0.054655295
57	0xbda0d2fc	-0.07852742
58	0x3ce709d1	0.028202923
59	0x3db97327	0.09055167
60	0xbd8f6c18	-0.07003039
61	0xbd111718	-0.035422415
62	0x3d9b7856	0.07591312
63	0xbe06b92d	-0.13156576

fc2.bias f4 [2]
0	0x3de9015c	0.113772124
1	0x3d81c6a9	0.063367195
