latest.pth (torch, 323690 bytes, 10 tensors)

conv1.weight f4 [32, 4, 8, 8]
000000 be ca 3a 3d c9 7c 0d be a3 f8 a3 bd 4c 2f 53 3d
       0.045603506 -0.13817133 -0.08006408 0.051558778
000010 35 4f b8 3d 20 3f 19 bd b2 d2 1d bb a1 5b 90 bb
       0.089994825 -0.037413716 -0.0024081883 -0.0044054543
000020 19 44 3b bd 51 11 3a bd 8e 4c f9 bd 37 b4 88 bd
       -0.04571924 -0.04542667 -0.12172805 -0.06674998
000030 eb 45 d0 3b fa e5 34 bd 3e 36 24 3d a2 c1 a2 bc
       0.006355991 -0.044164635 0.040090792 -0.019867722
000040 85 9b f6 3b 81 a2 37 bd 35 be e2 bb a7 98 91 3d
       0.0075258636 -0.04483271 -0.006919647 0.07109194
000050 b3 b4 81 3b 1f ea 0c bd d5 df bf bd 63 cb 10 bd
       0.0039583086 -0.034402963 -0.093688644 -0.035350215
000060 c1 75 ee bc 0d 9b 89 bd 38 f1 b9 bd e0 75 98 3d
       -0.029108884 -0.06719027 -0.09079212 0.07444358
000070 3c 31 8a 3b 76 c9 60 3d c6 ea e8 3c 3a 35 82 3d
       0.004217295 0.054879628 0.028432261 0.063578084
000080 56 8a d9 bb b2 cc 01 bd 22 54 96 bc 99 77 36 3c
       -0.0066388054 -0.031689353 -0.018350665 0.011136913
000090 67 49 19 3c d1 e2 6e bd b7 89 41 bd d5 8c fd 3c
       0.009355879 -0.058321778 -0.047250476 0.030950943
0000a0 fb 9b b2 3d b8 50 ff bd 80 0b 97 3c 2b 6b eb bb
       0.08721157 -0.12466568 0.0184381 -0.0071844063
0000b0 d2 fc 6f 3d a6 c4 94 3c 10 c1 01 3e e5 00 20 3d
       0.058590718 0.018160176 0.12671304 0.039063353
0000c0 0a 8f 8f 3d 01 94 b4 bd 22 68 97 3c 8d 65 96 bb
       0.070097044 -0.08817292 0.018482272 -0.0045897425
0000d0 08 3a a0 3d e3 a9 b3 3c 07 83 44 3d 52 6f 3a bd
       0.078235686 0.021931594 0.04797652 -0.04551632
0000e0 bb 95 80 bd 33 26 86 bd b4 e9 04 be bf 17 91 bb
       -0.06278559 -0.06550255 -0.12979776 -0.0044278796
0000f0 9c c5 41 bd c1 e7 f8 3c 53 c7 32 3d 31 9a d7 bc
       -0.047307596 0.030383946 0.04364712 -0.026318641
000100 d0 50 67 bd 26 eb ac bb de 5f 97 bc b3 a1 9b 3d
       -0.056473553 -0.0052770553 -0.01847833 0.07599201
000110 0f 64 90 3d cb 53 45 bc 2c 93 81 bd 65 9f ce bb
       0.07050335 -0.012043904 -0.06326899 -0.0063056224
000120 e1 e7 2c bd 06 4a 8c bd 34 19 45 bd 1b cc fc bb
       -0.042213324 -0.06850056 -0.04811974 -0.007714761
000130 d0 23 4f 3c 5a 4c b9 bd 65 df 93 bc bf 34 f9 3c
       0.012642816 -0.09047766 -0.018050859 0.03042066
000140 8a e7 5d 3c b2 44 cb bd ba a2 f6 bc 8e c3 18 bc
       0.013543973 -0.09925212 -0.030106891 -0.009323968
000150 44 d8 5b 3d 34 b7 41 3c f0 be b1 ba 40 0b 32 bd
       0.053673044 0.011823464 -0.0013560932 -0.04346776
000160 de fd b8 ba 1c 93 d4 bc df 87 4e 3c 3b 67 08 3d
       -0.0014113744 -0.025949053 0.012605636 0.033301573
000170 ba f7 35 3c d3 f8 8f bc 7f d1 be bc cc 50 7a 3c
       0.011106426 -0.017574703 -0.023293255 0.015278053
000180 1b 89 f8 bc 18 06 9c bc e4 fb b7 bd df 83 bc 3c
       -0.030338814 -0.019045874 -0.08983591 0.0230121
000190 28 60 3b 3b a0 ac c1 bb f4 ca 23 bc d0 b7 06 bd
       0.002859125 -0.005910471 -0.009997118 -0.03289014
0001a0 52 d9 c4 3c 40 8f 90 bd 1d ac 75 3b 67 24 65 3d
       0.024029408 -0.07058573 0.003748662 0.05594292
0001b0 58 06 83 3d f1 1e 3c 3c e4 30 30 3d 56 72 ca 3d
       0.06397694 0.011481986 0.043015376 0.09885089
0001c0 05 78 b5 3c 7e 59 3b bd 4a 4f c6 bd 68 d1 6e 3d
       0.022151956 -0.045739643 -0.09683092 0.058305174
0001d0 24 69 6e bb 72 33 98 bd 4a ed 1b bd fe 97 9c bd
       -0.0036378587 -0.074316874 -0.038068093 -0.07646178
0001e0 b5 ae e3 bc 7c e9 61 3c 84 28 ff bc 1f 16 18 bd
       -0.027793268 0.013788577 -0.031147249 -0.03713047
0001f0 45 b1 09 3d ff 70 70 3c a3 66 a4 bc f7 3c 72 bd
       0.033616323 0.014675378 -0.020068472 -0.05914017
000200 96 d0 28 3c 4e 3b 66 bd b6 ea ad bd 2a 71 3b 3d
       0.010303637 -0.0562089 -0.08492033 0.04576222
000210 63 9c 0f bc a0 cf 76 bd 77 3b 9e bd 00 df 10 3d
       -0.008765313 -0.0602566 -0.07726186 0.03536892
000220 74 7f a1 bd e5 1e 74 bd 3e 56 71 bd 80 c6 81 bc
       -0.07885638 -0.059599776 -0.058920138 -0.015841722
000230 a4 1f 63 3d 0a d1 7c bd ec 9a 8f bc 9b 00 6a 3a
       0.055450097 -0.061722793 -0.017529927 0.0008926482
000240 0a 1d 4b 3d 43 89 b1 bd 97 a0 f9 bc dc 53 cf 3b
       0.04958824 -0.08668759 -0.030472083 0.0063271355
000250 5e 5c 16 3d 5b 12 3d 3c ac 4e 65 3b b5 0e c1 bc
       0.036709182 0.011540021 0.003498952 -0.023566583
000260 b0 5f 8d 3c 5c a7 3e bc 25 68 1a 3d 2e 52 85 3d
       0.017257541 -0.011636581 0.037696976 0.06509815
000270 d3 10 83 3c ad cf 4e bb af c9 44 3d ed 88 0b 3d
       0.015999233 -0.003155689 0.048043903 0.03406613
000280 89 55 4c bd df cb a9 39 7d 64 ac bd 07 33 d5 3b
       -0.04988626 0.00032386088 -0.08417604 0.006506327
000290 e3 8c c8 3c 00 d4 cd bb d3 b9 56 bc fa 0c 29 3d
       0.024481243 -0.006281376 -0.013105827 0.04127214
0002a0 7a ef 86 3d 9c 68 09 bd ec 06 96 3c cb e4 cc bc
       0.06588645 -0.03354703 0.018313847 -0.02501144
0002b0 53 62 21 bd 07 b3 8a 3c 40 39 e0 3c 9d 61 c3 3d
       -0.03940041 0.01693107 0.027371049 0.09540103
0002c0 96 e3 53 3d 0e 0d 54 bc 8d b5 67 bd 8d 86 0d 3d
       0.051730715 -0.012942566 -0.056569625 0.034552146
0002d0 2e 82 00 3d ab d0 bf 3c f2 89 8e 3c ab 0b 3f 3c
       0.03137415 0.02341493 0.017399762 0.011660497
0002e0 f3 a4 62 3d b5 bc b5 3c 2c a3 0e bd 11 9a c5 bd
       0.05533309 0.02218471 -0.03482358 -0.096485265
0002f0 c3 32 0c 3d 4e 78 39 3c e4 51 8c bd c0 85 bd bd
       0.034228098 0.011320187 -0.06851557 -0.092540264
000300 8c 0c 8d bd 7d 99 44 3b 2a cf ad bd 9e 24 46 bc
       -0.06887159 0.0029998713 -0.08486779 -0.012093691
000310 9e 86 52 bd ed d7 31 3d ac f1 0e bd 12 58 10 3d
       -0.051397912 0.043418813 -0.034898445 0.03524024
000320 49 a2 3b bd d5 57 be 3c 81 fc 40 bd 5c 0c 96 bd
       -0.045809064 0.023235241 -0.047115806 -0.07326576
000330 9d 42 d0 bc 89 1d 19 bd 11 e1 b3 3c af 5a ed 3c
       -0.025422389 -0.037381683 0.021957906 0.028973905
000340 bd 8a 07 bd 91 a6 7f bb a9 f3 58 3d 29 c4 44 bd
       -0.033091296 -0.0039009193 0.052966747 -0.048038635
000350 f4 37 bf 3c 64 af 6f bd 69 98 69 3b 33 b4 29 3d
       0.02334211 -0.058516875 0.0035643822 0.041431617
000360 87 91 43 bd ec 2c 28 3c e6 d7 c7 bc d9 cd df 3c
       -0.047746208 0.010264616 -0.02439494 0.027319835
000370 88 89 9f 3c d1 2d e9 bc 6a 60 05 3d 08 ad 61 3b
       0.01947476 -0.02846423 0.03256265 0.003443541
000380 a3 e6 da bc dc 76 56 bd b6 88 e6 bd d2 b4 62 bd
       -0.026721304 -0.052359447 -0.11256544 -0.055348225
000390 be 0c 2d 3c c8 da f7 3c f2 22 9d bb c3 48 48 3d
       0.01056212 0.03025569 -0.0047954256 0.048897516
0003a0 1d f1 5a 3c 03 85 06 3d f0 9c 87 bc 53 7f 2e 3c
       0.01336315 0.032841694 -0.016554326 0.010650474
0003b0 e0 95 1b 3d 0b 31 87 3a 8e 36 4a 3d 43 e1 29 3d
       0.03798473 0.0010314299 0.049368434 0.041474592
0003c0 3f 87 c1 bc b8 e8 95 3c 91 37 d2 bb 10 a4 41 3d
       -0.02362406 0.018299446 -0.0064153154 0.047275603
0003d0 fb bc 34 3d ac 4a 1d bc 61 44 25 bc 5d 1b 39 bd
       0.04412554 -0.009600323 -0.010087104 -0.04519211
0003e0 c0 4c 4b 3c 09 72 70 3c c6 92 91 bd ce 5f 5c bc
       0.012408435 0.014675626 -0.07108073 -0.013450576
0003f0 7e 67 8a 3d 20 57 10 bc f7 6f a5 bc 74 fc e2 3b
       0.06758021 -0.008809835 -0.02019499 0.0069270674

conv1.bias f4 [32]
000000 3d a2 95 3c 18 96 9d bd 96 61 d1 ba e3 4b 02 3c
       0.018265838 -0.07694644 -0.0015974517 0.007952663
000010 9d b6 89 bc cb 61 53 bd 59 8a 3c bc 9c 15 c3 bb
       -0.01681071 -0.051606935 -0.011507594 -0.005953504
000020 39 ae 75 bd e9 f3 83 3b 69 cb aa bb 34 af b6 bd
       -0.059980605 0.004026879 -0.0052122367 -0.08920136
000030 ca 61 f2 bc 96 85 0d bc bf 9e c1 3c 37 c3 4b 3c
       -0.029587645 -0.008637806 0.023635266 0.01243668
000040 5f ad 90 3c 45 1e 86 bb 0b 21 95 3c b5 d6 98 bd
       0.017660795 -0.004092964 0.018204233 -0.07462827
000050 63 64 00 bb eb 6a de bc a2 2b 50 bb 11 a6 be 3b
       -0.0019591085 -0.027150592 -0.0031764288 0.0058181365
000060 d3 12 7c 3b 50 79 8a bb 40 5c e2 bd 92 4f 11 bc
       0.0038463369 -0.0042258874 -0.110527515 -0.008869069
000070 b2 4f ec 3b 5b 60 e9 bb ee 8c df bc e9 ea df bd
       0.007211649 -0.007122082 -0.02728888 -0.109334774

conv2.weight f4 [64, 32, 4, 4]
000000 3e b4 0d 3d 2f 16 8d 3a 0c d5 53 bd b7 4d 71 3b
       0.03459572 0.0010764058 -0.05171685 0.0036820003
000010 bf 23 85 3c 1d 53 aa bd fb f3 6e 3d ed 6e f7 3b
       0.016252397 -0.08316634 0.058338147 0.007551065
000020 53 54 a1 3c 3f 02 29 bc 9e 14 b8 3c 26 0d 03 3d
       0.01969353 -0.010315477 0.022470769 0.03199496
000030 f4 e3 93 bc df 82 29 bd 1b 61 18 3b a6 8c 94 3d
       -0.018053032 -0.041384574 0.0023251239 0.07253389
000040 df 8d 7d 3b 9e da 68 bc d8 f8 21 bd 96 89 a4 bc
       0.0038689298 -0.014212279 -0.039543957 -0.020085137
000050 07 ad d5 3c f1 21 b8 bd c1 a3 b3 bd 53 fd c2 bb
       0.026083482 -0.08990849 -0.08771468 -0.0059506088
000060 58 9d aa bc 54 2a 88 3c f8 3e 0b bb 55 e8 ea bb
       -0.02082698 0.016621746 -0.002124725 -0.0071688094
000070 2c 5f 3e bd ab d1 bc bd 81 3f 6f bc 09 e8 e9 3c
       -0.04647748 -0.092196785 -0.014602543 0.028553026
000080 a9 f6 ba 3c 38 10 15 3c fc a0 7d bd f7 29 9c bb
       0.022822695 0.009098105 -0.061921105 -0.004765745
000090 ff dd cd 3b 21 36 87 3c 2c ab 51 bc 7e 83 fe 3c
       0.0062825675 0.016505303 -0.012797158 0.03106856
0000a0 ac be 28 3a 2a 88 2f 3d 08 08 6e 3d ab c0 30 3d
       0.0006437104 0.042854466 0.058113128 0.043152492
0000b0 87 65 3b 3d 43 bf 36 bd 79 76 0f 3c 95 75 6f bd
       0.04575112 -0.044615995 0.008756273 -0.058461744
0000c0 9c 3b 5f 3b f4 e2 89 bc c1 7c 0d bd b7 3b a0 bc
       0.003406263 -0.016831852 -0.034542803 -0.019559724
0000d0 c4 fa 1e 3d cf 73 bd 3c e9 8b 15 3b 1b 50 f2 bb
       0.038813367 0.02312651 0.0022818989 -0.007394803
0000e0 ec 58 cf 3b a2 3f 26 3d 98 98 0b 3d 5b a0 f8 bb
       0.006327739 0.04058803 0.03408107 -0.0075874752
0000f0 91 5b 99 bd 89 e1 c6 bd c2 d7 83 3c 41 f7 fe bb
       -0.07488168 -0.09710986 0.016094092 -0.00778094
000100 93 f6 2e bc 7c ba 93 39 82 0c 36 bb e8 b8 a5 bc
       -0.010678905 0.00028176967 -0.0027778451 -0.020229772
000110 f2 6f 27 bc 85 b8 32 bc 4c 21 db bc dd 5d f9 ba
       -0.010219561 -0.010908251 -0.026749276 -0.0019025166
000120 41 3d 81 3d 81 5e 53 3d e1 11 87 3c d5 59 02 3d
       0.063105114 0.051603798 0.016488018 0.03182395
000130 a6 9b 3a bd 22 fa 39 bd 7a f7 82 bc dc 29 31 bb
       -0.045558594 -0.04540456 -0.015987147 -0.0027033007
000140 cf 3e b6 bc 62 3a 8f bd 04 0f 39 bd 71 e5 48 3d
       -0.022246746 -0.069935575 -0.045180336 0.049046937
000150 c6 f2 47 bd ee 46 82 bd 22 b9 56 bd 5d 32 1a bc
       -0.04881551 -0.06361185 -0.05242265 -0.009411422
000160 25 b7 6f bb ac f2 87 bd ac 6b 88 bc e1 a9 a2 3d
       -0.0036577669 -0.06638083 -0.016652904 0.07942558
000170 33 60 aa bd d1 b4 8b bd da e9 31 bd f4 00 7f 3d
       -0.0831913 -0.06821597 -0.04343591 0.06225677
000180 c8 25 c5 bc 9a 18 71 b9 be 07 15 bd d2 d3 04 3d
       -0.024065867 -0.00022992716 -0.036384337 0.03242857
000190 61 1a c4 b9 82 f2 eb bc e5 9d 68 3b 82 f5 c8 3c
       -0.00037403687 -0.02880216 0.0035494503 0.02453113
0001a0 55 d1 4b bd cb cc df bd 3a d2 10 3d a0 ac ee 3a
       -0.04976018 -0.10927733 0.035356738 0.0018209405
0001b0 21 7c 81 bd b2 ee ee bc 51 d2 11 bc 19 70 a8 3d
       -0.06322504 -0.029166553 -0.008900241 0.08224506
0001c0 6c 04 1f 3c 81 55 9d 3c f2 c9 a6 bd e9 26 2b bd
       0.009705644 0.01920581 -0.08143987 -0.041785154
0001d0 08 9d 55 3d 55 06 36 bd 55 46 29 3d 10 86 38 bd
       0.05215171 -0.044439632 0.04132684 -0.045049727
0001e0 79 54 86 bd 43 89 2a 3d d8 17 91 3c 8f 2d 96 bc
       -0.06559081 0.04163481 0.017711565 -0.01833227
0001f0 d6 3e 57 bd 94 83 2e bc 6f 71 19 3c a4 f2 87 3d
       -0.05255016 -0.010651488 0.009365424 0.06638077
000200 ef 7d 22 3c ce e9 81 bc e5 8b e7 bc 26 bc 21 bd
       0.00991772 -0.015858557 -0.02826495 -0.039486073
000210 46 61 5c 3d 37 39 8d bd 03 b8 47 bd 8a 7c 07 bc
       0.053803705 -0.068956785 -0.04875947 -0.0082694385
000220 ea 1c de 3b d3 66 c2 bc 39 41 85 3c 23 19 a2 3b
       0.006778349 -0.023730671 0.016266452 0.004946844
000230 c3 62 38 bb f7 35 8e bc 46 2a 15 bc 84 d9 3b 3d
       -0.0028135038 -0.017359717 -0.009104317 0.045861736
000240 19 7c 32 3c 62 7b 34 bd 55 be 1a 3d 23 c8 7e bd
       0.010893845 -0.04406298 0.03777917 -0.062202584
000250 7e 5b 8d 3c d6 31 3c bd 0a 01 12 3c bf db 76 3c
       0.017255541 -0.045945965 0.008911381 0.01506704
000260 83 2e 1c bc ae 8f d7 bc 6a a9 c2 3c db a4 cf 3c
       -0.009532574 -0.026313629 0.023762424 0.025347164
000270 92 44 31 ba 5a 10 f2 bb 19 b3 b1 3c c9 58 be 3c
       -0.0006762232 -0.007387203 0.021691846 0.023235695
000280 57 73 89 3d f4 7d 42 bd f5 90 ef bc a2 45 75 3c
       0.067114525 -0.0474834 -0.029243926 0.014970215
000290 38 bd e1 3c 69 f8 3a bd 53 31 0c bb 72 83 82 bb
       0.027556047 -0.04564706 -0.0021391704 -0.0039829547
0002a0 44 1d 99 bd 60 71 74 bd 24 49 33 3d 3f f0 d6 3c
       -0.07476285 -0.059678435 0.043770924 0.026237605
0002b0 b2 8e ac bc d5 64 68 bd 52 d9 02 bd 36 95 8b 3a
       -0.021064136 -0.056736786 -0.031945534 0.0010649327
0002c0 0b 19 40 bd 02 ac df bc 4e 68 d8 bc 8a 87 d9 bc
       -0.046898883 -0.0273037 -0.026416924 -0.026553888
0002d0 7d a6 f6 bc 38 74 de 3c 46 8f ca 3c 90 ed ae bd
       -0.030108685 0.027155027 0.024726521 -0.08541405
0002e0 bd df 17 3d e6 2b 17 3d 99 54 02 3c ac 96 aa bd
       0.037078608 0.0369071 0.00795474 -0.0832952
0002f0 50 70 ad bc 42 2d 09 bd 34 7e 53 bb bf 76 34 3c
       -0.021171719 -0.033490427 -0.0032271268 0.011014639
000300 c0 bf a3 bc 64 6a 35 3d 9c 4b e2 3b ee e7 3d 3c
       -0.019988894 0.044290915 0.006905986 0.011590941
000310 8b e2 9e bc 92 33 ad 3d 42 4e 11 3c a6 03 02 3c
       -0.019395133 0.08457102 0.008868756 0.00793544
000320 ac ec e6 bb 5e 00 cb 3a 73 22 2b 3d a4 72 2c 3d
       -0.0070472565 0.001548778 0.0417809 0.042101517
000330 e1 c8 51 bd 77 b4 7a bc f9 70 83 bd 66 2a e0 3c
       -0.051216964 -0.015301815 -0.06418032 0.027363967
000340 a0 7f f4 3c f0 9b ec ba 9a 47 c7 3c 62 d6 4a bd
       0.029846013 -0.0018051844 0.024326134 -0.049520858
000350 fb af 48 3c 49 a2 14 bd f7 14 0f 3d 3a bc f9 bb
       0.012248988 -0.03628758 0.034932103 -0.0076213153
000360 99 4f a7 bb e3 c5 11 3b ce 3f e2 3c f0 43 0e bc
       -0.0051059243 0.0022243194 0.027618315 -0.00868319
000370 d1 9e 2d bc 71 b0 f3 bb 6f 20 aa 3b d6 83 cf 3c
       -0.010596947 -0.007436805 0.0051918547 0.025331419
000380 98 4e 89 bd e8 ea c6 3c 69 32 0a bd 23 9c 95 3c
       -0.06704444 0.024281934 -0.03373948 0.018262928
000390 dc 34 18 3d a6 aa 08 bd cc 06 ae bc fc 1f fe 3c
       0.037159786 -0.033365868 -0.021243475 0.03102111
0003a0 f1 17 42 3d 64 9a bb bc 67 fc b8 ba 9a 00 8f bc
       0.047386114 -0.022900768 -0.0014113308 -0.017456342
0003b0 d6 8a 08 3b 3c 04 32 bd 32 c1 0c 3d 37 11 45 3b
       0.0020834706 -0.04346107 0.034363933 0.0030070075
0003c0 d7 3d 01 3d 3d 25 4c bd 5b d4 53 bc fd 89 3e 3d
       0.031553116 -0.0498402 -0.012929047 0.046518315
0003d0 af e3 b0 3d 36 5e 6c bd ba d8 87 bb d3 aa 0c bd
       0.08637177 -0.057707034 -0.004145709 -0.0343426
0003e0 4f 2d 12 3c 1f 46 08 3d 94 f8 77 3c 0d df f1 3c
       0.008921935 0.033269998 0.015134949 0.029525304
0003f0 15 1d 73 bd 2e 4a 42 bd c1 1c 08 3d 35 81 11 bd
       -0.059353907 -0.047434025 0.033230547 -0.035523612

conv2.bias f4 [64]
000000 46 2f a0 bc b0 36 fa 3c 26 e9 96 3c ae 42 83 ba
       -0.019553792 0.030543655 0.01842172 -0.0010014379
000010 49 d7 1a bc 03 2f 4a bd 20 48 97 bd 3e 3a dc 3c
       -0.009450742 -0.04936124 -0.073868036 0.02688324
000020 fa f2 1a bd 4e ae 08 bd c8 3c 39 3b 66 d7 59 3c
       -0.037829377 -0.033369355 0.0028264988 0.013295984
000030 54 8b de 3c 47 c7 1c 3b 1e c8 4e 3c 4b 09 3a bd
       0.027166046 0.002392249 0.012620954 -0.04541902
000040 41 ea 4e 3d 13 ed 67 bd 09 fa b3 bc ed 62 44 bd
       0.05051637 -0.056622576 -0.021969812 -0.047945905
000050 43 02 79 3c 99 5e b6 bc 24 28 ca 3b f6 1b 8a 3c
       0.015198293 -0.022261905 0.006169336 0.016859036
000060 df 74 26 3d df 7f b2 bd 79 44 50 3d d6 f1 a7 bd
       0.0406388 -0.08715796 0.05084655 -0.082004234
000070 f2 58 78 bd 56 24 e5 bc c5 1a 6a bd 40 82 eb 3b
       -0.0606317 -0.027971428 -0.057154436 0.007187158
000080 d9 68 4e bc 07 79 72 3d c7 d0 87 bd fd cd e0 bb
       -0.01259824 0.059197452 -0.06631618 -0.006860493
000090 6a 3c aa bd 6d ac 30 3d 6f 1b 9c 3c 5a 3b 08 3d
       -0.08312304 0.043133188 0.01905605 0.033259727
0000a0 3a 2f 8c bb 2b 61 00 3d a4 b1 8e 3a 97 ea d3 3b
       -0.004278091 0.031342667 0.0010886681 0.0064671743
0000b0 f0 80 0a bd 5c 87 1f bd 77 70 44 3d ff 62 3c bd
       -0.03381437 -0.038947448 0.047958817 -0.045992848
0000c0 64 2d a0 bd 0a f9 d3 ba d9 ad 44 3d 7a 5c 50 3c
       -0.078211576 -0.0016172242 0.048017357 0.012717361
0000d0 15 d3 e3 bb 9d 24 3e 3c 81 52 0f bd e9 c6 0a ba
       -0.006952653 0.011605409 -0.03499079 -0.0005293922
0000e0 ef ae a0 bd 52 4a 2c bd c5 87 63 bd 60 33 9b bb
       -0.07845866 -0.042063065 -0.0555494 -0.004736349
0000f0 f8 c5 93 3d 58 94 ae bc 00 09 a2 bc 78 98 7e bc
       0.07215494 -0.02131097 -0.019779682 -0.015539281

conv3.weight f4 [64, 64, 3, 3]
000000 8a 96 66 3c f6 4e 89 bc 5c 01 df bb 34 6e de bc
       0.014073977 -0.016761284 -0.006805582 -0.027152158
000010 c6 3f bc 3c 06 2e dc bc cb 13 ab bc cb 3f 75 bd
       0.022979628 -0.026877414 -0.020883461 -0.05987529
000020 2d eb 6c bc c4 f7 8d 3a ad a6 2a 3c 66 80 4a 3c
       -0.014460367 0.0010831286 0.010415715 0.012359714
000030 6a 7e fe 3c da 5e 60 3c 94 42 13 bc 56 b6 42 3c
       0.031066138 0.013694489 -0.008988041 0.011884293
000040 19 5a 11 3d 94 09 03 3d b9 87 7a 3c b1 36 70 bc
       0.035486314 0.031991556 0.015291148 -0.014661477
000050 8e 3d b6 3c 32 18 fe 3c ba 96 fd 3c 18 ff 67 3c
       0.022246148 0.031017397 0.030955661 0.01415994
000060 14 aa 94 bc 75 b9 0b 3d 2d 35 db bc 00 62 c0 bc
       -0.018147506 0.034112412 -0.026758755 -0.02348423
000070 2d 9a 43 3d a5 eb 73 3d 23 ec 2b bc a5 48 b8 3c
       0.047754455 0.0595509 -0.010493311 0.022495577
000080 90 a4 da bc 95 4a 1d bc a4 05 34 3d b6 f7 86 3b
       -0.026689798 -0.009600301 0.04395069 0.004118885
000090 01 f7 38 3c 32 16 83 3c 49 87 09 3d 14 e6 2a 3d
       0.011289359 0.016001794 0.033576284 0.041723326
0000a0 24 d3 bf 3c 22 4a 5c 3c 88 ad 6b bd 94 f8 45 3d
       0.02341611 0.013445409 -0.05753854 0.048332766
0000b0 5f 62 97 3c 54 c3 85 bc 86 f8 49 3c a0 27 38 3c
       0.018479524 -0.016328491 0.012327319 0.011239916
0000c0 e4 8b 02 3b f3 9f c4 39 e9 fe 1e bd 67 a9 08 3d
       0.0019919807 0.00037503205 -0.03881732 0.03336468
0000d0 04 18 e6 3c 8b a7 ee bb bc 77 44 bb 66 fa 45 bd
       0.028087623 -0.0072831563 -0.0029978594 -0.0483345
0000e0 6e 1f 12 b9 9c 46 bc 3c 1e 70 8a 3d f2 3c 11 3d
       -0.00013935353 0.022982888 0.06759666 0.035458513
0000f0 4e de 60 bb 1d 19 02 3b 49 b9 81 bd 1f 50 35 bb
       -0.0034312191 0.0019851394 -0.063341685 -0.0027666164
000100 2a db 26 3b 8a 6a ba bc 9a 68 cb bc b7 fb 3a bc
       0.0025460222 -0.02275588 -0.024830151 -0.011412553
000110 38 b1 ac 3c 17 c0 c6 3c 48 40 e1 3c 94 65 f1 3b
       0.021080598 0.024261517 0.027496472 0.0073668454
000120 e7 50 7a 3d e5 d3 96 3d 20 5b 73 bc 8a 89 bd ba
       0.06111231 0.073646344 -0.014853269 -0.0014460545
000130 16 fb 1b bd 6b fd 94 bd 02 fc d1 bc 76 d8 0b 3d
       -0.03808125 -0.07274898 -0.025632862 0.03414198
000140 cf 5b 90 bc 8b 99 35 3d 28 03 3c 3c 4e 16 70 bc
       -0.017621903 0.044335883 0.011475362 -0.014653755
000150 4f 37 07 bd 30 e2 bf bc 63 1f c1 bc ba 4f 25 3c
       -0.03301173 -0.023423284 -0.023574537 0.010089809
000160 39 25 a6 bb e9 b0 00 3c 83 bc 68 3c 7a b5 85 3c
       -0.0050703553 0.007854679 0.014205101 0.016321886
000170 74 62 b1 3b 9b 2a 93 bd c3 44 f7 bc bc 08 e6 3c
       0.005413348 -0.07185861 -0.030184155 0.028080337
000180 b5 90 a3 bc c3 30 9f 3d 0e d9 d1 3c 76 d4 27 bd
       -0.019966463 0.077729724 0.025616195 -0.040974103
000190 cf 0e 2c bc 0b 5c 60 bb 85 4f 1e bc a6 21 bb bc
       -0.0105015775 -0.003423455 -0.009662514 -0.022843193
0001a0 d3 4b 11 bd 73 63 71 3d 1a 19 b2 3c 4d 72 7b 3b
       -0.035472702 0.058932733 0.021740485 0.003836769
0001b0 e0 43 3c 3b 59 d2 3f 3c 92 44 90 3c 4c b3 0e bd
       0.002872698 0.011707866 0.017610822 -0.03483896
0001c0 f7 ca b7 3c ab 37 21 3d d1 8f 28 3d 96 60 cc 3a
       0.022435648 0.03935973 0.04115278 0.001559275
0001d0 d9 1e e5 3c 34 a1 01 bc 92 c8 37 bc 33 f5 4f 3d
       0.02796881 -0.007911969 -0.011217253 0.05077095
0001e0 f4 ee 81 bc cc 17 bc bc 15 f5 11 3b dd fe c8 3b
       -0.015861012 -0.022960566 0.0022271324 0.0061338977
0001f0 e0 2b c2 3c c8 bf d5 bc f7 3f 69 bc 48 75 68 3d
       0.023702562 -0.026092425 -0.014236442 0.056752473
000200 2d 47 24 3d 45 1b 82 3c 70 39 a1 b9 72 28 8f 3b
       0.04010694 0.015882144 -0.00030751107 0.004368835
000210 d2 0f df ba df 98 4a ba 0e 2b 50 3a aa 01 45 3d
       -0.0017018265 -0.0007728468 0.0007940986 0.04809729
000220 a0 72 08 3d 76 df af 3d 1b 2c bc 3b 2a 33 98 bb
       0.03331244 0.08587544 0.0057425625 -0.004644771
000230 5b f3 fc bc 73 74 36 bd a1 e6 85 3c fd f1 c3 bc
       -0.03087776 -0.04454465 0.016345324 -0.0239191
000240 ec e9 e1 bb 93 8a 48 bc a1 75 12 3c 5d eb 63 bc
       -0.0068943407 -0.01224007 0.008939178 -0.013911095
000250 9d 86 33 bd 05 2f 97 3c 84 d1 04 3d 3a cd 74 bc
       -0.04382955 0.018455038 0.032426372 -0.014941508
000260 b9 25 5f bd 7b 99 9d bb f7 28 2e bd 45 e0 0d 3d
       -0.054479335 -0.004809556 -0.042519536 0.03463771
000270 87 8d 95 3d fd 04 8a 3d 0c cd 67 bd 06 ff 50 bd
       0.07302385 0.06739233 -0.056592032 -0.05102446
000280 0c 08 6e 3c 89 83 45 3c 61 e1 00 bd 39 74 1b 3b
       0.014528286 0.012055286 -0.031464938 0.0023720397
000290 a9 75 be 37 f4 18 e3 3b 6c 6b c2 3c 6d be d7 3c
       2.2704555e-05 0.006930465 0.023732863 0.02633592
0002a0 be dd 77 3d 26 2b 98 3c fb 25 9b bb c5 d0 ba 3b
       0.060514204 0.018575262 -0.0047347522 0.005701157
0002b0 03 52 22 3c 77 88 b2 3c 05 1d 99 3a 9d 4f d7 bc
       0.009907248 0.021793587 0.0011681622 -0.02628308
0002c0 a2 41 c0 3c e2 9e cf 3c 06 26 65 3c df 11 57 bc
       0.023468796 0.025344316 0.013986116 -0.013126819
0002d0 1f e3 d3 3c 37 c0 85 3b f8 0d c9 bc 97 8b 90 bb
       0.025865136 0.0040817517 -0.024542794 -0.0044111717
0002e0 f6 ad eb bc 07 4b 30 bc 5d 33 89 3c d9 30 76 bc
       -0.028769474 -0.010760075 0.016748125 -0.015026295
0002f0 a0 4c fa bc c5 a9 39 3c be d7 1c bd 89 ac 26 3d
       -0.030554116 0.01133198 -0.038291685 0.040691886
000300 5f 85 9b bc 06 83 e2 bb 32 95 0c bd 25 84 89 3d
       -0.018984495 -0.006912592 -0.03432197 0.06714658
000310 47 d9 53 3d d2 fe c0 3b 16 7c 24 bd 88 a3 0c 3d
       0.051720884 0.005889752 -0.0401574 0.034335643
000320 e2 06 78 3d 62 10 19 3d 11 98 b8 bc 70 d3 8a bc
       0.06055344 0.03736914 -0.022533448 -0.016946524
000330 e5 67 89 bb 42 9d c1 bb 20 c1 8a 3c fe 19 8c ba
       -0.0041932934 -0.005908639 0.016937792 -0.0010688899
000340 2c 34 1f 3d 92 90 f6 3c dc 84 89 3c 4c b7 e6 bc
       0.038868114 0.030098233 0.016786985 -0.028163575
000350 4e 60 5a bc 27 9f 13 bd de d7 90 bd f9 1e aa bd
       -0.013328625 -0.03604045 -0.070724234 -0.08306689
000360 c4 9e 02 bb c5 bd 45 bb 36 3c 88 bc b0 5d 83 bc
       -0.0019931057 -0.0030172926 -0.016630273 -0.016035885
000370 69 7d 59 3d b1 c7 21 bd f4 40 25 bd 79 62 43 3c
       0.053098116 -0.03949708 -0.040345147 0.011925333
000380 34 07 8e bd 33 9a 49 3c 1a 3f 02 bd 5e a3 c5 3c
       -0.06934968 0.01230483 -0.03179846 0.024125751
000390 14 67 03 bd 5b 7f 17 bc 9d 95 0b 39 32 50 b7 3b
       -0.032080725 -0.0092466725 0.00013311808 0.005594277
0003a0 b2 d2 ff bc 5e cb 3b bd 00 8e 51 3d f6 ea 50 3d
       -0.031228397 -0.045848243 0.051160812 0.051005326
0003b0 ea 21 6a 3c 12 e0 7a 3d 8a 92 12 bc f2 65 d4 bc
       0.014290312 0.061248846 -0.00894607 -0.025927518
0003c0 b0 eb 01 3c 76 6f 89 bc 53 c2 0a bd f5 0b 82 3c
       0.007929727 -0.016776782 -0.03387673 0.015874842
0003d0 09 df b3 3c e9 f0 25 bc 19 1f 19 3d 63 71 82 3d
       0.021956937 -0.010128238 0.037383173 0.06369283
0003e0 d2 24 72 3c e0 0c fd 3c 02 df bf 3c 02 9a 06 3d
       0.014779286 0.030889928 0.023421768 0.032861717
0003f0 00 8a c7 3a f3 77 9c bc dd c4 6d 3d e3 9f 84 3c
       0.0015223622 -0.019100165 0.05804907 0.016189521

conv3.bias f4 [64]
000000 a5 87 02 3e 13 ca 44 3e c1 17 0f 3d 7e fc 37 3e
       0.12747057 0.1921771 0.034934763 0.17967412
000010 94 ca e7 3c 9b 50 1d 3d 23 5b 70 3d ea d7 42 3b
       0.028294839 0.03840695 0.058680665 0.0029730746
000020 27 45 ae bc f7 74 f1 3d 29 af fd 3c 20 1c e8 bc
       -0.021273209 0.117898874 0.030967312 -0.028333724
000030 60 f2 1b bd 05 e3 6a 3c e8 61 19 3e 1f 38 2d bd
       -0.038072944 0.014336352 0.14978755 -0.04228985
000040 11 53 ec bc c1 7b ac 3d 66 a0 41 bd 87 f6 15 be
       -0.028848203 0.08422042 -0.04727211 -0.14644824
000050 57 1e bf bc 44 39 ea bc 2d bb a8 3c 42 62 9a 3d
       -0.023329897 -0.02859176 0.020597065 0.075382724
000060 18 5e 4e 3d d9 7c b4 3d ea e8 72 3d f0 b4 1f 3e
       0.050382704 0.08812875 0.059304155 0.15596366
000070 46 63 e5 3d 29 aa ef bc 91 0a f1 3d dd e1 6b bd
       0.112005755 -0.029255943 0.117695935 -0.057588447
000080 8a 09 9a 3d 67 1b 22 3e 4e 22 57 bc b9 83 b2 3d
       0.07521351 0.15830766 -0.0131307375 0.0871653
000090 db 3c 8a 3c d9 ef 94 bc 7a 2e 0a 3d 66 0e 85 bc
       0.016874721 -0.018180775 0.03373573 -0.016242217
0000a0 63 78 3e bd 7a 95 ad 3d d9 9e 3e 3e 28 02 8f bc
       -0.04650153 0.08475776 0.18615283 -0.017457083
0000b0 32 fe 06 bc 83 28 a5 bd b8 f3 a1 bd 32 a3 79 3c
       -0.008239316 -0.080643676 -0.07907814 0.015236663
0000c0 8c f3 a6 3d b5 14 ab 3c e1 7b 73 bd 4b e7 14 3c
       0.08151922 0.020883897 -0.059444312 0.009088348
0000d0 29 31 98 bd 47 21 fe 3c 12 e7 2f bd 09 92 74 bd
       -0.074312516 0.031021727 -0.042944975 -0.059709582
0000e0 7c 7f b1 3c a3 25 04 3d 33 f1 f8 3b 23 5e 29 bd
       0.021667235 0.032262456 0.0075971126 -0.04134954
0000f0 42 ed e6 bd 6f 57 de 3d 9b 5b 2c bd 0d df 09 3e
       -0.11275722 0.108565204 -0.04207955 0.13463993

fc1.weight f4 [32, 64]
000000 d4 aa fd bb c8 cf 5a bd bd c7 9e 3d ee 53 5e bd
       -0.0077413116 -0.053420812 0.07752941 -0.05427926
000010 29 74 0b be 08 dc 3f be 9d cc ae 3d b3 91 0f bd
       -0.1361853 -0.18736279 0.08535121 -0.03505106
000020 0f d2 e5 3d 1b 68 9b 3d 67 75 9f 3d 92 ff a4 3d
       0.11221706 0.07588216 0.077860646 0.08056559
000030 40 f3 5e 3d 3a 6d d1 3c ad 75 98 3d 6b fe 69 bd
       0.0544312 0.025564779 0.0744432 -0.057127398
000040 1f dd 3b bd fd c6 c3 bc 23 f2 96 bd 98 0f b8 ba
       -0.045865174 -0.023898596 -0.07370403 -0.0014042733
000050 f7 c6 9d bd 10 0e 9b 3d fb 3e e9 3c 27 31 45 3d
       -0.07703965 0.075710416 0.028472414 0.04814258
000060 f8 30 d3 3d a7 35 09 3e b2 77 af bb b6 b0 56 3d
       0.103120744 0.13399373 -0.005354845 0.05241462
000070 be a2 a6 bd 6f 82 26 3d 12 65 af 3d 24 87 14 bd
       -0.08136509 0.040651735 0.085641995 -0.036261693
000080 d5 40 73 3d 65 33 08 bd 48 4b 38 bd 93 9f 24 3c
       0.059388 -0.03325214 -0.04499367 0.010047811
000090 a9 2d b4 bd 51 93 7c 3c f9 9d 3c bc 41 6f 0a be
       -0.087977715 0.015415982 -0.011512273 -0.13519002
0000a0 c0 5c 14 be 4b 49 25 3d 24 b2 23 bd 24 02 d2 bd
       -0.14488506 0.0403531 -0.03996481 -0.102543145
0000b0 18 54 49 bc f8 75 43 bd 09 33 c4 bd ca fd 0a be
       -0.012288116 -0.047719926 -0.09580047 -0.13573375
0000c0 fd 14 87 bc 02 6e 96 3d 39 d5 f2 bc ff f4 43 bd
       -0.0164895 0.07345201 -0.029642688 -0.04784107
0000d0 d2 51 ba bd a1 74 13 bd d2 f4 6a bd a4 ea e7 ba
       -0.09097637 -0.035999898 -0.057362385 -0.001769383
0000e0 59 0e b6 bd 02 23 80 3d 96 4c 6a bd a0 7f 1f bd
       -0.08889455 0.06256677 -0.057201944 -0.038940072
0000f0 f6 ff 83 bd 85 ec 13 bd 01 ca b2 3c 94 ef cb 3d
       -0.06445305 -0.036114234 0.021824839 0.09957805
000100 a7 90 b6 bd fe 3c b1 3d a3 1c 13 bc 5f e1 4d bd
       -0.08914309 0.086542115 -0.0089789955 -0.05026376
000110 c3 53 f7 bc 5f a1 31 3e 7a 6a f5 3d 30 b4 c7 3d
       -0.030191308 0.17346714 0.119831994 0.09751165
000120 6c 6a c6 3c ba aa 34 3d ed 39 ae bd a1 76 50 bd
       0.024220668 0.04410813 -0.08507142 -0.050894383
000130 b3 2d a1 bd 5e 03 ee 3d 36 0e 97 3c 20 a8 a2 3c
       -0.078700446 0.11621736 0.018439393 0.019855559
000140 0f e9 f6 3d 02 bb 23 3d 00 0b b0 3d c8 3f 37 3d
       0.12056171 0.039973266 0.08595848 0.04473856
000150 d4 49 e0 3d 8c 99 04 3e 0e f8 57 3d 6f be ab bd
       0.109515816 0.12949198 0.052726798 -0.08385932
000160 2e ae d6 3c ee 73 60 3d 40 d2 c7 3d f5 44 87 bd
       0.026206102 0.05479806 0.09756899 -0.066049494
000170 5b 1a 8a 3d 31 2e f4 bc 83 4c 8d 3d 22 2c 47 be
       0.06743308 -0.029807182 0.06899359 -0.19450429
000180 50 99 be 3d 53 6c 85 bd dc f9 7d bc 39 cb 04 3e
       0.09306586 -0.06514802 -0.015501466 0.12968148
000190 b0 93 19 3e 74 d3 ca bd b5 75 97 bb f4 6b 5f 3d
       0.14997745 -0.09903613 -0.004622186 0.05454631
0001a0 bb ea 8c bd 10 bf 68 bd 5e 2a 5b 3c 9e 8a bc bd
       -0.06880709 -0.056822836 0.0133768 -0.09206127
0001b0 7d 27 d0 3c 0f fc c1 bd 08 9c 60 3b 81 c5 3e 3c
       0.025409454 -0.094719045 0.003427269 0.011643768
0001c0 6b b3 10 3d a8 c3 c3 3d 64 cd ec bd f3 e4 41 3c
       0.035327356 0.09558803 -0.11562613 0.011834371
0001d0 2a b3 10 bd 9d 73 98 bd 7b 27 03 be f5 b8 20 be
       -0.035327114 -0.074439265 -0.1280803 -0.15695556
0001e0 fb de d8 bb c4 d7 cc ba 42 fc 07 3e 2d 1b 0e bc
       -0.006618378 -0.0015628268 0.13279822 -0.008673471
0001f0 06 02 8f 3d a9 4e 1a bd aa 0c 00 bd 41 f8 a4 3d
       0.06982808 -0.037672672 -0.031262077 0.08055163
000200 5f 98 8e 3d 1a 30 d7 bd b0 d2 f5 bd 0b b6 c0 bd
       0.06962656 -0.105072215 -0.12003076 -0.09409722
000210 d0 05 cc bd 19 3a a6 bc 2e 85 17 3d e2 bd 93 bc
       -0.09962046 -0.020291375 0.036992244 -0.01803488
000220 f4 0f ab 3b d8 00 a9 bd 0a e2 b7 bc 2f d4 0e 3c
       0.0052204076 -0.08252114 -0.022446651 0.008717581
000230 27 31 89 bc bd f2 e3 3c 44 8c 0c 3e 00 51 7e bd
       -0.01674707 0.027825708 0.13725382 -0.062088966
000240 8a 2e cc bd 2a 03 6c 3d 1d 78 c3 3c b1 92 fe bc
       -0.09969814 0.057620205 0.023860985 -0.031075807
000250 3d ad 3b 3d f2 94 67 3d 9c db 02 be d4 73 00 3e
       0.04581951 0.05653853 -0.12779087 0.12544185
000260 24 c0 ef 3c b6 d2 0b 3d ca a0 02 be 60 47 c1 3d
       0.029266424 0.034136496 -0.12756649 0.09437442
000270 4a 90 d3 bd 48 74 de bd 50 54 32 bd 63 d9 73 bc
       -0.10330255 -0.10862023 -0.043537438 -0.014883372
000280 49 bd a7 bd 20 c3 bb bd 5b 4b 0a 3e c4 f8 d3 bd
       -0.081904 -0.091680765 0.13505308 -0.10350183
000290 04 5b 34 be 6b e2 a9 3d 9d fb 71 bc 75 c7 a1 3d
       -0.17612845 0.08295139 -0.014769462 0.078993715
0002a0 39 1d b5 bd 2b 33 db 3d 1a ec 58 bd 1e 42 ae 3d
       -0.088434644 0.10703119 -0.05295954 0.085087046
0002b0 40 12 f4 ba cd b4 ea bd 99 be 49 3d e9 19 81 3c
       -0.0018621162 -0.11460266 0.049254034 0.015759425
0002c0 76 b2 5e bd 84 cf 32 be 08 f9 a2 3d 3c ec 0d bd
       -0.054369412 -0.17461973 0.07957655 -0.03464912
0002d0 06 c3 28 3c ff 72 bc bd 57 c0 69 3d ec e5 df 3b
       0.010300403 -0.09201621 0.057068195 0.0068328287
0002e0 72 03 14 bd 33 91 8a 3d 24 d0 96 bd 4b c4 c9 3d
       -0.0361361 0.06765976 -0.073639184 0.09851893
0002f0 1e 07 eb bd 99 53 d9 3d 53 96 9b bb 45 73 2b 3d
       -0.11475967 0.10611648 -0.0047481447 0.041857976
000300 2f 4d a6 bd 86 15 97 3d fd 53 87 bd 4a 43 82 3d
       -0.0812019 0.07377152 -0.06607816 0.063604906
000310 40 f9 18 3d ab f4 99 bd dd c7 1e bd 45 82 06 be
       0.03734708 -0.0751737 -0.038764823 -0.13135631
000320 e4 07 9a bd 77 31 26 bb 7e ed b8 3a 30 de ba bd
       -0.07521036 -0.0025359073 0.0014108864 -0.0912441
000330 d3 b0 78 bd 54 6e 11 be 58 5e d7 3d 46 1f 9f 3d
       -0.060715508 -0.14202243 0.105160415 0.07769637
000340 7e 06 16 be 45 66 76 bd e7 3b 03 be 97 e7 6e bd
       -0.14650914 -0.060156126 -0.1281582 -0.05832633
000350 08 ca 19 3e 94 f4 bc bd 23 34 12 be 72 94 a6 bd
       0.15018475 -0.09226337 -0.14277701 -0.081337824
000360 6f fc 71 bd 25 c3 c3 3c a5 5a ca bd 71 c6 b1 bd
       -0.05907863 0.023896763 -0.0988057 -0.08680428
000370 c9 7c 57 3d d5 9c ce 3d 71 ce bd 3d e8 7a 3e 3e
       0.05260924 0.10088507 0.09267891 0.18601573
000380 f4 06 97 bd 8e c6 68 bd aa 7a bc 3d f5 5f bb bd
       -0.07374373 -0.05682998 0.09203084 -0.09149162
000390 98 8d 27 3d f9 5f 89 bd e7 ce 15 be 02 99 30 3e
       0.04090652 -0.067077585 -0.14629708 0.17245868
0003a0 0d 15 29 3e 31 0e ef bc f9 ae fc ba 96 59 0f 3e
       0.16511936 -0.029181572 -0.001927822 0.13999018
0003b0 3f 3c b0 3d 56 04 bb 3d 65 da 18 bc 8c 9b 0f 3e
       0.08605241 0.091316864 -0.009329413 0.1402418
0003c0 2b b0 38 bd 78 89 f2 bd 47 c2 61 bc 9b 52 39 be
       -0.045089882 -0.11842626 -0.0137792295 -0.18097918
0003d0 f0 43 12 3e 4e 58 34 bd 70 e6 b5 3c ee 55 07 bd
       0.14283729 -0.044029526 0.022204608 -0.033040933
0003e0 a8 59 5b bd e7 f8 17 3d f2 a6 1a 3e 43 c0 68 3d
       -0.0535523 0.037102606 0.15102747 0.05682398
0003f0 f8 e8 0c 3d fc bb c3 3d d3 ee ed 3c 83 38 0f 3e
       0.034401864 0.095573395 0.029044544 0.13986401

fc1.bias f4 [32]
000000 bb 59 31 3e 6f 20 11 3e 2a 10 69 bd 70 8e 9e bd
       0.17319386 0.14172529 -0.05690018 -0.077420115
000010 65 9d 79 bd c3 c1 cf 3d 5b 9d cf 3c 64 c1 a4 bc
       -0.06094112 0.10144379 0.025343588 -0.020111747
000020 e7 56 d9 3d f2 45 97 bc ad 5e da bd 88 a6 81 ba
       0.106122784 -0.01846597 -0.10662589 -0.0009891549
000030 74 69 de 3d 3d 63 04 3d 4f db c7 bd d3 e0 40 bd
       0.10859957 0.032321204 -0.09758627 -0.04708941
000040 50 d6 f1 3a 9c 91 cf 3d ef 01 a3 bd 1c cf 95 be
       0.0018450711 0.10135195 -0.07959353 -0.29259574
000050 c1 58 d0 3d b1 fe 97 be da 25 c9 3d 5a c0 bd 3d
       0.101731785 -0.29686502 0.09821673 0.09265204
000060 d9 99 d6 bc 56 59 89 3e a6 20 29 3d 27 20 3e 3d
       -0.026196407 0.2682597 0.0412909 0.04641738
000070 04 e0 f0 3d a4 16 18 be 67 88 34 3e 75 61 55 3d
       0.117614776 -0.14852387 0.17630158 0.052094895

fc2.weight f4 [2, 32]
000000 5f 76 1f 3d 8c 8b 1b 3e e3 61 c1 bd 43 47 c6 3d
       0.038931247 0.15189952 -0.094424985 0.09681561
000010 0d 14 52 3d 6f b6 a3 bd 9f 8a e4 bd da 6c 75 3d
       0.051288653 -0.07993781 -0.111592524 0.059918262
000020 1a 63 59 3d 57 ab 36 be 3a 4d 47 be f6 00 f6 bc
       0.053073026 -0.17838798 -0.19463053 -0.030029755
000030 8a 61 37 3d ac 04 df bd ab 10 3c be 3c 46 18 be
       0.044770755 -0.10889563 -0.18365733 -0.14870542
000040 41 a9 99 3b 35 f7 90 bd 78 11 b0 bd 41 05 9e bd
       0.004689366 -0.07078401 -0.08597082 -0.07715846
000050 dd c9 1b be 75 9a 0c be cf 99 8a 3d 9a 54 27 3e
       -0.15213723 -0.13730796 0.06767618 0.16340867
000060 86 c5 11 be d2 de d2 3d 8a fe 19 3c cf 1c 86 3d
       -0.14235505 0.10296406 0.009399066 0.065484636
000070 9d 05 d3 3d 01 ce 36 3e 86 ef ef 3d cf 8f f4 3c
       0.10303805 0.17852022 0.11715607 0.02985373
000080 0d 08 ef 3d fe 0e c7 bd f9 d5 ac 3d b1 b3 0e 3e
       0.116714574 -0.097196564 0.084392495 0.13935734
000090 2c d6 11 be 8e 2f 7d 3c f5 1f 00 bd 7f ff 23 3e
       -0.14241856 0.015453232 -0.031280477 0.16015433
0000a0 bd ba 00 be 45 4b be bd c5 ca 7c be 44 52 10 be
       -0.12571235 -0.092917 -0.24686725 -0.14093882
0000b0 ca f1 63 3e 5c ae 13 be d0 0a 49 3d 62 5f 71 bd
       0.22260204 -0.14421982 0.049082577 -0.058928855
0000c0 48 e3 a0 3d 8f db fb 3d d5 f3 24 be 2d a0 0a be
       0.078558505 0.12297737 -0.1610864 -0.13537665
0000d0 82 7b 49 3d 99 13 96 3c ca db 60 3d 51 74 8b 3d
       0.04919005 0.018319892 0.054897107 0.06809295
0000e0 63 a2 b6 3c 24 50 52 3d 23 4b 95 bd 14 1e 70 bd
       0.022294229 0.05134596 -0.07289722 -0.058622435
0000f0 c6 56 56 3d 7e 19 1f 3e 63 91 0f 3e 34 55 3b bd
       0.052328847 0.15537068 0.14020304 -0.045735553

fc2.bias f4 [2]
000000 3e 3b 76 bc d2 a7 b8 3d
       -0.015028773 0.09016384
