latest.pth (torch, 350092 bytes, 10 tensors)

conv1.weight f4 [32, 4, 8, 8]
00000000: 22ff 1ebc 535f 1cbd 5041 bfbd 0819 86bc
00000010: cceb 9cbd c269 ff3b 7b2c 92bd f741 ebbc
00000020: f285 13bd 4f0b 61bd 5c5d 00bd 72a4 9abb
00000030: d4be 3c3b 067c bd3c 4634 15bd b5ef 333d
00000040: f3db d0bc bdf0 65bb 0a22 8cbc 27fc 54bd
00000050: 619c 7cba 1c71 2a3c f13f 75bd 9e06 12bc
00000060: 1c8a 71bd 0327 f73c 8a2e 48bd 2f7d 563d
00000070: 0c40 adbd 2d94 943c 447b 273d 80df c53c
00000080: c1c7 863c 6e6e 81bd aaba afbb 938a d93c
00000090: 7985 7f3c 2f37 b9bc 6909 75bd 7c6b a0bd
000000a0: 0432 c03c c953 093d b9c9 a4bc d40f ab3c
000000b0: 9d34 50bc 5068 52bd 18dd 023d 3b78 85bd
000000c0: dfdc fcbc ac77 f03c f366 6ebd 4777 e1bd
000000d0: 959a 6c3d 6d74 01bd c2f1 793d 826f a93c
000000e0: 17c3 8abc 4c3f 0dbd c44d ebbc 6db1 99bd
000000f0: f853 96bc b7ac 353d 8374 c0bc 99ea 6cbc
00000100: 13f1 543c 5986 1fbd ac88 9a3b 164b 853d
00000110: ab80 193d 4017 4b3d b2a4 453d ea3b 313d
00000120: e1f8 743d 8b89 35bd ff4c 97bd e6b6 2a3d
00000130: bed8 f53b c3c2 acbb 523e 1f3d 3ded c93c
00000140: 3716 693c 419b 3d3d 240a d1bc a047 43bd
00000150: 7c2d 993d 85fa c33d 4033 083d 8796 f6bc
00000160: 2cba 82bd 12ec 173c 7422 dcbc 037a 043c
00000170: 38c7 573c 4db7 8b3b 646b 533d c268 a5bd
00000180: 811b 5cbc 647b 82bd 90ee 2abd ac87 7a3d
00000190: 2e21 503c 1174 7d3d 855c d53d 8fca c43c
000001a0: dc5b 95bc 2013 63bc 0973 9bbd eef2 19bc
000001b0: 7cc9 5c3d c24e 9b3d 29d3 4a3d 1d10 4d3c
000001c0: 0eca 8fbd 7039 0bbd 3a64 cdbc 1ff4 fdbb
000001d0: e329 343d 5282 8e3d 8ad8 8d3d 268e 083d
000001e0: aaa0 77bd 0e55 733d aeee ffbc 8014 12bd
000001f0: a93c 7e3b 8787 dcbc 2d6b a23d e630 20bc
00000200: 9092 2abd 8b39 403c d706 5ebc e6a3 c03c
00000210: 7a6d 9b3d 3c2d 733d f35d 43bc 67f1 a5bd
00000220: 360c 923c 7790 5f3c be7b d7bb 9bff 2c3c
00000230: 195e de3b e74d 903c 74a0 a93b a13f c1ba
00000240: ae2c 9b3c 212b c83c c1c5 933d 3a53 d8bc
00000250: f44c 84bc 2069 643c 913a 38bc 3336 f9bc
00000260: f42d 033d 4f32 5abb daab 3e3d 9852 8d3c
00000270: 446a e9bc dfd5 073c 3c97 533d d88d c6ba
00000280: 6c7a babc 19ca 78bd 9642 1d3d fd74 68b8
00000290: 3c70 6cb9 d325 483c 0da7 cfbc 6824 2cbd
000002a0: 2080 4f3d 3e48 cbbc 7cf2 41bd 8096 5d3d
000002b0: 2356 f23a b755 743d 20ed a8b7 8053 b0bc
000002c0: be2e 293d 31c4 213b aa0f dd3c b73e 6039
000002d0: debe ff3c e39b 953d ce73 bfbd c0c2 853d
000002e0: c9ac 9b3c 17c7 133d 3e4d 303d 3f8b 21bc
000002f0: 2a20 f43c 0a00 313d d1b3 55bd 2ebd 2abc
00000300: 64c5 a3bd 076a 233d 2be6 dd3b 9fd8 70bb
00000310: 7542 253d 3ce5 ecbb b317 01bc 9149 af3b
00000320: f11f c63c c5e9 083d fed6 7f3c 18ff b7bc
00000330: 62c7 a43c 9a8c cdbc 755b 74bb 2efb ea3c
00000340: 34ab 92bd 682c 173d f6ac 643b 10a1 e0bc
00000350: 53f6 643c 3226 31bd e084 61bd f5f3 103c
00000360: 9570 6a3c 70c9 36bc f7f6 83bc 6ca8 48bb
00000370: b057 973b 9190 063d 06fd 803b 6c73 a43b
00000380: e39c 47bd 78f3 20bd 6c32 863d 0c41 f03c
00000390: 2523 0fbd 15d9 8a3c 49eb e3ba e63d 71bd
000003a0: 5eab ac3c e275 ebbc 208c 663c 6d52 dd3c
000003b0: f9b7 2ebd a7ff 8c3c 3dec 03bc 1318 4b3b
000003c0: 9b81 883d 16e1 553a 5dfb 1f3c e0ce cb3c
000003d0: 4dbb 08bc 16e3 483d 2663 11bd 79de 9c3c
000003e0: 066e ecbc 804e d5bc fde9 60bd f740 a5bc
000003f0: b5c6 2bbd e904 1dbd 88e7 af3c 61f6 213d
-0.009704383 -0.038176846 -0.09338629 -0.016369358 -0.07662162 0.0077945897 -0.0713739 -0.028717978
-0.036016412 -0.054942425 -0.031339034 -0.0047193104 0.0028800266 0.023130428 -0.036426805 0.043929774
-0.025495505 -0.0035086118 -0.017106075 -0.051998284 -0.00096363394 0.010402944 -0.059875432 -0.0089127105
-0.058969602 0.03016997 -0.048872508 0.052365478 -0.084594816 0.018137062 0.04088904 0.024154425
0.016452672 -0.06319891 -0.0053628283 0.026555335 0.015595787 -0.022609321 -0.059823427 -0.07833001
0.02346135 0.03352717 -0.02011572 0.02088157 -0.0127078565 -0.05136901 0.031949133 -0.06517073
-0.030867038 0.029353939 -0.05820365 -0.110090785 0.05776461 -0.031605173 0.061021574 0.020683054
-0.01693873 -0.034484193 -0.028723605 -0.075045444 -0.018350586 0.044354167 -0.023493057 -0.014460229
0.01299693 -0.038946483 0.0047159996 0.06508462 0.037476223 0.04958272 0.04825277 0.04327003
0.059807662 -0.044320624 -0.07387733 0.04167833 0.0075026443 -0.005272241 0.038877793 0.024649257
0.014226488 0.04629064 -0.02551753 -0.04767573 0.074793786 0.09569267 0.033252 -0.030101074
-0.06383166 0.009272592 -0.026871897 0.0080857305 0.013170056 0.0042637945 0.051616088 -0.080766216
-0.013434292 -0.06371191 -0.041731417 0.061164543 0.012703223 0.061878268 0.10418037 0.024022369
-0.018232279 -0.01385954 -0.075903006 -0.009396298 0.053903088 0.07583381 0.049517784 0.012516049
-0.07020961 -0.033990324 -0.025072206 -0.007750049 0.04398526 0.069584504 0.06926067 0.03333869
-0.060455956 0.059407286 -0.031241741 -0.03566408 0.003879348 -0.026920093 0.079305984 -0.009777283
-0.04164368 0.011732469 -0.013551435 0.023515653 0.0758924 0.05936931 -0.011924255 -0.081026845
0.017828088 0.013645283 -0.0065760305 0.010558988 0.0067861197 0.017615272 0.005176598 -0.0014743694
0.018942203 0.024434628 0.07215453 -0.026406873 -0.016149975 0.013941079 -0.011244432 -0.030421352
0.032026246 -0.0033294146 0.04655061 0.017251298 -0.028493054 0.008290737 0.0516579 -0.0015148474
-0.022763453 -0.06073961 0.03839358 -5.5422064e-05 -0.00022548524 0.012216049 -0.02534821 -0.042026907
0.0506593 -0.024814721 -0.04735039 0.054098606 0.0018488806 0.059652057 -2.013758e-05 -0.02152419
0.041304342 0.002468359 0.026985008 0.00021385668 0.031218942 0.07305124 -0.0934826 0.06531286
0.019003289 0.03607854 0.043042414 -0.009859859 0.029800493 0.043212928 -0.05217344 -0.0104210805
-0.07996634 0.039896037 0.006771823 -0.003675021 0.04034658 -0.0072294753 -0.0078791855 0.005349346
0.024185153 0.033426065 0.015615223 -0.022460505 0.020114604 -0.025091458 -0.0037285958 0.028684225
-0.07161561 0.036907583 0.0034893132 -0.02742055 0.013974744 -0.043249317 -0.05505836 0.008847226
0.014309068 -0.011156425 -0.016108973 -0.0030617965 0.0046186075 0.032852713 0.0039364127 0.005018642
-0.048733603 -0.03929469 0.06552586 0.029327892 -0.034945626 0.016949216 -0.0017388846 -0.05889692
0.021077808 -0.028742734 0.014071494 0.027016843 -0.04265592 0.017211748 -0.008051929 0.003098969
0.06665345 0.00081588456 0.0097645195 0.02487892 -0.008345437 0.04904469 -0.035494946 0.019149052
-0.028861057 -0.026038408 -0.05491065 -0.02017258 -0.04193755 -0.03833476 0.021472707 0.039541606

conv1.bias f4 [32]
00000000: aa40 6abc 13a7 7abc 09c2 9ebd 7153 fd3b
00000010: 63f6 32bc 38ca 3f3d b562 1dbc 3ded b0bc
00000020: ea82 40bd 9165 9bbb fd7a 4fbd dfb4 793c
00000030: b362 0cbd 4841 01be c2d3 3cbc 18dc fcbb
00000040: 566e 48bd edd7 0b3c a152 adbb 005c 99bc
00000050: 77ca aabc 7ea2 f6bc 99b3 1cbb 40e7 8dbc
00000060: dd66 85bd 5a65 49bd 6ac4 98bc b9c8 c2bb
00000070: 53f5 f9bc da34 c5bb 635e 13bd 2a36 2ebc
-0.014297644 -0.015298623 -0.07751853 0.0077308943 -0.010923001 0.04682371 -0.009606053 -0.021597499
-0.04699985 -0.0047423323 -0.0506544 0.015240877 -0.034273814 -0.12622559 -0.011525096 -0.007716667
-0.04893335 0.008535367 -0.005289391 -0.018720627 -0.020848496 -0.03010678 -0.002391076 -0.017322183
-0.0651376 -0.049168922 -0.018648345 -0.005944338 -0.030512488 -0.0060182633 -0.035978686 -0.010633031

conv2.weight f4 [64, 32, 4, 4]
00000000: 53cb 533d 67be 14bd 943f 5b3c 32db 043d
00000010: baa6 3b3b 6b4f c7bc 5632 93bc 2a97 0e3c
00000020: a552 633d 3ddc 85bd 14d6 febb 2f58 8b3c
00000030: 09b1 90bc 73ac a5bd c7d0 b33c 8bde 05bd
00000040: 091c 36bd 5a2e 753d 9ac3 d7bb 1009 f9bb
00000050: f89f cb3c 3f6d 043d 2b68 2e3c ad62 8abd
00000060: 62ef d93c 9e44 ea3c b300 6cbb 12b6 54b9
00000070: f2b1 bf3b 0463 b6bc f67a 303c 09f7 093d
00000080: 013c 313d 76b9 b4bc 6fed f3bc ad91 403d
00000090: f04f 26bc 20a8 b33c 2e94 593c 9ece cebc
000000a0: 190e b6bd e7e3 553b ecb6 5bbb 73a5 e1bc
000000b0: fbe5 a83b 9bb8 90bb a359 263c 12c1 2dbd
000000c0: 2f72 25bd 727e 833c 5592 d73b 5dfa 6d3c
000000d0: cd5d 6cbc b9ca 3a3d d61c f13c cd00 b0bb
000000e0: 8179 d3bb 10f2 5f3d d10d e53c 105e dc3b
000000f0: 8684 a6bb 3f44 68bc c44c 1bbc 44c0 803d
00000100: 88f4 8ebc 2618 f3bc 801f db3c ba1a 97bc
00000110: b687 643c 6515 8fbd c754 31bc 3b3c 2a3d
00000120: af0b 923b 10bd 033d f991 49bc 6ec2 e13c
00000130: 9e30 29bb 799e 8e3c 4874 c23c c46d b03c
00000140: 1428 59bd 57ec 303d 1376 833c f0b4 8f3b
00000150: 82ef e03c d276 163c 2db0 1cbd 9286 50bc
00000160: d7d2 e5ba 4f49 45bc 6e57 f43c 0d16 c1bc
00000170: a254 80bd 9fcc 95bc 8fbf c33c 9b0a 1ebd
00000180: 9d64 b33c dcd6 ec3b 4b1f c7b9 2cfa 103d
00000190: 01d0 f23c 1085 2a3c 3152 413d 19ff 1ebd
000001a0: 85d7 6ebb 84a4 0ebd ad27 0e3d 7ed2 813c
000001b0: 9a77 293c 5d43 753b 5458 35bc 659d c43b
000001c0: 7ec8 73bb bc79 c53c 3587 073d 2f18 243d
000001d0: ad51 363a 9af5 fa3c 8234 aaba 7079 cb3a
000001e0: 5228 66bd fe22 3cbd 0c88 913d 8df1 c13c
000001f0: 547a 8c3c 6dd2 3abd 59f2 403d bb51 28bc
00000200: ab34 2ebd 902a 25bc 8f45 ce3c fb57 45bd
00000210: 95f5 433d fdea 453d 84a4 613c ab4d fbbc
00000220: 972a 0e3d 2eba 15bd 9509 2a3b 20eb 173b
00000230: 1085 d53c 3fb7 b33c a19e 3dbd c0ed 15bd
00000240: e7ec 62bd 41cf fd3b 318f 153c 295d cdbc
00000250: c7a5 10bd 1726 253d 7e09 093c a8cf 32bd
00000260: 754a 13bd a761 493b c70d 433d c640 963c
00000270: cb6a d7bc 2eee d03c affd 8f3c 24f7 413d
00000280: 3ffc 8abc 8651 023d bf12 15bc 0449 913c
00000290: 996c 6c3d db42 1e3d 337f 383d c65b 2abd
000002a0: 84ee 80bd 5260 0cbd 27e1 87bd 07a7 b23b
000002b0: 29b3 0e3b 4800 803c c007 083d 53b4 0b3c
000002c0: 09fa 5cbd c419 b2bc 7767 50bd 609d 0f3c
000002d0: a5f7 b03c 4e48 30bd bafc 98bd e6cd d23c
000002e0: 74bb b7bc bff9 3dbd 94db f6bc 0a43 de3b
000002f0: 9ce9 873a d74d b6bc 1f8f 39bd 054b de3b
00000300: b121 98bc 18e2 fe3c 0907 8ebc cd6d f33c
00000310: 968d 5b3c 88ee adbc ec0d bb3c 349f 063d
00000320: 0b67 e93b c6f7 81bc f59d 353b b52c b53c
00000330: 3360 8cbd a7b2 ac3c 7b9a 8b3d 37ca 043d
00000340: ff65 fb3c 3099 733c b4f6 803c 55ca fc3a
00000350: bae4 963d 8a5a 9abc 439f c3bc 78a6 07bd
00000360: a8ff 823c 5d35 00bd afd3 1ebc e96f 82bc
00000370: eebc f13c 325a c43b 13e1 82bd e19c 003c
00000380: 2562 823b 9f64 ad3c 19d4 afbc 7b4f b23b
00000390: 92ce 9d3d a957 b1bd d3bf d7bc 9d85 d6bc
000003a0: 76ae 243c 9beb 10bd 3af4 6dbc 323d 043d
000003b0: 7a64 65bd 944e 6abd f979 97bd 16e5 5f3b
000003c0: 62a6 1b3d cc8c 693d 6222 013d b058 eb3c
000003d0: 3e48 6ebd f2e1 1bbc 34d8 1e3d 3dc4 ccbc
000003e0: 524d 443d c208 e23c b69c 473b e1b9 903c
000003f0: 66b8 58bc d89e fbbc 1e8d 8a3c 8b54 343c
0.051707577 -0.036314394 0.013381857 0.032435603 0.0028633312 -0.024329862 -0.017968338 0.0087030325
0.055498738 -0.06536148 -0.007776985 0.017009823 -0.017662542 -0.08089533 0.021950139 -0.032682937
-0.04446033 0.059858657 -0.006584597 -0.0075999573 0.024856552 0.032330748 0.010644953 -0.06757102
0.026603404 0.028597172 -0.003601116 -0.00020285722 0.00585007 -0.022264011 0.010771504 0.033682857
0.043270115 -0.02206109 -0.029776303 0.047013927 -0.0101508945 0.021930754 0.013279958 -0.025245007
-0.08889408 0.003263706 -0.0033525778 -0.027544713 0.005154369 -0.004416538 0.010153207 -0.042420454
-0.040392097 0.016051505 0.0065787234 0.014525023 -0.014426661 0.045603488 0.029432695 -0.005371189
-0.0064536934 0.05467421 0.02796069 0.0067250803 -0.005081716 -0.014176427 -0.009478752 0.06286672
-0.017450586 -0.0296746 0.026748419 -0.018445361 0.013948372 -0.069865026 -0.010823435 0.041561347
0.004456959 0.032162726 -0.012302869 0.027558532 -0.0025816332 0.01740955 0.023737088 0.021536715
-0.053016737 0.04319414 0.016047513 0.004385583 0.027457956 0.009183602 -0.03825395 -0.012727397
-0.0017534149 -0.012041404 0.029826846 -0.023570085 -0.062661424 -0.018286048 0.023895053 -0.038584333
0.021898562 0.0072277617 -0.00037979553 0.035394832 0.0296402 0.010407701 0.047197524 -0.0388175
-0.0036444378 -0.034824863 0.034705807 0.01584744 0.010343457 0.0037424185 -0.011068422 0.006000208
-0.003719836 0.024105899 0.033087928 0.040062126 0.00069549197 0.03063469 -0.0012985619 0.0015523862
-0.056190796 -0.04593181 0.07106027 0.02367475 0.017148174 -0.045610834 0.04710612 -0.010273392
-0.042530697 -0.0100809485 0.025179652 -0.048179608 0.047841627 0.048319805 0.013772134 -0.030676683
0.034708586 -0.036554508 0.0025945653 0.0023180917 0.026064426 0.021937964 -0.04629386 -0.03660369
-0.05540171 0.007745654 0.009128378 -0.025068836 -0.035314348 0.04031953 0.0083640795 -0.043655068
-0.03595968 0.0030728371 0.04762056 0.018341433 -0.02629604 0.025504198 0.01757702 0.047354832
-0.016965983 0.031816028 -0.009098708 0.017735012 0.057720754 0.038637977 0.04504318 -0.04159143
-0.06295493 -0.034271546 -0.06634741 0.00545204 0.0021774268 0.015625134 0.033210516 0.008526879
-0.05394939 -0.021740802 -0.05087992 0.0087655485 0.021602461 -0.043037705 -0.07470079 0.025732946
-0.022428252 -0.046380755 -0.030134 0.006782894 0.0010369304 -0.022253914 -0.045302507 0.0067838454
-0.018570753 0.03111367 -0.017337339 0.029715443 0.013400456 -0.021231905 0.022833787 0.03286667
0.0071228794 -0.015865218 0.0027712558 0.022116045 -0.06854286 0.021081282 0.06816574 0.03241941
0.030688284 0.014868066 0.015742637 0.0019286374 0.07367845 -0.018842 -0.023879653 -0.03311774
0.015991047 -0.03130089 -0.009694024 -0.015922504 0.029509034 0.0059921974 -0.06390586 0.007849903
0.003978985 0.021166144 -0.02146344 0.0054416037 0.07705416 -0.08659298 -0.026336586 -0.026186759
0.01005136 -0.03538094 -0.01452356 0.032284923 -0.056004025 -0.057203844 -0.07396311 0.0034163645
0.038000472 0.05701904 0.03152693 0.028728813 -0.058174364 -0.009514319 0.038780406 -0.024995917
0.0479253 0.027592067 0.0030458397 0.017666759 -0.013227558 -0.030715391 0.016912993 0.011006485

conv2.bias f4 [64]
00000000: 1490 9eb9 4731 51bd f5d5 5cbd 66f4 72bd
00000010: d342 e8bc 588f 1ebb dd51 95bd b77e 203c
00000020: 05e7 b7bc 0926 e2bc 3c35 1a3d 065c 0fbb
00000030: 704f 77bd 9de9 8c3c ebe7 00bd 3ca8 333d
00000040: edec a8bd 75cc 69bd b7c7 5cbb 3c22 d1bd
00000050: 0356 92bd ec67 65bd 0c81 75bd d026 4fb9
00000060: ebb0 6cbd 3662 83bb d52f 59bb 0e08 803c
00000070: 098c 8ebc f81a f2bc 3799 61bd a01e 883c
00000080: c29e 9dbc c785 bd3c 9958 bb3c e8ad 75ba
00000090: c955 0b3d c0be 27bd d8fc 7c3c 5b02 f43c
000000a0: b6f2 66bd 65c8 013d 0e9b 543c 1002 f43a
000000b0: b47c cf3c 26ee 6fbd 4c4d 45bb fbff abbc
000000c0: 8902 debc 4d29 52bc bb59 0cbd 5269 78bc
000000d0: 6899 283d 3acf c43c fece 31bc 0fbf 133d
000000e0: 5632 323d c8c7 453c 18a9 31bb 7ddc ec3c
000000f0: f091 023d 6ff7 93bc 623e 01bc b1a1 1b3d
-0.00030243455 -0.051072385 -0.053914983 -0.059315108 -0.028352177 -0.0024194326 -0.07291005 0.009795836
-0.022449026 -0.027606027 0.037648425 -0.0021874919 -0.060378492 0.01720124 -0.031471174 0.043861613
-0.08248315 -0.05707975 -0.0033688375 -0.10211608 -0.07145312 -0.05600731 -0.05993752 -0.00019755517
-0.05778591 -0.0040095104 -0.0033140082 0.01562884 -0.017400758 -0.029553875 -0.055077758 0.016616166
-0.01924074 0.02313508 0.022869395 -0.00093719224 0.034017358 -0.040953398 0.015441142 0.02978628
-0.05638381 0.03168525 0.012976421 0.0018616337 0.025328018 -0.058576725 -0.0030105887 -0.020996084
-0.027100818 -0.01282723 -0.03426526 -0.015161829 0.041161925 0.024024595 -0.010852573 0.03607088
0.043505035 0.012071557 -0.0027108844 0.02891373 0.031877458 -0.018062321 -0.007888408 0.037995998

conv3.weight f4 [64, 64, 3, 3]
00000000: 1618 313c b042 89bd a3b4 06bc 4bb2 303c
00000010: 1d0b f6bb 3c2a 39bd 528e 48bd 854a 40bd
00000020: 822f cfbb 6004 ad3c c955 073c 92d0 383d
00000030: 3ae0 30bd 2238 b0bc 4895 febc 3775 dbbc
00000040: e2f7 9b3c 0615 98bc 8bb5 31bb 7baf dcbb
00000050: 028a 033d 6981 c23c d675 783c e439 52bd
00000060: 1f2f 883c 58fe 41bd fdb7 5bbc 8690 cd3b
00000070: d507 b33c 4e9e 113d 7c75 65bd 54c9 0cbc
00000080: 0064 0f3a a570 4bbd cf55 bb3b c848 513b
00000090: a96b a0bc 6f8b 023d b54c d5bc 75a4 b23b
000000a0: 8dd8 b83a 62eb ae3c 54bb 1cbd 57bf 123c
000000b0: caa5 1fbd 3945 adbc e97f 03bc dbc2 013d
000000c0: daf7 513b 752d efbb 0920 b33b a705 7bbc
000000d0: 4af8 0b3c 3d45 4cbd 8967 4e3c 4542 50bd
000000e0: 9adb b9bc c81e a9bc 2dc5 91bd 587b 19bd
000000f0: 43e3 06bd 458f 96bc 0798 c7ba 67fe 21bd
00000100: 7107 24bc d01c 9a3c 538c 023c 9b67 82bb
00000110: 0ed2 7bb9 5636 06bd a188 6c3a 1822 20bd
00000120: 24bd 2bbd c46e 21bd d58b 94bc 70db 523d
00000130: d979 7abd 56e4 b6bc 12bc 3fbd 7bae 2ebc
00000140: 9adc 413b 9091 153d 5c50 82bd bdcf 2d3c
00000150: 97fc c9bc 9582 06bd e78a e43b 375c 28bd
00000160: e338 59bd c09f a4bc 1c5d 043d 2ce2 c83c
00000170: d18e e5bb 7b62 97bb 4385 5fbd 5899 523c
00000180: 4ccb fbbc f8bd b6bc 3a11 33bb 5dbd a63c
00000190: 0c1b 40bd c6da a1bc 0b22 18bd 1164 3fba
000001a0: b976 1fbc 470c 11bd 7e49 f9bb f70c c8bb
000001b0: bec9 3abd 830f b6bc af47 053c 3fa3 fc3c
000001c0: 474d 3cbd 71c5 4ebc a975 3cbc a4b0 49bb
000001d0: 2efd 3d3c fa8f 9dbd 3855 84bc 3c10 cbbc
000001e0: 3ac5 75bd 7d16 3a3d 62ee 243d bc05 5cbb
000001f0: e0d4 4cbd 3289 5dbc 86b5 73bd 4546 8abc
00000200: ad20 073d cbb9 e4bc 0c14 f83a c83a bcbc
00000210: 91ad 04bd a478 59bd 1822 363b 1485 07bc
00000220: 139a 3cbd b49b b93b 2731 c0bc 525b 243d
00000230: 9e4c a4bc e736 3ebc b590 10bd 2ddf 55bd
00000240: 44ba 95bc abfb c5bb 1463 11bd 89e6 ea3b
00000250: 9068 b6ba 8b2f 48bb 3285 133c d448 9f3c
00000260: 460d b93c 5cc5 12bd d0bd 923b 196f 1ebc
00000270: 0867 e43c 510e 70bd 6ce2 863c df51 41bd
00000280: bb4d 6dbc 1b8b 973b 71f0 87bd d40b 063d
00000290: 1758 463b 7f91 043d b9b8 f83c 5b81 19bd
000002a0: 0664 c33b 1401 07bd 7cb5 17bc 6859 a2bc
000002b0: 1707 0e3d b1a7 88bc f5e9 223d 97db 0abd
000002c0: 6548 10bd b695 9d3c 141c d3bb 18ef 3bbc
000002d0: c76b 2abb 1701 7dbc d501 d13c 4487 70bc
000002e0: fdc9 0b3d d25e ab3c 17c8 fd3c 31b6 4ebc
000002f0: abec 033c 0cb2 023c 78fe 0cbd 5fc1 85bc
00000300: 4ea8 fb3c af32 4dbd 4374 df3c dcdf 1dbd
00000310: 1faa 07bd c2d9 c5ba 492c afbc 77f8 31bc
00000320: 53bd 02bc 8a67 14bd d107 bc3c d7da 5e3b
00000330: 420d 6d3b f629 a0bc b41a 0f3c 1adc 923c
00000340: 6070 0abd d2e6 0d3d 8264 6ebc ec75 01bd
00000350: a39a 03bd 1c3f 223c 3853 9a3c 25c4 da3c
00000360: 5c81 7d3c 11f1 943c fc6e 7c3c d30a b43c
00000370: 4c59 b33a 0896 03bd fe95 fabc d8b1 6cbc
00000380: fd21 e7bc 37b9 92bc a43f 673a 7b2f 353d
00000390: 48ea afba b52b 5cbc 4276 15bd 6bbd acbc
000003a0: a241 e5bc 2711 193c 9c3f 0fbb ad1a 703c
000003b0: 1e53 b03c f6d0 b83c 7644 cbbb 250d d63c
000003c0: c4fa a73c f2a5 04bd cc8d e5bc 8d25 ccbb
000003d0: ba06 20bc de98 38bc e477 f0bc a3a4 853c
000003e0: cf4d c73c e869 d9bc 2584 213c b2bd 123d
000003f0: ff81 4d3c 85cd b0bc 661d e4bb 7c65 e1bc
0.010808965 -0.06702173 -0.008221778 0.010784696 -0.007508649 -0.045206293 -0.048963852 -0.046946067
-0.006322802 0.02112025 0.008260199 0.045120783 -0.04318259 -0.021511141 -0.031077042 -0.02678929
0.019039098 -0.018564712 -0.0027116265 -0.006734786 0.032114036 0.023743348 0.015164813 -0.05132474
0.016624032 -0.0473617 -0.013410565 0.006273332 0.02185432 0.03555136 -0.056020245 -0.008592922
0.0005469918 -0.049667973 0.0057170163 0.003193425 -0.019582586 0.031871255 -0.026037553 0.0054517337
0.0014102623 0.021352474 -0.038264588 0.008956752 -0.03897647 -0.021151172 -0.008026102 0.03167997
0.00320386 -0.00729912 0.0054664654 -0.015321172 0.008543083 -0.04987072 0.012597927 -0.05084445
-0.022687722 -0.02064456 -0.071176864 -0.037471145 -0.032931577 -0.018378863 -0.0015227803 -0.039549258
-0.01001154 0.018812567 0.007968026 -0.003979636 -0.00024015477 -0.032766663 0.0009023045 -0.039095014
-0.041928425 -0.039412275 -0.018133083 0.051478803 -0.06115136 -0.022325676 -0.046810217 -0.010661717
0.0029580952 0.036515772 -0.063629836 0.010608611 -0.024656577 -0.032839376 0.0069745663 -0.041103568
-0.053032767 -0.020095706 0.03231536 0.02452191 -0.0070055504 -0.004619894 -0.054570448 0.012853943
-0.030736588 -0.022307381 -0.00273235 0.020353967 -0.046900794 -0.01975764 -0.03714184 -0.0007300983
-0.0097328955 -0.0354121 -0.007607638 -0.006105061 -0.045602553 -0.022224193 0.0081347665 0.03083956
-0.045972135 -0.012620316 -0.011502662 -0.0030775452 0.011596007 -0.07693477 -0.016153917 -0.024788015
-0.060002543 0.045431603 0.040266402 -0.0033572754 -0.0500077 -0.013521479 -0.059499286 -0.01687921
0.032990146 -0.027920624 0.0018926873 -0.022977248 -0.03239209 -0.053093567 0.0027791318 -0.008271474
-0.046045374 0.005664313 -0.023460938 0.040126152 -0.020056065 -0.011609769 -0.035294253 -0.05221479
-0.018277295 -0.006041964 -0.03549488 0.007168595 -0.001391666 -0.0030545916 0.009003924 0.019443907
0.022589337 -0.035832748 0.004478194 -0.009670042 0.02788116 -0.058607403 0.016465388 -0.04719722
-0.014483864 0.004624737 -0.066376574 0.032726124 0.0030264908 0.03236532 0.03036152 -0.03747688
0.0059628515 -0.032960013 -0.009259578 -0.019818023 0.03467473 -0.016681524 0.0397739 -0.033900823
-0.03522529 0.019236427 -0.006442556 -0.011470579 -0.0026004182 -0.015442154 0.025513569 -0.014680687
0.034128178 0.020919237 0.0309792 -0.01261668 0.0080520315 0.00797702 -0.034422368 -0.016327558
0.030719902 -0.050097164 0.027277118 -0.038543567 -0.033121224 -0.0015094804 -0.021383421 -0.010862461
-0.007979709 -0.036231555 0.022952946 0.003400495 0.0036171232 -0.019551259 0.008734394 0.017927218
-0.033798575 0.034643956 -0.01455033 -0.0316066 -0.032129895 0.009902742 0.01883851 0.026704857
0.015472736 0.018181356 0.01540732 0.021977818 0.0013683229 -0.032125503 -0.0305891 -0.014446698
-0.028214449 -0.017910583 0.0008821434 0.044234734 -0.0013421262 -0.013438155 -0.036489733 -0.021086415
-0.027985398 0.009342468 -0.0021857983 0.0146547975 0.021524008 0.022560578 -0.0062032295 0.026129315
0.020505317 -0.03238482 -0.028021716 -0.0062300623 -0.009767229 -0.011266915 -0.029354043 0.016313856
0.024329094 -0.026539758 0.009858166 0.03582544 0.0125432005 -0.021582374 -0.0069615124 -0.027514212

conv3.bias f4 [64]
00000000: e366 a6bc 2a18 b93c 7f39 97bc 137a 1b3d
00000010: d270 02bd 9252 9abc f9ca 783d fcb0 383d
00000020: 1a5b 413a c8c8 263c 57dd 273b 5b6f 03bd
00000030: ddaf c7bc 6956 4c3c 9ba7 f1bc a860 9dbc
00000040: 9a82 f93c 2e4f 9b39 39f4 d93c f49c f8bc
00000050: 9c86 133d bd42 d23b 1dbd 0bbd c11b b3bc
00000060: 744c 233d b0be c63d 9f9c 10bc ab49 af3d
00000070: 8d87 c2bc 1782 d4bc dc67 d63b 9179 2fbd
00000080: afeb f4bb 7971 4bbd 2074 18bd e8cb c93a
00000090: f65d 8f3c 0305 45bb 8968 16bb 8f35 023d
000000a0: 6c98 0b3d d43a 043c e3d2 85bc 5b1a f0bb
000000b0: db90 e9bc eefc 6b3c abfb 22bb 1b30 12bb
000000c0: 5a13 653d da13 6a3d a470 513b 1dfb 5d3c
000000d0: ac15 383b 5a51 8d3c 45f3 1b3d 09a9 103d
000000e0: d632 663d ce0b 263c 0370 713d 398f 1a3d
000000f0: 1984 27bd 9c25 1c3d 08f8 1ebd b0f3 4f3c
-0.020312732 0.02259453 -0.018460033 0.037958216 -0.031845875 -0.0188382 0.060740445 0.04509066
0.0007375941 0.010179706 0.0025614107 -0.03208862 -0.02437585 0.012471774 -0.029498866 -0.019211128
0.030457783 0.00029622897 0.026605712 -0.030348279 0.036017045 0.006416647 -0.0341159 -0.02186382
0.039867833 0.097043395 -0.008826404 0.08558973 -0.023746276 -0.025940938 0.0065431427 -0.042840544
-0.0074743847 -0.049668763 -0.03722012 0.0015395852 0.017500859 -0.0030062802 -0.0022950491 0.03178936
0.034080908 0.008070666 -0.01633591 -0.0073273606 -0.028511455 0.014403565 -0.0024869244 -0.0022306505
0.05592666 0.05714784 0.0031958008 0.01354864 0.002808909 0.017250706 0.038073797 0.035317454
0.056200825 0.01013465 0.058944713 0.037734244 -0.040897463 0.038121805 -0.03881076 0.012692377

fc1.weight f4 [128, 64]
00000000: 7ac2 fcbd 36e8 e9bd 86ab 503d 8993 7dbd
00000010: 9ea7 913d fb5c bbbc 5a9c d03d 9d37 f2bb
00000020: 429e c5bd 8b4f e63c 66cb 603d 688e e5bd
00000030: 48e8 cbbd 71f0 6e3d 29a1 663d a3f0 ee3d
00000040: db2a c33d 29e8 ef3d 5888 b73d e2ca 37bd
00000050: a765 0fbc ad57 cc3b 156b 60bc 84f5 cbbc
00000060: d65e 5e3d f1b1 f53c c9ab 9dbd 461f c43d
00000070: d93d 85bd ea31 04be e86c 25bd f10c 283d
00000080: 3ea3 0fbd 8495 eb3c 253b fabc b0d1 41bd
00000090: d8f9 ddbd 840d fb3c 8dcf 1bbd 5594 82bc
000000a0: 52a1 713d 45dc 9c3d aaaa 353d abbf 5cbc
000000b0: f135 383d 4e44 c03c dc46 d13d e4df 88bd
000000c0: 0047 3c3b 84c7 1fbd c029 193d f24f 3dbd
000000d0: 295b ed3d 7f89 f03c 9fa0 873c 5708 34bd
000000e0: 02ef cbbb 545c f6bd ad37 3fba b11c 9dbd
000000f0: dedd a23d 5518 10be b995 07be 2aa9 913d
00000100: 3920 b83d ca84 463d c03b 0fbc 456a 85bd
00000110: 6921 db3d ffb3 89bd d399 49bd 8ed7 cf3d
00000120: e294 603d a3d3 973d 1220 9abd d14c 363d
00000130: b3fa 1e3d b9d0 dabc 9948 953d 2185 213e
00000140: bb7f 8abd 913c 3b3c cb14 263d 0223 ac3d
00000150: c33a 08bd 6daa d43d 8b9a b1bd 1e69 6dbd
00000160: 2e55 23bd 7148 ce3d 619a 28bd 16ee f3bd
00000170: d97c 07bd 1336 62bd 3380 ec3d 5f60 883d
00000180: d6c8 03bc 92ef 48bc 0fa4 08be 5150 f43d
00000190: 4150 053e 15ea 86bd 35bd ebbd 7dc8 913c
000001a0: 0019 403d ccd5 b1bc c0ce ed3c 4b4c c33d
000001b0: d1a7 e43d e6c3 e4ba 9615 a03c 7359 a03d
000001c0: 103f a03d 7e98 e4bd 6a2d c73d a362 8ebb
000001d0: c9a8 aa3d 1639 73bb 6dd1 a43d ad84 13be
000001e0: b864 7f3d 6b6f 95bd 9ccb 04bd f55d b6bd
000001f0: 9ccf b0bd a8e2 d5bd c125 c0bd 380c a23b
00000200: c8c4 febd 28e0 c73b 9e4a 5e3d 29f5 b03d
00000210: 9fec d33d 4aac d7bd 902f 133d 7d7d f33d
00000220: bcc5 b43c 4db5 823d da88 ae3c 832f e6bc
00000230: 2424 70bd c215 a53d e010 76bd eb65 b63d
00000240: 2832 c13d fd0f 043b 3e37 03be a7c2 8ebd
00000250: ef04 29bd f670 e33b 886e a23d 7a79 7f3d
00000260: 506d 1f3d 06a7 6fbd 2dc9 a7bc db50 87bd
00000270: bee5 013e 3ac6 b4bc 1917 f23d 23f6 683d
00000280: 3caa f5bc 8c5a 3fbe b658 11be 150a cabd
00000290: a2f5 cd3d 072e 4b3d d097 46bc 8a4a 573d
000002a0: f3b5 e5bc 3042 64bd 747b 023e e7c7 b43d
000002b0: 5746 ff3d c0bd 603c 5807 d0bd 0808 1c3e
000002c0: 7ccc 9ebd 23b0 c33d 149b 213e eacc e8bd
000002d0: c799 e9bd ab4d 063c 568a efbc ec66 c8bc
000002e0: db0b d93d 4783 e4bd 31b8 9e3c d4d1 d93d
000002f0: 1d4f 903c dd6a 62bd 1bdf ce3b bb43 b8bc
00000300: 3799 52bd c027 a93b 121b 8b3c e569 a4bd
00000310: 30cc 613d 4efe 7abd 0357 02be 8291 f33d
00000320: 53c4 8fbd 5e0c ecbc 2965 5e3d 8492 d4bc
00000330: 5ef2 a8bd 2617 8a3d daf0 a5bd 9145 3ebb
00000340: 36c7 003d 29ad b23d 4a1e e93d e7d9 b6bd
00000350: efec e5bd f5e1 853c 90da d33d fbfd 71bd
00000360: 109e df3d 0508 903d 2e38 c6bd ef11 e5bd
00000370: 6d5e d5bd ce00 bc3d fae5 bcbd 677d b9bd
00000380: a878 e2bc 6719 ae3d 80d5 80bd bdfc 8fbd
00000390: 9660 bbbd ad5d ba3d 66f2 ddbd c4d8 fc3d
000003a0: 9367 dd3d e9aa 88bc 2e54 493d 7507 74bd
000003b0: f99c 5f3b 34aa 4a3b 879b 01be ca5b dfbd
000003c0: cec4 bbbd 33c0 ffbb 8baa 98bd 17e2 30bd
000003d0: c050 923d 8f31 a33d 5155 d33d f4a9 3bbd
000003e0: 9f22 c93c 160e 4abd 5583 773d 5e00 563c
000003f0: bbc8 853d 08a7 52bc 8a2c 78bd b94c 283d
-0.12341781 -0.11421244 0.050944827 -0.06190828 0.071120486 -0.022871485 0.10186072 -0.0073918835
-0.09649326 0.0281141 0.054881476 -0.112088025 -0.099564135 0.05833477 0.056306038 0.116669916
0.095296584 0.11714203 0.089615524 -0.04487122 -0.008752263 0.0062360377 -0.013697405 -0.024897344
0.05428966 0.029992076 -0.07698781 0.095762774 -0.06505937 -0.12909666 -0.040387064 0.041027967
-0.03506779 0.028757818 -0.03054578 -0.047319114 -0.108386695 0.030646093 -0.038039733 -0.01593987
0.058991738 0.076592006 0.04435221 -0.013473432 0.044973318 0.02347007 0.102185935 -0.06683329
0.0028728843 -0.039008632 0.03739333 -0.04621882 0.11589653 0.029362438 0.016556082 -0.043953266
-0.0062235603 -0.12029329 -0.0007294368 -0.07671488 0.07952474 -0.14071782 -0.13240708 0.071123436
0.08990521 0.04846648 -0.008742273 -0.0651441 0.10699732 -0.06723785 -0.049218964 0.10148536
0.054829486 0.074134134 -0.07525648 0.04450685 0.038813304 -0.026710855 0.072892375 0.15773441
-0.06762644 0.011428014 0.040547173 0.08405115 -0.033259165 0.10384069 -0.08672055 -0.057961576
-0.039876156 0.10072411 -0.041162852 -0.11910646 -0.03307805 -0.05522735 0.115478896 0.06659006
-0.0080434885 -0.012264149 -0.13343833 0.11929382 0.13018896 -0.06587616 -0.11510698 0.017795796
0.04689884 -0.021708392 0.02902925 0.09536036 0.11164821 -0.0017453402 0.019541543 0.07829561
0.07824528 -0.11161898 0.09725459 -0.0043452545 0.083329745 -0.0037112883 0.08047757 -0.1440608
0.062351912 -0.07296642 -0.03242074 -0.0890464 -0.08633348 -0.10443622 -0.09382201 0.0049453042
-0.12439877 0.0060997196 0.05427038 0.086405106 0.10347866 -0.105309084 0.03593403 0.11889169
0.022066943 0.06382237 0.02130549 -0.028098827 -0.058628216 0.080607906 -0.060074687 0.08906158
0.09433395 0.0020151131 -0.12814042 -0.06970721 -0.04126447 0.006940956 0.079312384 0.06237171
0.038922608 -0.058508895 -0.02048167 -0.06607219 0.12685296 -0.022067178 0.11820812 0.05687536
-0.0299884 -0.18686885 -0.14193997 -0.09865204 0.10056616 0.049604442 -0.012121156 0.05256132
-0.028040862 -0.055727184 0.12742406 0.08827191 0.12464588 0.013717115 -0.10157651 0.15237439
-0.07753846 0.0955508 0.15781814 -0.11367209 -0.11406284 0.008197228 -0.029240768 -0.02446314
0.105979644 -0.11157852 0.019374939 0.10635725 0.01761585 -0.055277694 0.0063132173 -0.022493234
-0.05141565 0.0051622093 0.016980682 -0.0802801 0.05512637 -0.06127768 -0.12728505 0.11892988
-0.07019868 -0.02881449 0.054295693 -0.02594877 -0.08249353 0.067426965 -0.081025794 -0.0029033164
0.031439982 0.08724434 0.1138273 -0.0892828 -0.11226832 0.016343096 0.10344422 -0.059080105
0.1091882 0.070327796 -0.09678684 -0.11185061 -0.10418401 0.09179841 -0.09223552 -0.09057122
-0.027645424 0.08500939 -0.06290722 -0.07030628 -0.09149282 0.090998985 -0.108372495 0.12346032
0.10810771 -0.016683059 0.049152546 -0.059577424 0.0034120663 0.0030924203 -0.12656985 -0.10906179
-0.09168397 -0.0078048944 -0.074544035 -0.043184366 0.07144308 0.07968437 0.10319007 -0.045816377
0.024552641 -0.04932984 0.060427982 0.013061611 0.06532427 -0.012857206 -0.06058935 0.041088793

fc1.bias f4 [128]
00000000: 1e2b 143d 9360 90bd 7856 24bd f5da f13d
00000010: e6bb dc3d cf73 ec3d 908a 3e3c 2aa5 db3d
00000020: e816 0cbd ee4d 4b3c 05f1 543c a948 db3b
00000030: 205e 413e d9d4 e4bd d170 1b3c beb7 ca3d
00000040: 19ed 23bd efad 6f38 4671 f93d 5b7a 9e3d
00000050: 82cf ae3d 4bc0 363e 1419 273d 7aac d33b
00000060: d962 b93d 5841 0bbe 3580 18be 2e85 093e
00000070: eb78 5d3d 22fc 7ebd 68b8 073e 782d 973d
00000080: 44b1 9a3a 40ca 493d 13c4 c1bc bc8a 603c
00000090: b937 96bb 829b 24bd ef16 95bd 2d37 183e
000000a0: 9b82 a63d f690 cbbd bf64 26bd bb47 3f3d
000000b0: 395c de3d ce9e 063e 059d b63d 168b d63d
000000c0: 58c3 143e f485 babd 80f6 2fbd 416c 9abc
000000d0: 03f7 743c e6ad fd3c 6fd9 033e d15e d83d
000000e0: d1f3 97bd 2af1 4f3d e628 993d f3ea 4fbd
000000f0: d7e0 d63d 4bed c5bd 9fca 413e 69f0 453d
00000100: 1634 f9bd 7c54 d0bd 8663 2fbe e5bf 7e3d
00000110: 9e33 84bc 0c9f 563c 82b1 403c d691 06be
00000120: 60d8 213e 23ea c7bb ceee 0dbe 293a b03d
00000130: d7f3 223e 02da d6bd 05ca 0fbd 1d44 853d
00000140: 180c bd3c 7b3e b63d 54f9 d5bd fd1f 993d
00000150: 06ca 1f3d f160 b73d e182 0b3d bc10 c0bd
00000160: 2984 f2bd 6e44 adbd 9960 4ebc f530 cebd
00000170: 1442 d53d 98b3 953d 3a9b 653d db03 37bd
00000180: 248b 77bd 43d7 c63d 944b e8bd c88f 163d
00000190: 0fce afbc 1998 343d 8d3e 90bc c798 af3d
000001a0: 0d22 0dbb 3f66 efbc b362 6ebd 1611 c4bd
000001b0: 8d78 98bd 44ab a43d cf5b 773d 6d3d ddbd
000001c0: e089 0c3e 44bc 053e 1095 9d3d 5a0a b6bd
000001d0: d137 9e3d 0f77 113d ddf9 d8bc 6f60 c43d
000001e0: d34e 6cbc 56c1 b7bd 110e bdbc b446 75bd
000001f0: 6446 e43d c41e 53bb 9b1d 7dbd 235a 4d3d
0.036173932 -0.0704967 -0.040121526 0.11809341 0.10778026 0.11545526 0.011629716 0.10724862
-0.034201533 0.012408717 0.012996917 0.0066920114 0.18883562 -0.1117341 0.009487347 0.09898327
-0.040021036 5.714403e-05 0.12179808 0.07738181 0.08535673 0.17846791 0.0407954 0.00645977
0.09052057 -0.13599145 -0.14892657 0.1342971 0.054070394 -0.06225217 0.13253939 0.07381719
0.0011802097 0.049265146 -0.023653066 0.013704952 -0.0045842794 -0.040187366 -0.07279765 0.14864798
0.0813038 -0.099397585 -0.040623423 0.046699267 0.10857434 0.13146517 0.08916668 0.10475747
0.14527643 -0.09107581 -0.04295969 -0.018850448 0.01495147 0.03096671 0.12875913 0.1056496
-0.07419551 0.0507671 0.07478504 -0.050761174 0.104921035 -0.09664401 0.1892495 0.048324976
-0.12168138 -0.10172364 -0.17127809 0.062194724 -0.016137894 0.013099443 0.011761071 -0.1314157
0.15805197 -0.0061009093 -0.13860628 0.08604843 0.1591333 -0.104908004 -0.03510477 0.06507132
0.023077056 0.08898636 -0.10447946 0.074768044 0.039011024 0.08954037 0.034060363 -0.09378192
-0.11841614 -0.084603176 -0.012596273 -0.100679316 0.10412994 0.073096454 0.05605624 -0.04468141
-0.06043543 0.09709027 -0.113425404 0.036758214 -0.021460561 0.044090364 -0.017607952 0.08574062
-0.0021535188 -0.02922356 -0.058199596 -0.095735714 -0.07444868 0.08040479 0.06039029 -0.10802732
0.1372447 0.13060099 0.07694447 -0.08888693 0.0772549 0.035513934 -0.026486332 0.09588706
-0.01442309 -0.08972423 -0.023077996 -0.05988188 0.111462384 -0.0032214383 -0.061795812 0.05013479

fc2.weight f4 [2, 128]
00000000: cb8f bebc cdc6 03be 48ad 71bc d121 613d
00000010: 91d4 353d 31aa 3d3c 0636 a6bd cd6a 343d
00000020: e06d 453d 0bc5 88bd 4466 cfbc 90c5 573c
00000030: de41 3d3d becf 8dbd f4d2 ae3d a94d bd3c
00000040: 9e18 8e3d 1c2f a43d fe53 883d 0759 be3d
00000050: 8b5b 553c f32c 0b3d aaaf 86bd 68ce 6c3d
00000060: 381f 263d f94b f5bc 0af0 c7bd a043 223b
00000070: 7827 b4bb c754 acbc 94bf fc3c 1b42 97bd
00000080: 70a2 1ebd 8e3c 6a3d cb74 a53d 73bb e2bd
00000090: adc3 dbbd b4a0 013d bce8 3a3d 8b43 933d
000000a0: ba96 fdbb e05e 3ebd 2647 bf3a 3643 333d
000000b0: 8816 b13d 987d f6bd fdb3 e23c 717d e03b
000000c0: 20ef 473d d0cc e9bd 7a45 00be a81c a93c
000000d0: 2261 1d3d 906b 293d 6256 c83c 6018 773b
000000e0: 23c0 c0bd 3c9f c63c 6dae 8a3c d376 5dbc
000000f0: b83a 0a3d 8fcf df3c 6606 943d f93a 373c
00000100: a4d6 37bc 8473 f83d 913b bebd 357e a43d
00000110: ec7f 303d e002 f2bd e678 34bd 9332 743d
00000120: 354d 963d 149b 823d 2c9b 84bd 0c0b 9b3d
00000130: b4c0 8a3d 5216 883c a27c 9c3c 3574 97bc
00000140: 4319 89bd 0055 3e3b 9d44 bfbc 7683 b5bd
00000150: 8686 b63d 3fba 9a3b bd65 c9bc e3d6 09bd
00000160: 342d 743c 60b8 d23c f1b4 7c3c 188b f6bb
00000170: 8b59 bc3c dfd5 1c3d 2e0f 24bc 699e 2b3c
00000180: 026d 9a3d 7feb c8bb 1adc 943d ab60 5c3d
00000190: 30d6 61bb 9c81 62bd 4b7a 76bd 61a4 99bd
000001a0: 22f7 1cbc 60a5 b5bb 16ee dbbc 6297 b63c
000001b0: a1bf d9bd 114a 32bd 2f63 873b 9bbd fbbb
000001c0: 1b15 42bc 4a50 a23d 63d4 ba3c 7889 373d
000001d0: 1ef0 6dbd ea10 1e3b 0a7a 413d 0ca1 c1bb
000001e0: cb7f d3bc 9f1b 85bd f3e1 6dbd db37 38bc
000001f0: 09b9 983c d39d 86bd 0268 203d be79 5e3d
00000200: 5c4c 88bb a2da 393d 9219 afbd 22f9 26bc
00000210: 034c a03c 4013 833d 4cfc 4c3d 8c6b cf3c
00000220: 6591 d5bc fe7b 5cbd 014a ba3d 4856 7e3c
00000230: 09c5 713d e521 34bd 9be0 9c3c adce 12bd
00000240: 7d97 9abd d61c 8ebc 5c29 6a3b 63df 173d
00000250: 2200 f43b 11d6 1cbc f25b 943d dee9 a63d
00000260: f73c 9c3c d868 a5bd 7703 3cbc 3487 4a3d
00000270: 15ae 8c3b 7e85 753d 6f6b 1a3d 60c2 d4bc
00000280: 6196 6d3d 70b8 93bd 2a34 afbd 5d46 ccbd
00000290: 45e2 c33b b1f7 973d 7a85 d6bd eff9 5a3c
000002a0: 30cb a33c 137e 483c c848 aa3d bd38 b13b
000002b0: d461 833d 15c3 afbc 212d 953c 8471 bebd
000002c0: 3183 143c 6545 26bd 9ac0 b7bd eb17 b13a
000002d0: 51b0 8a3d a4c4 5b3d bf26 453c 6009 aa3b
000002e0: 5c0d 7dbc 4d79 9cbc 2f8d 393b 7788 7f3d
000002f0: 51ca 30bd 2a1d 6f3c 206b 183b be17 7abc
00000300: c005 36bd 3b0d 223b 90a3 0abb a52d 03bd
00000310: baf9 443d d273 48bd b905 1ebd de68 0cbd
00000320: 69fc 1fbd 1e7c 70bd 4d8a 1dbc f816 6b3d
00000330: e23d bc3d 9058 ecbd 67e6 543d 0c4e f43d
00000340: 4de7 333d 06bc 533d d0a0 793d 398d 85bd
00000350: a4fa 4b3d 001a 9a3d 8178 bcbd b090 76bd
00000360: 6648 4abd 6a07 a63d 0bb7 7bbc 7d39 8f3d
00000370: a9fe 9cbc 746f 08be 0f81 02be 5641 55bd
00000380: 7db0 abbd 8c9a d53d f410 68bd 6bcb 3dbb
00000390: fe39 ac3c 09cb a3bd 7a68 8c3b cd52 76bd
000003a0: ed9c a83d 40b1 b9bd 1b86 ea3c 6392 78bb
000003b0: 7ccf 5ebd 9af8 aebd 53c9 eebc e9e4 863d
000003c0: dc63 833d 9f57 ab3c 887c 29bd fb0c 25bd
000003d0: 3bae 9a3d 3600 1ebc bb7c 09bd 6966 b33d
000003e0: cfaf 2cbd 787f 483c d06c 48bd b066 13be
000003f0: c2d4 06be 5ac8 f5bd 34cd 8ebc 0cef d43c
-0.023261925 -0.12868805 -0.014750786 0.05496389 0.044392172 0.011576221 -0.08115773 0.044047166
0.048200488 -0.06678208 -0.025317319 0.013169661 0.046205394 -0.06924389 0.0853633 0.02310832
0.06938289 0.08016798 0.06656645 0.09294324 0.013022314 0.033978414 -0.06576474 0.05781403
0.040557116 -0.029943453 -0.09762581 0.0024759546 -0.005497869 -0.021036519 0.03085307 -0.073856555
-0.03872913 0.057186656 0.08078917 -0.11070909 -0.107306816 0.0316474 0.04563211 0.07190617
-0.0077389153 -0.0464772 0.0014593347 0.04376527 0.086468756 -0.12035674 0.027673716 0.0068508913
0.04881203 -0.11416018 -0.12526503 0.020643547 0.03842271 0.041362345 0.024455253 0.0037703738
-0.09411647 0.02424585 0.016928876 -0.013517099 0.033747405 0.027320651 0.07227783 0.011183494
-0.011220608 0.12131408 -0.09288705 0.080318846 0.043090746 -0.118169546 -0.04406061 0.059618544
0.07338945 0.06377235 -0.06474909 0.075704664 0.067750365 0.016612206 0.019102398 -0.018488029
-0.066942714 0.0029042363 -0.023348147 -0.08862965 0.08912377 0.0047219093 -0.024584645 -0.033652198
0.014903355 0.025722682 0.015423999 -0.0075239055 0.022991916 0.0382899 -0.010013385 0.01047478
0.07540323 -0.006131589 0.072685435 0.053803127 -0.003445994 -0.055299386 -0.06017522 -0.07502056
-0.009580405 -0.005543396 -0.026846927 0.022288982 -0.106322534 -0.043527666 0.0041316967 -0.007682515
-0.011845852 0.0792547 0.022806352 0.044808835 -0.05809032 0.0024118968 0.047235526 -0.005909091
-0.025817772 -0.06499409 -0.05807681 -0.011243786 0.01864292 -0.06573071 0.03916169 0.05431532
-0.0041594934 0.04537452 -0.08549799 -0.010191234 0.019567495 0.06400156 0.050045297 0.025319837
-0.026070306 -0.053829186 0.090961464 0.015523501 0.059025798 -0.043977637 0.019150069 -0.035841633
-0.07548425 -0.017347734 0.0035730219 0.037078273 0.007446305 -0.009572522 0.072441 0.081500754
0.019072039 -0.08076638 -0.011475435 0.049445346 0.004293213 0.05994176 0.037700113 -0.025971591
0.05800474 -0.07212913 -0.085548714 -0.09974358 0.005977901 0.0742029 -0.104746774 0.013365253
0.019994348 0.01223709 0.08314663 0.005408375 0.064151436 -0.021455327 0.018209996 -0.09298995
0.009064482 -0.040593524 -0.08972283 0.0013511156 0.06771911 0.053654328 0.012033164 0.005189106
-0.01544508 -0.01910081 0.0028312912 0.062386002 -0.043161694 0.014594356 0.002325721 -0.01526445
-0.044439077 0.0024727124 -0.002115462 -0.032025952 0.04808972 -0.04893858 -0.038579676 -0.034279697
-0.039059076 -0.058712117 -0.009615493 0.05739495 0.09191491 -0.115403295 0.05197754 0.11928949
0.043921757 0.051692985 0.06094438 -0.06521077 0.049799576 0.0752449 -0.09202672 -0.06019658
-0.04938545 0.08106883 -0.015363465 0.06993387 -0.0191644 -0.13323766 -0.12744544 -0.052064262
-0.08383272 0.10429868 -0.056656793 -0.0028960358 0.021023747 -0.0799771 0.0042849155 -0.06013756
0.08233056 -0.09067011 0.0286284 -0.003792905 -0.05439709 -0.08543511 -0.029148733 0.0658663
0.06415531 0.020915804 -0.041378528 -0.040295582 0.07552763 -0.009643605 -0.033566218 0.087597676
-0.04215985 0.012237422 -0.048931897 -0.14394641 -0.13167098 -0.12001105 -0.017431833 0.025992893

fc2.bias f4 [2]
00000000: f676 163e 1cf8 c73d
0.14693817 0.0976412
