latest.pth (torch, 323690 bytes, 10 tensors)

conv1.weight f4 [32, 4, 8, 8]
0	0xbce64525	-0.028109143
1	0x3dbdc182	0.09265424
2	0xbd5642fd	-0.05230998
3	0x3b924842	0.00446418
4	0xbc4fc58f	-0.012681379
5	0xbc9f95eb	-0.019480666
6	0xbce7da0f	-0.02830222
7	0x3de5cc38	0.11220592
8	0x3cb00b04	0.021489628
9	0x3c834225	0.016022751
10	0x3c9f7056	0.019462746
11	0x390d96f3	0.00013503041
12	0xbd2e8849	-0.04261044
13	0x3e0786a0	0.13234949
14	0xbdc2493b	-0.09486624
15	0x3d2c53c4	0.042072073
16	0x3b8cd237	0.0042975205
17	0x3d671e9d	0.05642568
18	0xbb4408f1	-0.0029912556
19	0xbdbff3c1	-0.09372664
20	0x3bd0fc73	0.0063777505
21	0x3d95ec2a	0.07320435
22	0xbdd8d7b8	-0.1058802
23	0xbd56a4ec	-0.052403376
24	0x3d9cc8ff	0.076555245
25	0xbc7844e4	-0.015153144
26	0x3d52d24b	0.051470082
27	0xbcea1f6a	-0.028579433
28	0xbd089afc	-0.03335093
29	0x3da1a8af	0.07893502
30	0xbb8cd597	-0.004297923
31	0x3cc22b19	0.023702191
32	0xbd42fac6	-0.047602437
33	0x3c4db822	0.012556108
34	0x3b7bd4d5	0.0038426418
35	0xbdb08523	-0.08619144
36	0xbd4ea9c0	-0.050454855
37	0x3d25c853	0.040474247
38	0xbc8ef3a3	-0.01745016
39	0x3de12fd6	0.10995452
40	0x3dc32f76	0.09530537
41	0xbd0ec720	-0.03485787
42	0x3d8dcc89	0.069237776
43	0xbe24b74d	-0.16085549
44	0x3d8b2cb2	0.06795634
45	0x3c1981bf	0.009369313
46	0x3cd53790	0.02602747
47	0x3cd51c85	0.026014576
48	0x3db22cc6	0.08699946
49	0xbcfcda42	-0.030865792
50	0x3d6e8e97	0.058241453
51	0xbd5a2f3d	-0.053267706
52	0x3d679e92	0.05654771
53	0x3d928603	0.07154467
54	0x3d0aa5b5	0.033849437
55	0x3e45cc9f	0.19316338
56	0xbd4e3493	-0.050343107
57	0x3d96ec87	0.07369333
58	0xbd052310	-0.03250414
59	0xbe62f5b8	-0.22164047
60	0x3c94d53b	0.018168082
61	0xbc760386	-0.0150154885
62	0x3b618a1d	0.0034414597
63	0xbc2a5c28	-0.010397948
64	0xbd3fabe9	-0.046794806
65	0xbe539838	-0.20663536
66	0xbd97b6ee	-0.07407938
67	0x3d7e805d	0.062134136
68	0x3db2d13e	0.08731316
69	0x3d1d6f99	0.038436506
70	0x3c8d24d3	0.017229473
71	0xbdc2ae40	-0.09505892
72	0xbd786448	-0.06064251
73	0xbe1a620b	-0.15076463
74	0xbc9d3cc9	-0.019194024
75	0x3d1c4b8b	0.03815798
76	0xbd6b1d3c	-0.057400927
77	0x3d7c342f	0.061573204
78	0xbdbccad2	-0.092183724
79	0x3df55d57	0.11980694
80	0x3cc2707e	0.023735281
81	0xbdae0e74	-0.084988505
82	0xbd938398	-0.07202834
83	0xbe012843	-0.12613015
84	0xbdc144f2	-0.094369784
85	0x3cbbb13a	0.022911657
86	0xbd5b5879	-0.05355117
87	0xbd301a2d	-0.042993713
88	0x3c840eeb	0.016120395
89	0x3c6cc1d5	0.01445051
90	0xbd022eb4	-0.03178282
91	0xbd8d6d3a	-0.06905599
92	0xbe21435d	-0.15748353
93	0xbb769355	-0.0037624438
94	0xbd11f421	-0.03563321
95	0xbccd3374	-0.025048949
96	0x3b0b51d2	0.0021258486
97	0xbda2b753	-0.079451226
98	0xbdbba00b	-0.09161385
99	0xbdd5e06d	-0.104431964
100	0xbe04eaac	-0.12980145
101	0x3b511c2c	0.003190766
102	0xbd8081cb	-0.06274756
103	0x3d192817	0.03739175
104	0x3d397166	0.04527416
105	0xbc15b979	-0.009138458
106	0xbe0fefb8	-0.14056289
107	0xbe20ae4f	-0.15691493
108	0xbc8aadc6	-0.016928565
109	0xbdc9dbd0	-0.09856379
110	0xbe00bfff	-0.1257324
111	0xbd8f0504	-0.069833785
112	0xbb1da374	-0.0024053724
113	0xbde59b58	-0.1121127
114	0xbdefc93c	-0.11708304
115	0xbe27354d	-0.16328926
116	0xbd4082ba	-0.04699967
117	0xbd6accc7	-0.057324197
118	0xbcef5916	-0.029217284
119	0x3dcce7a2	0.10005118
120	0x3a65beba	0.0008764077
121	0xbd960ce2	-0.07326676
122	0xbd847bb3	-0.06468906
123	0xbe081736	-0.13290104
124	0xbd296bd7	-0.04136261
125	0xbd4a6bc1	-0.04941917
126	0x3cfc8e9b	0.030829718
127	0xbcfa23b4	-0.030534603
128	0xbd89880c	-0.06715402
129	0x3d9222cb	0.071355425
130	0x3d953eb4	0.0728735
131	0x3d7b62c1	0.061373476
132	0xbbb4c327	-0.005516428
133	0x3bf06cea	0.0073372023
134	0xbd01ba0f	-0.03167158
135	0x3be6949c	0.0070367586
136	0xbd661b71	-0.056178514
137	0xbd732845	-0.059364576
138	0xbca9ebcb	-0.020742318
139	0x3d97cd3e	0.07412194
140	0xbd86647d	-0.06562135
141	0x3d0e6009	0.034759555
142	0xbc5d68d8	-0.013513766
143	0x3cfcc08e	0.030853536
144	0xbcbb4f13	-0.022864854
145	0x3b0e290e	0.002169195
146	0xbd8ba9b8	-0.06819481
147	0x3c959dce	0.018263724
148	0xbdffd832	-0.12492408
149	0x3c724fe0	0.0147895515
150	0xbdfe39c5	-0.124133624
151	0xbd9856bb	-0.074384175
152	0x3cd90810	0.026493102
153	0xbd62db00	-0.055384636
154	0x3c42ae92	0.011882441
155	0xbd49f94f	-0.049310025
156	0xbc45b8aa	-0.012067953
157	0xbc1b112a	-0.009464541
158	0xbd5a6a56	-0.053324066
159	0xbd007c05	-0.031368274
160	0x3d0561ed	0.032564092
161	0x3c2179f7	0.009855739
162	0x3c92a3ee	0.017900433
163	0xbd51949c	-0.051167116
164	0xbd3fc4c4	-0.04681851
165	0xbde27f40	-0.11059427
166	0xbd85d145	-0.065340556
167	0xbb2ff5ec	-0.0026849462
168	0xbcc09fd6	-0.023513716
169	0xbca19ab4	-0.019727089
170	0xbcf9b946	-0.030483853
171	0xbe240984	-0.16019255
172	0xbd98b72a	-0.07456811
173	0xbd9ba57a	-0.075999215
174	0xbdb1dd24	-0.08684757
175	0x3c26c036	0.010177663
176	0xbce3419b	-0.027741244
177	0x3ceb616b	0.028732976
178	0xbd4750ef	-0.04866117
179	0xbe36a62e	-0.1783683
180	0xbda4a8dc	-0.0804002
181	0xbd5fbe30	-0.054624736
182	0xbd14cd82	-0.0363288
183	0x3d33a8dc	0.04386221
184	0xbd144cd3	-0.036206078
185	0x3bcc3050	0.0062313452
186	0xbd6afc32	-0.05736942
187	0xbd161741	-0.03664327
188	0xbc285f85	-0.01027668
189	0xbdf0e839	-0.11763043
190	0xbe054fb0	-0.1301868
191	0xbd8a126a	-0.067417935
192	0xbd5eb4ef	-0.05437177
193	0xbdcb982e	-0.09941135
194	0x3d659a73	0.056055497
195	0xbc0dbca8	-0.008650936
196	0xbd95ab87	-0.07308107
197	0x3d1580c9	0.036499772
198	0xbe379739	-0.1792878
199	0x3d0e8987	0.034799125
200	0xbc3efbb9	-0.011656695
201	0x3cd1203a	0.025528062
202	0x3a61f5d7	0.0008619702
203	0xbc4bfe22	-0.012450727
204	0xbc01a024	-0.007911716
205	0xbd909980	-0.07060528
206	0xbe1a799d	-0.15085454
207	0x3d9699c2	0.07353546
208	0x3d207cbb	0.039181452
209	0x3d35a2bc	0.04434465
210	0x3d341e54	0.043974236
211	0x3c35b432	0.011090325
212	0xbd155b12	-0.036463805
213	0x3d11244c	0.035435006
214	0xbdd5f8ff	-0.10447883
215	0xbe00f032	-0.12591627
216	0xbca00fe3	-0.019538825
217	0xbc76feb3	-0.015075373
218	0xbcf8ef83	-0.030387646
219	0xbcd7f653	-0.026362574
220	0xbd9d85f9	-0.07691569
221	0x3c6a1ea7	0.014289535
222	0xbd10b27f	-0.035326477
223	0xbd94ae4e	-0.072598085
224	0xbc4e3328	-0.012585439
225	0x3ce1a5e3	0.027544921
226	0x3d0577f9	0.032585118
227	0x3c933097	0.017967505
228	0xba0bef35	-0.0005338074
229	0xbda1aee6	-0.07894687
230	0xbd141180	-0.0361495
231	0x3cc308d5	0.023807922
232	0xbd312514	-0.04324825
233	0xbd5efe3a	-0.054441668
234	0xbdd259f4	-0.102710634
235	0xbc357e28	-0.011077441
236	0xbdcc97b5	-0.09989873
237	0xbe2c00b4	-0.16797143
238	0xbe04c9c5	-0.12967594
239	0xbc4ea87a	-0.01261341
240	0xbc8ae092	-0.016952787
241	0xbd66f4ef	-0.05638593
242	0xbd803714	-0.06260505
243	0x3cd442a7	0.025910689
244	0xbd1b6e65	-0.037947077
245	0xbe22f313	-0.15913038
246	0xbe2ccb54	-0.16874439
247	0xbd93bb3f	-0.07213449
248	0xbc837081	-0.016044857
249	0x3c7b80ab	0.015350501
250	0xbdeedc90	-0.11663163
251	0xbdea00c8	-0.1142593
252	0xbdef0d03	-0.11672404
253	0xbe41c949	-0.1892444
254	0xbd815171	-0.06314362
255	0xbdd2604d	-0.10272274

conv1.bias f4 [32]
0	0x3e8e2c12	0.27767998
1	0x3e832ef5	0.25621763
2	0x3d420e1b	0.047376733
3	0x3e515446	0.20442304
4	0xbd574db1	-0.052564327
5	0x3e746422	0.23866323
6	0x3d35c7ed	0.044380117
7	0xbc5df476	-0.013547054
8	0x3e0c0397	0.13673244
9	0xbd0010e0	-0.031266093
10	0x3e1c52a9	0.15265907
11	0x3e17fa8a	0.14841667
12	0xbd8af02c	-0.067840904
13	0xbbca36e4	-0.0061710943
14	0xbd767d3a	-0.06017802
15	0x3da4248c	0.08014783
16	0x3d0b16b3	0.033957195
17	0x3e113332	0.14179686
18	0xbe009342	-0.12556174
19	0xbd77270d	-0.060339976
20	0x3e7f7ab3	0.2494915
21	0xbcdf0310	-0.02722314
22	0x3dfc3d5d	0.123163916
23	0x3e03172d	0.1280181
24	0x3e031040	0.12799168
25	0x3e41fcaa	0.1894404
26	0xbd16200a	-0.03665165
27	0xbcd04629	-0.02542408
28	0xbd4b1823	-0.049583565
29	0x3d5f4d9e	0.05451738
30	0x3e1cd1ff	0.15314482
31	0x3d341c2f	0.04397219

conv2.weight f4 [64, 32, 4, 4]
0	0xbc3e0386	-0.01159752
1	0xbe143598	-0.1447357
2	0xbd4dcbc2	-0.050243147
3	0xbcd7d367	-0.026345922
4	0xbcccfc40	-0.025022626
5	0xbd97403f	-0.07385301
6	0x3d6777a3	0.05651058
7	0x3d3c441e	0.0459634
8	0xbc86ac70	-0.016439646
9	0xbd107b21	-0.035273675
10	0x3aed3fd1	0.0018100684
11	0xba558ced	-0.0008146305
12	0x3d3861b5	0.045015056
13	0x3cae4010	0.021270782
14	0xbcc99005	-0.024604807
15	0xbdd4f6f7	-0.10398667
16	0xbdfe7e14	-0.12426391
17	0xbe22d150	-0.15900159
18	0x3d7ec227	0.062196877
19	0xbd7b65b4	-0.06137629
20	0x3d33d6f0	0.043906152
21	0x3b075564	0.0020650262
22	0x3d93d2ef	0.07217967
23	0xbd08a850	-0.03336364
24	0x3da5dcac	0.080987304
25	0xbdcc769f	-0.09983563
26	0x3ccdfa21	0.025143685
27	0xbd4bfd39	-0.04980204
28	0xb9bf909c	-0.000365381
29	0x3d6032bb	0.05473588
30	0xbc574322	-0.013138564
31	0xbdfd0c5f	-0.12355875
32	0xbd54f9e8	-0.05199614
33	0xbd088079	-0.033325646
34	0x3d945860	0.07243419
35	0x3d23479d	0.039863218
36	0xbdaa24ea	-0.08307822
37	0xbc59f889	-0.013303884
38	0x3db37e83	0.087643646
39	0xbdd40528	-0.10352546
40	0x3b5580d5	0.003257801
41	0xbdecf406	-0.11569981
42	0x3d79c6ef	0.060980733
43	0xbe1a39c0	-0.15061092
44	0xbbf46ca7	-0.0074592414
45	0x3d1166ce	0.035498433
46	0x3d56f4aa	0.052479424
47	0xbcbf4747	-0.023349417
48	0xbd5a285a	-0.05326114
49	0xbd688c02	-0.056774147
50	0xbc5a5812	-0.013326662
51	0xbd62f32e	-0.055407695
52	0x3a415b88	0.0007376005
53	0xbc4f4906	-0.0126516875
54	0x3ca81713	0.020518815
55	0x3bc7f718	0.006102454
56	0xbce6d749	-0.028178828
57	0xbd42a735	-0.047522742
58	0x3d9e3bba	0.07726236
59	0xbd22bc63	-0.03973044
60	0xbd521217	-0.051286783
61	0xbdde95b0	-0.108683944
62	0xbb023d0c	-0.0019872813
63	0xbcef5f22	-0.029220168
64	0xbcefa15e	-0.02925175
65	0x3d0bc7d7	0.03412613
66	0xbb0bc99d	-0.0021329888
67	0x3d1a4f4f	0.03767329
68	0xbd25c3ca	-0.040469922
69	0x3dac448e	0.08411513
70	0x3b899e1f	0.0041997577
71	0x3d4c72dd	0.04991423
72	0xbc4d5a36	-0.012533715
73	0xbdd0fd20	-0.1020453
74	0xbcbe5120	-0.023232043
75	0x3c5e05d4	0.013551194
76	0xbd898146	-0.0671411
77	0xbd4ea955	-0.050454456
78	0x3d3abdbe	0.04559111
79	0x3c9651fb	0.018349638
80	0x3d9dc13b	0.077028714
81	0xbc9252ea	-0.017861802
82	0xbcd093b8	-0.025461063
83	0xbe5d63c5	-0.2162009
84	0x3bedbf5e	0.0072554788
85	0x3c9c3ff2	0.01907346
86	0xbd074e9b	-0.03303395
87	0xbca6d807	-0.020366682
88	0xbd3bea8e	-0.045877986
89	0xbd977d0e	-0.07396899
90	0x3d04ccf7	0.032422032
91	0x3c45cd1d	0.012072829
92	0x3b4319bf	0.0029769985
93	0xbd8540b4	-0.06506482
94	0xb9d7a9dd	-0.00041134554
95	0xbd9bcfcc	-0.076079935
96	0xbcf57b40	-0.029965997
97	0x3cb12afd	0.021626944
98	0x3bb4e0d3	0.005519965
99	0xbc9e584b	-0.01932921
100	0x3d417ca0	0.047237992
101	0x3be531f7	0.0069944817
102	0xbb358722	-0.0027698954
103	0xbdd9b9d6	-0.106311485
104	0xbd93f138	-0.07223743
105	0xbd98c116	-0.07458703
106	0x3d2dfe11	0.042478625
107	0xbdd64b81	-0.1046362
108	0xbcaa1eaf	-0.020766584
109	0xbd1cd002	-0.03828431
110	0x3d25cfc1	0.040481333
111	0xbd08f69d	-0.033438314
112	0x3cc49865	0.023998449
113	0xbd3462e6	-0.04403963
114	0x3cc9d92f	0.024639694
115	0xbda78313	-0.08179297
116	0xbd264c6a	-0.040600218
117	0x3d98d719	0.074629016
118	0x3b6cf5ce	0.0036157253
119	0x3cfe7b98	0.031064793
120	0xbd090179	-0.03344867
121	0x3d81dc97	0.06340902
122	0xbd245b96	-0.040126406
123	0x3be29ad0	0.0069154277
124	0xbd8dee61	-0.06930233
125	0xbd867d13	-0.06566825
126	0xbd89258d	-0.06696615
127	0xbcfa3b41	-0.030545833
128	0x3da0a631	0.078441985
129	0xbcb5bf49	-0.022185938
130	0xbc56ac3d	-0.013102588
131	0x3b13c1a3	0.0022545836
132	0xbdf00052	-0.11718811
133	0xbe0e79ec	-0.13913697
134	0xbcb059d8	-0.021527216
135	0x3dd50bc5	0.104026355
136	0xbc7c0c07	-0.015383727
137	0xbd2503be	-0.040286772
138	0xbd23f0d0	-0.04002458
139	0xbcfc2cd6	-0.030783098
140	0xbd078464	-0.033085242
141	0xbe288d3e	-0.1646013
142	0x3d038fc1	0.032119516
143	0xbd87943f	-0.066200726
144	0xbdd2f2e4	-0.10300234
145	0xbdfaf29f	-0.122533076
146	0xbd39896e	-0.04529708
147	0x3df95f5d	0.12176392
148	0x3cde5de5	0.027144382
149	0xbc28b30b	-0.010296593
150	0xbdf68548	-0.1203714
151	0xbe626f87	-0.22112857
152	0x3ce272c1	0.02764261
153	0x3d426d63	0.0474676
154	0x3c7a4335	0.0152748125
155	0xbc868a1f	-0.016423283
156	0x3ad55e98	0.0016278801
157	0xbdc1f5b3	-0.094706915
158	0xbde0d97c	-0.10978982
159	0xbdaa571d	-0.08317397
160	0xbdce0e4d	-0.100613214
161	0xbd45b005	-0.04826357
162	0x3dc73e3f	0.097286694
163	0x3d4d3a7b	0.0501046
164	0x3d1baafa	0.038004853
165	0x3d8ea318	0.069647014
166	0xbbe72d44	-0.0070549566
167	0x3d892c02	0.06697847
168	0xbdf5c0f6	-0.11999695
169	0x3d1ddde0	0.038541675
170	0xbd91b19c	-0.071139544
171	0x3d144dac	0.036206886
172	0x3b97b384	0.004629554
173	0xbd7df564	-0.0620016
174	0x3cf3bc95	0.029753009
175	0xbccde7d1	-0.025134953
176	0xbdd72b6c	-0.10506329
177	0x3bb8238e	0.005619473
178	0x3cd12b44	0.025533326
179	0x3d1a4cbf	0.037670847
180	0x3d225d23	0.039639603
181	0x3c9e3242	0.019311074
182	0x3d2de455	0.042454083
183	0x3cb833b9	0.0224856
184	0x3ddf943a	0.10916944
185	0x3c0552a5	0.00813738
186	0xbe0f69eb	-0.14005248
187	0xbdc4db6e	-0.096121654
188	0x3c0fec33	0.008784342
189	0xbd468eed	-0.04847615
190	0xbe574b28	-0.21024764
191	0xbd6c223b	-0.057649832
192	0x3d9fb971	0.07799042
193	0xbcc0392b	-0.02346476
194	0xbd63a7d1	-0.055579964
195	0x3d117bdf	0.035518523
196	0xbd937de1	-0.07201744
197	0xbdca5242	-0.09878971
198	0xbd5b738a	-0.053576984
199	0x3d8e5c2b	0.069511734
200	0xbe15dc5f	-0.14634846
201	0xbdace5c0	-0.08442259
202	0xbcf7ed46	-0.030264508
203	0xbcc27549	-0.023737567
204	0xbdddce9d	-0.10830424
205	0x3dac84f2	0.08423795
206	0x3dd02c2f	0.10164677
207	0xbd9b67d6	-0.075881645
208	0xbddd78d5	-0.108140625
209	0x3da5acc3	0.08089592
210	0xbda513bb	-0.08060404
211	0x3d179d40	0.0370152
212	0xbd21c556	-0.039494835
213	0x3d28293e	0.041054957
214	0x3d38698f	0.045022544
215	0x3d3bcad3	0.045847725
216	0xbda84164	-0.08215597
217	0x3c919ea0	0.017775834
218	0x3db21f82	0.08697416
219	0xb9d2041c	-0.00040057383
220	0x3d05d56f	0.03267425
221	0x3d87bd6c	0.06627926
222	0x3ce70c0f	0.028203992
223	0xbe081520	-0.13289309
224	0xbdc420be	-0.095765576
225	0x3dd4dc64	0.10393599
226	0x3d6a4d9f	0.05720293
227	0x3c9f2468	0.01942654
228	0xbdee6f93	-0.11642375
229	0xbbd3dd2c	-0.0064655747
230	0xbdb3a07c	-0.08770844
231	0xbd6a7612	-0.057241507
232	0x3d8b0de6	0.0678976
233	0x3da81725	0.082075395
234	0xbe29d4c5	-0.16585071
235	0x3d550992	0.05201108
236	0xbd2a2907	-0.041543033
237	0x3e04cf9e	0.12969825
238	0xbe466017	-0.19372593
239	0xbdbdbdc7	-0.09264713
240	0x3cf92566	0.03041334
241	0x3d4668dc	0.048439845
242	0x3c172c23	0.009226832
243	0xbc8331db	-0.016014984
244	0xbcfe0514	-0.03100828
245	0xbc979e6d	-0.01850816
246	0x3d4363a2	0.04770244
247	0xbd9c5c84	-0.076348335
248	0xbc37d32f	-0.011219784
249	0x3d25e9b7	0.04050609
250	0xbd592724	-0.053015843
251	0xbd311947	-0.043236997
252	0xbbe6b46e	-0.007040552
253	0xbd51a0cd	-0.051178742
254	0x3daa59ea	0.08317931
255	0x3d47d723	0.048789155

conv2.bias f4 [64]
0	0xbdf62126	-0.12018041
1	0xbdf0e808	-0.117630064
2	0xbd9502af	-0.072759025
3	0xbdea1666	-0.114300534
4	0xbda6823b	-0.08130308
5	0xbbde69ad	-0.0067875
6	0xbd92cfc1	-0.07168532
7	0xbdf845e5	-0.12122706
8	0xbdfd2dbe	-0.1236224
9	0xbdb35412	-0.087562695
10	0xbe0a1308	-0.13483822
11	0xbd081609	-0.03322414
12	0xbce64758	-0.028110191
13	0xbbaa0870	-0.005188994
14	0xbdafcbc9	-0.08583791
15	0xbda54ecb	-0.08071669
16	0xbd995aee	-0.074880466
17	0x3c561158	0.0130656585
18	0xbd8e262d	-0.06940875
19	0xbe0e38e2	-0.13888887
20	0xbcb6888f	-0.022281913
21	0xbe0517ac	-0.12997311
22	0xbe3e2128	-0.18567336
23	0xbe89d69d	-0.2692155
24	0xbd85119b	-0.064974986
25	0xbdce562f	-0.10075032
26	0x3ce559a1	0.02799684
27	0xbe4c47a5	-0.19949205
28	0xbd3b91d3	-0.045793366
29	0xbd6272f1	-0.055285398
30	0xbd56f549	-0.052480016
31	0xbded0e12	-0.11574949
32	0xbd9498d0	-0.07255709
33	0xbdaa8076	-0.08325283
34	0xbd5f3e4b	-0.054502767
35	0xbe143125	-0.14471872
36	0x3c72004b	0.014770578
37	0xbdb39676	-0.087689325
38	0x3d81ce0c	0.063381284
39	0x3d1c9869	0.038231287
40	0x3caea53d	0.021319026
41	0x3d9e409d	0.07727168
42	0xbe12fd3a	-0.14354411
43	0xbe21e109	-0.158085
44	0x3cd67026	0.026176523
45	0xbdd9d013	-0.1063539
46	0xbe090ab8	-0.13382995
47	0xbe0c1d06	-0.13682947
48	0xbd8e4f67	-0.069487385
49	0xbd99ed2a	-0.075159386
50	0xbdb46694	-0.08808628
51	0xbde773bc	-0.113013715
52	0xbe1a7adf	-0.15085934
53	0xbc854b6d	-0.016271317
54	0xbe0b4ab0	-0.1360271
55	0xbe0ac56b	-0.13551871
56	0xbde4678f	-0.11152565
57	0xbd2db84b	-0.042412084
58	0xbe2cb412	-0.16865566
59	0xbdb78fad	-0.08962951
60	0xbde0a0d9	-0.10968179
61	0xbdecbfb4	-0.11560002
62	0xbe17ffb0	-0.14843631
63	0xbdab0410	-0.08350384

conv3.weight f4 [64, 64, 3, 3]
0	0xbca55c74	-0.020185687
1	0x3c99e125	0.018784115
2	0x3d89e468	0.06733018
3	0x3ce4fdfa	0.027953137
4	0xbc543c51	-0.012953834
5	0x3bce84b6	0.0063024415
6	0xbd4a1f31	-0.049346153
7	0xbb39338e	-0.0028259489
8	0xbc1e1bd6	-0.009650191
9	0xbd59c744	-0.05316855
10	0x3c8701d5	0.016480366
11	0x3ddd1ef7	0.10796922
12	0xbc88463e	-0.016635057
13	0xbd5e7dde	-0.054319255
14	0x3d46e732	0.04856033
15	0x3d1071df	0.035264846
16	0xbbe9856b	-0.0071265004
17	0x3c0a0f0d	0.00842644
18	0xbc2d16f7	-0.010564557
19	0x3ca6e56c	0.020373069
20	0xbc562175	-0.0130695
21	0x3ae45a70	0.0017421972
22	0xbd7e9b52	-0.062159844
23	0x3dace296	0.08441655
24	0xbc2abcf2	-0.010421025
25	0xbced7e38	-0.02899085
26	0x3c982b14	0.018575229
27	0x3d968829	0.07350189
28	0x3d724da7	0.059156086
29	0xbc65a723	-0.014016899
30	0x3b90a8fb	0.0044146753
31	0xbb7d7618	-0.0038675126
32	0xbcf736c4	-0.030177481
33	0x3b7b715f	0.0038367135
34	0xbc8e3cca	-0.01736297
35	0x3db55149	0.088533945
36	0x3d6a7596	0.057241045
37	0x3be77f9a	0.007064772
38	0x3c0a8c51	0.008456306
39	0xbba37ee0	-0.00498949
40	0x3ba5ee32	0.0050637955
41	0xbd2ba407	-0.041904476
42	0x3c7878bc	0.015165504
43	0x3d46b817	0.048515406
44	0x3bf7dc65	0.007564115
45	0x3cee8adc	0.029118948
46	0xbc918a1b	-0.01776605
47	0x3d736f08	0.05943206
48	0xbd58f37f	-0.05296659
49	0x3b60a7ff	0.003427982
50	0x3d730f6f	0.05934089
51	0xbc915f7d	-0.017745728
52	0xbd09bf15	-0.033629496
53	0x3d866519	0.065622516
54	0x3b3c0bd7	0.002869358
55	0x3dbca605	0.09211353
56	0x3d10657c	0.035253033
57	0xbd55676e	-0.05210059
58	0xbd591529	-0.052998696
59	0x3d62c34a	0.055362023
60	0x3c6b03af	0.01434414
61	0xbd18167f	-0.03713083
62	0xbe03067b	-0.12795441
63	0x3c3d3eb6	0.011550596
64	0x3ce81779	0.028331505
65	0x3d0e96d9	0.03481183
66	0xbd75fef6	-0.060057603
67	0xbd8c3fd6	-0.06848113
68	0xbc8cd517	-0.017191453
69	0xbc929de4	-0.017897554
70	0x3d0bb74c	0.034110352
71	0x3c81058a	0.015749712
72	0x3c738bdf	0.014864891
73	0xbd6cf3a3	-0.057849538
74	0x3d33586a	0.04378549
75	0x3cec3547	0.028833998
76	0x3be00eb9	0.0068376926
77	0x3d8f7532	0.07004775
78	0xbd058e1a	-0.03260622
79	0x3d376dd9	0.044782493
80	0x3d4aa396	0.049472414
81	0x3d6ddebf	0.058073755
82	0xbd195163	-0.037431132
83	0x3bd2d51a	0.006434095
84	0x3d03e629	0.03220192
85	0x3c12700d	0.008937848
86	0xbd7f7b50	-0.06237346
87	0xbcd014cf	-0.025400547
88	0xbd0e66ee	-0.03476613
89	0x3da89b25	0.082327165
90	0x3d551d3e	0.05202984
91	0x3c088246	0.008331841
92	0xbc8f5c3a	-0.017500032
93	0x3d352ca3	0.044232022
94	0xbdaa749c	-0.08323023
95	0xbc4bd7ed	-0.012441617
96	0xbcbe5190	-0.023232251
97	0xbc21efea	-0.00988386
98	0x3d1e04d2	0.038578816
99	0x3c91da49	0.017804282
100	0x3d20be5b	0.039244037
101	0x3da556a3	0.08073165
102	0xbd64fbf6	-0.05590435
103	0xbd415624	-0.04720129
104	0xbd8d64d4	-0.06903997
105	0xbd0db1b4	-0.0345933
106	0xbd318f71	-0.043349687
107	0x3db3e00e	0.087829694
108	0x3cc6f997	0.024288936
109	0x3d342d02	0.043988235
110	0x3e0c7ced	0.1371953
111	0xbe00999e	-0.125586
112	0x3d2b95bc	0.041890845
113	0xbc50be8e	-0.012740744
114	0xbce1c8d5	-0.027561584
115	0x3d17412a	0.03692738
116	0x3d16b26d	0.036791254
117	0x3d5cd402	0.053913124
118	0xbc1fd7fe	-0.009756086
119	0xbd604695	-0.054754812
120	0x3d5512a3	0.052019726
121	0x3ce13743	0.027492171
122	0x3c46fc82	0.0121451635
123	0xbba8ff20	-0.0051573664
124	0xbd080b13	-0.033213686
125	0xbd484990	-0.04889828
126	0x3bba19f9	0.0056793657
127	0x3c8be3c1	0.017076375
128	0xbd46b4ec	-0.048512384
129	0xbd8e3647	-0.06943946
130	0xbd46d94f	-0.048547085
131	0xbc62de7d	-0.013846991
132	0x3ce33deb	0.027739486
133	0x3d007f7f	0.03137159
134	0xbd30ff9d	-0.04321252
135	0x3d987f35	0.07446138
136	0xbcb7d1d7	-0.022438927
137	0x3dc9f8bd	0.09861896
138	0xbd0ca6f3	-0.034338903
139	0x3d654462	0.055973418
140	0x3ab58608	0.0013849149
141	0x3b09060d	0.0020908148
142	0x3c451eef	0.012031301
143	0xbda1ea4e	-0.07906018
144	0xbb7cc932	-0.003857207
145	0x3c8d2f91	0.017234595
146	0x3ce8647d	0.028368229
147	0x3d9aea6f	0.07564246
148	0xbc83442f	-0.016023723
149	0xbe173dd8	-0.14769685
150	0xbbf35e42	-0.007427008
151	0xbce53a57	-0.02798192
152	0x3c9b2cec	0.018942319
153	0xbd885dd9	-0.06658525
154	0xb7de1abe	-2.6476915e-05
155	0x3cbed4f0	0.023294896
156	0xbd25764c	-0.04039602
157	0xbbfa710b	-0.0076428703
158	0x3cafedcb	0.021475693
159	0xbc9fc719	-0.019504117
160	0x3d4d2608	0.050085098
161	0xbd207ea3	-0.03918327
162	0x3dc2b88a	0.09507854
163	0x3d0841c2	0.033265837
164	0x3cc0d2b8	0.023537979
165	0xbc08fb3d	-0.008360681
166	0xbc9ac3d2	-0.018892203
167	0xbc85c10f	-0.01632741
168	0xba042852	-0.00050414086
169	0xbd56df4e	-0.052459054
170	0x3d2882f9	0.04114053
171	0xbdbe3576	-0.092875406
172	0xbaeab14f	-0.0017905625
173	0xbc2db17a	-0.010601396
174	0x3c33349e	0.010937838
175	0x39991fb1	0.00029206046
176	0x3cbf1ea4	0.02333004
177	0xbd2173ef	-0.039417204
178	0x3ceb79c5	0.028744588
179	0x3c8eeb67	0.017446233
180	0x3b844670	0.004036717
181	0xbdfdac81	-0.12386418
182	0x3d50fbdd	0.051021446
183	0xbd8264e2	-0.06366898
184	0x3d7310fd	0.059342373
185	0x3d0f3600	0.034963608
186	0x3b35898a	0.0027700388
187	0xbc53bcab	-0.0129234
188	0xbd5761ab	-0.052583378
189	0xbb85cf4c	-0.0040835496
190	0x3d0303be	0.03198599
191	0x3d8a2a60	0.06746364
192	0x3d87b040	0.06625414
193	0xbce88cdd	-0.028387481
194	0xbd34b022	-0.044113286
195	0x3c159ae2	0.009131165
196	0x3b916300	0.0044368505
197	0x3db6709b	0.089081965
198	0x3c8ad0dd	0.016945297
199	0xbdc95a7b	-0.09831711
200	0xbd8e8209	-0.06958396
201	0x3daf2e8e	0.085538015
202	0xbc9bd737	-0.01902352
203	0x3d12060d	0.0356503
204	0xbdab399b	-0.08360597
205	0xbad36590	-0.001612829
206	0xbbd3ed68	-0.00646751
207	0xbcd0180e	-0.025402095
208	0xbd0e6b72	-0.034770437
209	0x3d2c2859	0.042030666
210	0x3c5bdad9	0.013418877
211	0xbd1679fe	-0.036737435
212	0xbe0b7fd3	-0.1362298
213	0xbcd12201	-0.02552891
214	0x3d0f6c07	0.035015132
215	0x3d054d56	0.032544456
216	0xbd1be988	-0.03806451
217	0x3bbf1524	0.0058313776
218	0x3d434080	0.047668934
219	0xbbfbf555	-0.007689158
220	0xbcdb37e3	-0.026760047
221	0xbb87559f	-0.00413008
222	0xbd083799	-0.033256147
223	0xbd9ca368	-0.07648355
224	0x3d09f38b	0.033679526
225	0xbd17599c	-0.036950693
226	0x3d887c00	0.06664276
227	0x3dca1dd2	0.09868969
228	0x3d828856	0.0637366
229	0xbcaf8d74	-0.021429755
230	0xbcc92e20	-0.024558127
231	0xbd39ecfc	-0.04539202
232	0x3c7e8623	0.01553491
233	0x3d6ef352	0.058337517
234	0x3cf826d9	0.030291962
235	0x3df93d87	0.121699385
236	0xbc99de11	-0.018782647
237	0xbd5b3cce	-0.053524785
238	0xbd98f37e	-0.074683174
239	0xbca3d7f2	-0.020000432
240	0xbcd8f7ce	-0.02648535
241	0xbd04cbe9	-0.032421026
242	0xbb933c94	-0.0044933055
243	0x3b6b1d60	0.0035875663
244	0xbcbbd917	-0.022930665
245	0xbcf59b3d	-0.02998125
246	0x3d523174	0.051316693
247	0xbd39c875	-0.045357186
248	0xbc951f03	-0.018203264
249	0x3cd6d9e8	0.026226953
250	0xbc0363db	-0.008019413
251	0x3d15261a	0.03641329
252	0xbd87e6d3	-0.06635823
253	0xbd58551a	-0.052815534
254	0x3b6baf8f	0.0035962795
255	0x3daa368e	0.08311187

conv3.bias f4 [64]
0	0x3dd728eb	0.10505851
1	0x3e6a83af	0.22901796
2	0x3e5dedb3	0.21672706
3	0x3e8591e7	0.26087877
4	0xba98ece1	-0.0011667275
5	0xbe0cb67d	-0.13741489
6	0xbd3fd2c7	-0.046831872
7	0x3e468b63	0.1938911
8	0xbc5cdd84	-0.013480548
9	0xbd889fcd	-0.066711046
10	0xbd98fe9a	-0.074704364
11	0x3b527c00	0.0032117367
12	0xbcae20ad	-0.021255815
13	0xbc8a3d2f	-0.016874878
14	0x3d0bcefe	0.03413295
15	0xbdb9ca13	-0.09071746
16	0xbde08ac1	-0.10963965
17	0xbd4a31b5	-0.04936381
18	0xbe5c1a61	-0.21494438
19	0xbc72253e	-0.014779387
20	0xbd8df8f0	-0.06932247
21	0x3dfba706	0.122877166
22	0x3e13460c	0.1438219
23	0xbc187bc9	-0.009306856
24	0x3d85211b	0.06500455
25	0xbdb360c5	-0.08758692
26	0x3d82b0b9	0.063813634
27	0x3e80ca8c	0.2515453
28	0xbdcd60c4	-0.10028222
29	0xbc3f42d1	-0.011673645
30	0xbd1bad55	-0.0380071
31	0x3c068af9	0.008211845
32	0xbdba6bda	-0.09102602
33	0x3cb355cd	0.021891499
34	0xbd4ee478	-0.050510854
35	0xbd6f2e6d	-0.058393884
36	0x3cb184ba	0.021669734
37	0xbc639834	-0.0138912685
38	0x3d884a6e	0.06654821
39	0xbd507f6b	-0.050902765
40	0x3b4f9e5b	0.003168008
41	0xbdb7a10e	-0.089662656
42	0x3e819683	0.25310144
43	0xbdac5951	-0.08415473
44	0xbe51f638	-0.20504081
45	0xbe21f855	-0.15817387
46	0xbc34e17e	-0.01104009
47	0xbcd8313b	-0.026390662
48	0xbdda78d6	-0.10667579
49	0x3dae8ce8	0.085229695
50	0x3cc6b494	0.024256028
51	0xbde3a572	-0.111155406
52	0x3df8da0f	0.121509664
53	0xbdaab59d	-0.08335421
54	0xbd1cccca	-0.03828124
55	0xbcb5099b	-0.022099307
56	0xbdddc834	-0.10829201
57	0x3dd2157b	0.10258003
58	0xbd68d319	-0.056841943
59	0xbd26e2c9	-0.040743623
60	0xbdafb259	-0.08578939
61	0xbd17edc8	-0.037092
62	0xbc3f6128	-0.011680879
63	0xbce8e17b	-0.02842783

fc1.weight f4 [32, 64]
0	0xbdcbc4f6	-0.09949677
1	0xbde6ca3e	-0.112690434
2	0xbda0d8b2	-0.07853831
3	0xbd06db28	-0.032923847
4	0xbc5ff5d0	-0.013669446
5	0x3d994d48	0.07485443
6	0xbd861738	-0.065473974
7	0xbdad93a4	-0.08475426
8	0x3da712b2	0.08157863
9	0x3da662de	0.08124326
10	0x3cec5310	0.028848201
11	0xbd98f942	-0.07469417
12	0xbb812a80	-0.003941834
13	0x3be5bc20	0.0070109516
14	0xbcb6c4b0	-0.022310585
15	0xbc1037e0	-0.008802384
16	0xbdf5368e	-0.11973296
17	0x3daa9da4	0.08330849
18	0x3d5789f8	0.05262181
19	0xbcf39388	-0.029733434
20	0x3d9fb9d6	0.07799117
21	0xbdb9bab4	-0.09068814
22	0xbdebea40	-0.11519289
23	0x3bae3800	0.0053167343
24	0xbcb60458	-0.022218868
25	0xbdd55576	-0.10416691
26	0xbdb25da8	-0.0870927
27	0xbdad9f68	-0.0847767
28	0xbcc9fe88	-0.024657503
29	0xbbb52460	-0.005528018
30	0x3d9c6966	0.07637291
31	0xbd2803ec	-0.041019365
32	0x3dbe55b0	0.09293687
33	0x3d1abe80	0.03777933
34	0xbd31dd6c	-0.043424055
35	0xbdb0bcb8	-0.08629745
36	0x3ddc2218	0.1074869
37	0xbde0a788	-0.10969454
38	0xbdb15526	-0.08658819
39	0xbd430624	-0.047613278
40	0x3df77de8	0.120845616
41	0xbca3c7c8	-0.019992724
42	0xbcc3e318	-0.023911998
43	0xbdc53de6	-0.09630947
44	0x3cb7e7b0	0.022449344
45	0xbdab0862	-0.08351208
46	0xbd2579d4	-0.040399387
47	0xbd283574	-0.041066602
48	0x3dbf8d28	0.09353095
49	0xbdf71ba4	-0.12065819
50	0xbb494f80	-0.0030717552
51	0xbdb3b7b4	-0.08775273
52	0xbd6196cc	-0.05507545
53	0x3c9f39b0	0.019436687
54	0xbd35fce0	-0.044430614
55	0xbd186bf4	-0.037212327
56	0xbd1f7e0c	-0.038938567
57	0x3c8ddb98	0.017316625
58	0x3dc6eb0a	0.09712799
59	0xbd64f25c	-0.055895194
60	0xbd489de0	-0.048978686
61	0xbd890536	-0.06690447
62	0x3dd74cba	0.10512681
63	0xbdfdd836	-0.123947546
64	0xbd3505b6	-0.0441949
65	0xbda3acf5	-0.07991973
66	0x3d1555cb	0.03645877
67	0x3dcec3aa	0.10095914
68	0xbd466796	-0.04843863
69	0x3aad4f50	0.001322249
70	0xbba65b94	-0.005076835
71	0xbd4df022	-0.050277837
72	0x3dbb11b7	0.09134238
73	0xbd1613ea	-0.036640085
74	0xbdd39343	-0.10330822
75	0x3d9356c5	0.07194284
76	0xbda3e089	-0.08001811
77	0x3d3abe54	0.045591667
78	0x3c8e68b4	0.01738391
79	0xbd97b9b0	-0.07408464
80	0x3d9ea67b	0.077465974
81	0x3e33a8e8	0.17544901
82	0xbe3b7619	-0.1830677
83	0xbdefc7d5	-0.11708037
84	0xbdfca1fd	-0.12335584
85	0xbd96ec2c	-0.07369265
86	0xbc360c59	-0.011111342
87	0x3dbf6c97	0.09346884
88	0x3e5c9507	0.21541224
89	0xbd6bf75e	-0.057608955
90	0x3e2c1202	0.16803744
91	0xbd8c2706	-0.06843381
92	0x3d859297	0.065221004
93	0xbca8d5d3	-0.020609772
94	0x3dd1d7b8	0.10246223
95	0x3be6406e	0.0070267236
96	0xbd5a3815	-0.05327614
97	0xbdbef6dd	-0.09324429
98	0x3d33d75a	0.043906547
99	0xbe2a8a80	-0.16654396
100	0x3e4c45fe	0.19948575
101	0xba9806c1	-0.0011598693
102	0xba03f3d4	-0.00050335866
103	0xbd968677	-0.07349866
104	0xbde9c72e	-0.11414944
105	0x3c9daf17	0.019248528
106	0xbd3480df	-0.044068214
107	0x3defb8a1	0.11705137
108	0xbd1eecca	-0.03880004
109	0xbdc3684b	-0.09541377
110	0x3d5501d7	0.052003708
111	0xbd8846da	-0.06654139
112	0x3d114da8	0.03547445
113	0xbdff88b7	-0.12477248
114	0x3b8c0090	0.004272528
115	0xbdaa54db	-0.08316966
116	0x3cee33e5	0.02907748
117	0xbcf9cb33	-0.0304924
118	0xbd997e8b	-0.07494839
119	0x3e19c1ca	0.15015331
120	0xbd4ebfdb	-0.050475936
121	0x3d02d194	0.03193815
122	0xbde75f8c	-0.11297521
123	0xbd61e3cb	-0.05514888
124	0xbd9005d1	-0.070323594
125	0xbd846ca8	-0.06466037
126	0xbd05c416	-0.032657705
127	0x3e0bf603	0.13668065
128	0xbdb450a0	-0.088044405
129	0xbc1c870a	-0.00955368
130	0x3d954481	0.07288457
131	0xbb96455c	-0.004585905
132	0xbdf318fc	-0.1187
133	0xbcbd66ba	-0.023120273
134	0xbd5dc9c4	-0.054147497
135	0xbd060f27	-0.032729294
136	0x3da14c64	0.078758985
137	0xbcd48d29	-0.025946217
138	0x3d4d38dc	0.050103053
139	0x3e183fec	0.14868134
140	0xbdc85f07	-0.0978375
141	0xbe0de070	-0.13855147
142	0x396ec6db	0.00022771528
143	0x3db772e9	0.08957464
144	0x3ca8fffb	0.020629873
145	0xbda2032d	-0.07910762
146	0x3d815257	0.06314533
147	0xbc94a03d	-0.018142814
148	0xbde937f5	-0.11387626
149	0xbb7ae5be	-0.003828391
150	0x3d146180	0.036225796
151	0x3c415f9f	0.011802583
152	0x3db592b0	0.08865869
153	0xbe17cd51	-0.14824416
154	0x3de12cd2	0.10994877
155	0xbd325d2c	-0.043545887
156	0xbdf74e78	-0.120755136
157	0xbc5cc57d	-0.013474819
158	0x3d50d294	0.050982073
159	0xbd940907	-0.07228284
160	0xbca969e6	-0.02068038
161	0x3d498075	0.04919477
162	0xbdb17728	-0.086653054
163	0xbe3c0ffe	-0.18365476
164	0x3e2bbe76	0.16771874
165	0xbd9f454c	-0.07776889
166	0x3dff5dc8	0.12469059
167	0x3e5191ea	0.20465818
168	0x3df9493c	0.121721715
169	0x3989618d	0.00026203357
170	0x3dac9f23	0.084287904
171	0xbbb7a94c	-0.0056048986
172	0xbdde99b2	-0.10869159
173	0xbc81805a	-0.015808273
174	0x3c609876	0.0137082245
175	0x3be7744d	0.0070634247
176	0xbe3523e7	-0.17689477
177	0x3d884d72	0.066553965
178	0xbce9d067	-0.028541757
179	0x3c524c89	0.01283563
180	0xbcc4bcb5	-0.024015764
181	0x3d8d33ef	0.06894671
182	0x3d2b5ae7	0.041834738
183	0xbcdd7d26	-0.027037214
184	0xbad84020	-0.0016498603
185	0x3d831cd3	0.06401982
186	0xbd53597f	-0.051599022
187	0x3d512d89	0.051068816
188	0xbd24f10d	-0.040268946
189	0x3d7bad70	0.0614447
190	0xbdaeda48	-0.085377276
191	0xbdf8443c	-0.1212239
192	0xbe139b02	-0.144146
193	0x3d7ccf60	0.061721206
194	0xbda26774	-0.07929888
195	0x3d79c7bf	0.06098151
196	0xbcc3eda9	-0.023917036
197	0x3d989dd0	0.07451975
198	0xbb71be1d	-0.0036886998
199	0x3d6c9b00	0.057765007
200	0xba930c90	-0.0011218954
201	0x3c83e769	0.016101556
202	0x3c10eafa	0.008845085
203	0xbd81cbac	-0.063376755
204	0xbdc0993a	-0.09404226
205	0xbd910483	-0.07080939
206	0xbb4c2c98	-0.003115451
207	0x3d3d80c2	0.04626537
208	0xbe013a40	-0.12619877
209	0xbced52d5	-0.028970161
210	0x3db09ace	0.08623277
211	0xb9bf7277	-0.00036515642
212	0xbd34e9ea	-0.04416839
213	0x3cb5bb99	0.02218418
214	0x3d02af71	0.031905595
215	0x3d55c5c0	0.052190542
216	0xbc69d9a0	-0.014273077
217	0xbd833491	-0.064065106
218	0xba28494a	-0.00064196123
219	0x3d475726	0.048667096
220	0xbd9f9598	-0.077922046
221	0xbe11294f	-0.14175914
222	0xbdefc622	-0.11707713
223	0x3d88b6f7	0.06675523
224	0x3d09fd49	0.033688817
225	0x3d7dc7ab	0.061957996
226	0xbd8dcf28	-0.069242775
227	0x3d3394fb	0.04384325
228	0x3b1665cc	0.002294886
229	0xbdafcdca	-0.08584173
230	0xbde06310	-0.10956395
231	0xbd694c59	-0.056957576
232	0xbdbac175	-0.0911893
233	0xbcd78bc3	-0.02631176
234	0xbe0e1e59	-0.13878764
235	0x3c60242d	0.0136805
236	0xbb4d91af	-0.0031367352
237	0x3ccffd47	0.025389327
238	0xbd50b4a0	-0.050953507
239	0xbd28928c	-0.041155383
240	0xbd0cef60	-0.034407973
241	0x3d8a4644	0.06751683
242	0xbc7a9fc4	-0.01529688
243	0xbde8cdb8	-0.11367363
244	0x3d62cfaa	0.055373825
245	0xbd8c2ba0	-0.06844258
246	0xbde53ba8	-0.11193019
247	0xbe0b3403	-0.1359406
248	0xbdf6f84b	-0.12059077
249	0x3d42e1ce	0.047578625
250	0x3d071d39	0.032986853
251	0xbe0b6505	-0.13612755
252	0xbdb7c1df	-0.08972525
253	0x3d7e92c4	0.062151685
254	0x3d83b59b	0.06431123
255	0x3d9cdb2d	0.07658992

fc1.bias f4 [32]
0	0x3d9ce03c	0.07659957
1	0x3c591b91	0.013251201
2	0xbd56e128	-0.05246082
3	0x39586098	0.00020635349
4	0x3ca53ab5	0.020169595
5	0x3cbd6ca5	0.023123095
6	0x3e9a5843	0.30145463
7	0x3dcb659c	0.0993149
8	0xbd157ff0	-0.036498964
9	0x3d0f9728	0.035056263
10	0x3e632de0	0.22185469
11	0xbb604989	-0.0034223518
12	0x3e54cdd8	0.20781648
13	0xbdcbe3fa	-0.099555925
14	0xbe0c5961	-0.1370597
15	0x3d5446f7	0.05182549
16	0xbd83379a	-0.064070895
17	0x3dd0242b	0.101631485
18	0x3da74f05	0.08169369
19	0x3e79f001	0.2440796
20	0x3db5845a	0.08863135
21	0x3e312258	0.17298257
22	0x3bcf4d9d	0.006326391
23	0xbd86a3bc	-0.065741986
24	0x3ddd4066	0.10803299
25	0x3e21cd66	0.1580101
26	0x3e0ae17f	0.13562582
27	0x3dd1e98e	0.10249625
28	0xbdb62645	-0.08894018
29	0xbedc21de	-0.4299459
30	0x3ea08ecb	0.31358942
31	0xbd9c27ea	-0.076248005

fc2.weight f4 [2, 32]
0	0xbda2c9f8	-0.07948679
1	0x3de1822a	0.11011155
2	0x3de5d343	0.112219356
3	0xbdddc98d	-0.108294584
4	0xbd447977	-0.0479674
5	0xbc8506be	-0.016238566
6	0x3dae6ef6	0.08517258
7	0x3d0c8036	0.03430196
8	0x3e2b4077	0.1672381
9	0xbdca1e3f	-0.0986905
10	0x3cc4c9f7	0.024022086
11	0xbbbcfd62	-0.0057675103
12	0x3dcb2986	0.09920029
13	0xbdfdbce6	-0.12389545
14	0x3ccd26a3	0.025042837
15	0xbcb975f4	-0.022639252
16	0xbd8d8328	-0.06909782
17	0xbe2718b8	-0.16318023
18	0x3db2afc9	0.087249346
19	0x3cc74e7a	0.024329413
20	0xbb191783	-0.0023359961
21	0x3de04c64	0.1095207
22	0x3cf0998c	0.029370092
23	0x3c4b2189	0.012398132
24	0xbded5f36	-0.11590426
25	0xbd98ed0d	-0.07467089
26	0xbe3cb997	-0.18430172
27	0x3d10399a	0.035211183
28	0xbdd2416a	-0.10266383
29	0xbd35a753	-0.044349026
30	0x3ddbb8d0	0.107286096
31	0xbd33b960	-0.04387796
32	0xbe34d89a	-0.17660752
33	0x3ab14de7	0.0013527245
34	0x3d408cb0	0.04700917
35	0x3e13acd0	0.14421391
36	0xbd8afb29	-0.06786186
37	0xbaf67f08	-0.0018806169
38	0x3d57b918	0.052666754
39	0x3a35ba43	0.0006932357
40	0x3cb5edd8	0.02220814
41	0x3cfc3b23	0.030789917
42	0xbda976e2	-0.08274628
43	0xbc92394d	-0.017849589
44	0x3d91be21	0.07116342
45	0xbd8bfd67	-0.06835442
46	0xbc3cb704	-0.011518244
47	0x3cd6ff29	0.026244717
48	0x3bfe9681	0.0077694063
49	0xbc91e434	-0.017809011
50	0xbe09ffd7	-0.13476501
51	0x3d1ae4c3	0.03781582
52	0xbe354776	-0.17703041
53	0x3e18c08d	0.14917202
54	0xbdfeb47f	-0.12436771
55	0xbe0e9eb9	-0.13927735
56	0xbb8a4d7c	-0.0042206626
57	0xbe1b1a1c	-0.15146679
58	0x3c80337c	0.01564955
59	0x3d4d531d	0.05012809
60	0xbd7e27b2	-0.062049575
61	0xbd2c7522	-0.042103894
62	0x3dc9d437	0.0985493
63	0xbd6a94ce	-0.057270817

fc2.bias f4 [2]
0	0x3ebfc116	0.37452
1	0x3dd38155	0.103274025
