latest.pth (torch, 231406 bytes, 22 tensors)

conv1.weight f4 [32, 1, 8, 8]
00000000: 9314 b83c 2eb5 4f3d 385b a43c c531 823d
00000010: d578 13bd 0cd5 11be beaa c63d e6be 743d
00000020: 1247 2dbd c898 84bd d75d 993d 2e62 b53c
00000030: 9535 03be 88fe 073c d6f5 943c 19e5 ca3d
00000040: 4ca3 c13c 5f8a 4e3d f90f bbbc 00b2 02ba
00000050: b02f f8bc 0df6 abbd eed0 333d 5d8a 0c3e
00000060: cedb 9a3d f426 e53d afae 84bd 4cfc b73c
00000070: 40f9 87bd f12b 053d 2837 fb3c 8e53 77bb
00000080: 2ddc d3bb 4366 963b 3ba1 d63d 00d2 9ebd
00000090: 5845 59bb 069e a0bd d959 f0bc a602 383e
000000a0: 31c2 12bc fdb5 ac3b b368 1f3d c3d5 36bd
000000b0: 0fcd e5bd e591 78bd f551 41bd d81a 33bb
000000c0: 191e 893d 6590 c33d 6bea cbbd 4e7c 63bc
000000d0: 5b56 a8bc 3903 40bd 5e6e 48bd f9c0 2f3e
000000e0: 7215 68bd 4f37 f43d 9bed 9c3d 6982 e33c
000000f0: b1fe b2bd 59e8 0abe 27d0 ac3d 200d 2b3e
00000100: 7569 b7bd e523 0c3d 0dcd 7bbb 7c15 1d3c
00000110: d925 b4bd d1b7 98bd 1048 0ebd acfe 7f3c
00000120: 11bb 20bc 2009 04bc 12e4 83bd a66f 9bbc
00000130: 12bf 2c3d 565b 71bd 9736 7ebd a2cd 313c
00000140: 3166 1d3c b276 d73d 84f5 25bd f1f4 f1bd
00000150: c747 97bd 3910 dcbd 4298 afbd 4e99 ba3d
00000160: 6ae7 b63d 1d02 0fbc 22bd 773d f12e 22bd
00000170: 0d84 8e3d eb9d 52bc 3019 1cbd 802c db3d
00000180: 8c98 dc3c b4e1 ba3c 4855 293c c369 7dbd
00000190: b8c8 493d c116 c8bc d6bf b03b 211f e6bc
000001a0: 9c48 cabd f66d a6bd de56 a53d 6abb 993d
000001b0: c0fc 03be 9aa4 9fbd 7391 18bd 102f cd3d
000001c0: 6ada 9cbd a739 b9bd 7cc1 fcbc 8938 673d
000001d0: d0e3 da3d 7b7e 993d 3642 ba3c 8fce 07be
000001e0: ac0a ffbd 49bb a63d 50f2 e2bd 8492 c73d
000001f0: fdac 0bbe 8088 92bc e567 44bd 9aa0 debd
00000200: 2a2b 393d 68d3 d8bc 9052 1ebc db03 aa3d
00000210: 9eff a93d feb1 d33d d91b a3bd e9e6 51bd
00000220: a969 913d f5e3 1cbe 18ee 9bbd 2c0c 983d
00000230: 2c1c ae3c 4ce2 f63d a986 d43d d629 7a3d
00000240: 9dc5 353d 0394 aebd 6b45 733d 9763 a03b
00000250: f620 61bd 5909 94bc 0b97 c4bd 597e 3d3d
00000260: a91b 103d ec5f 12be e899 9c3d 418a aabb
00000270: ac03 73bb e449 ac3d 2be7 e0bd dcc8 0c3d
00000280: 9c8b 1abe 08a7 69bd 3ff6 edbd 3899 d63d
00000290: 7ef9 b1bd 72cf 203e f00e d63d cb6a 7b3d
000002a0: c85f 00bd 0457 a63d b956 1abe d47e 86bd
000002b0: 6a02 843d a7ca 103e 4064 ea3d 0eb7 20bd
000002c0: 66b0 febd 02fa a43d 4e70 883d 78e5 2fbd
000002d0: 3bd6 193d 77d7 303d bbf3 00bd 6464 0bbe
000002e0: 6781 36bd be91 133d 2332 8abd ca1f c93d
000002f0: f2ca b4bd 0619 cf3d a68a f9bc a8ee 0cbd
00000300: 5136 ba3d 5319 98bd 497b 6e3d 324a b0bd
00000310: a7fe 383c 5d50 983d 399d 093d 7cc8 1d3e
00000320: 7b17 f53d 68c0 51bd 8944 04bb 24e3 ccbb
00000330: bbe9 99bd c53c 053e 1235 933d f93e 0e3d
00000340: e922 b93a 684b a83d f0e8 a23c 6f67 22bb
00000350: f61c 38bd d9aa 203e 22d6 f83c 56e3 333e
00000360: ad2a e73c 934f adbd 20c8 743d 42ab ecbd
00000370: 1505 93bb 52c0 3a3d c7c2 b33b d216 313d
00000380: a4eb 823c db84 ffbc f0eb 62bd 0d4a b5bc
00000390: 4ae5 eabd edda 16bc 230b 823d a82d e43d
000003a0: 0ea6 69bd c9ab 8e3d 2bef b7bd 4932 64bc
000003b0: aa55 003d ee07 d13c b23a ef3d f691 8b3d
000003c0: ee00 01bd 879e 793d 1e59 d9bd 8d55 e7bd
000003d0: 1d35 fa3d c29f 47b9 46e4 0e3e d60e 523d
000003e0: 36fe 753d a499 023d 9e71 7cbd 4876 c1bd
000003f0: 1a7a 6cbd 7f1d 2b3d 1843 bc3d 5362 c13d
0.022470748 0.050709896 0.020063028 0.06357149 -0.036003906 -0.14241427 0.09700535 0.059752367
-0.042304106 -0.06474453 0.07488602 0.022141542 -0.12813409 0.008300431 0.01818363 0.09906978
0.023637436 0.05042493 -0.022834765 -0.00049856305 -0.030296177 -0.0839654 0.043900423 0.13724656
0.07561456 0.1118907 -0.06478631 0.022459172 -0.066393375 0.03251261 0.030665949 -0.0037739011
-0.006465456 0.0045898273 0.10479971 -0.07754898 -0.0033152904 -0.078426406 -0.029339718 0.1796976
-0.008957432 0.005270718 0.03891821 -0.044637453 -0.112207524 -0.06068601 -0.0471973 -0.0027329233
0.06695194 0.095490254 -0.09956821 -0.013884617 -0.02054899 -0.046878073 -0.04893338 0.17163457
-0.056661077 0.11924612 0.07662507 0.027772145 -0.08739985 -0.13565196 0.084381394 0.16704226
-0.08955661 0.03421392 -0.003842178 0.009587642 -0.08796281 -0.07456935 -0.034736693 0.015624683
-0.009810225 -0.008058816 -0.06439985 -0.018974137 0.042174406 -0.058924995 -0.06206378 0.010852249
0.009606884 0.10520686 -0.040517345 -0.11814297 -0.07386737 -0.10745282 -0.08573963 0.09111272
0.089308575 -0.008728531 0.060483105 -0.039595548 0.069587804 -0.012855033 -0.03810996 0.10701847
0.026928209 0.022812702 0.010335274 -0.06186844 0.049263686 -0.024424912 0.0053939624 -0.028091015
-0.098771304 -0.08126442 0.08073209 0.075064495 -0.12889385 -0.07795067 -0.037248086 0.10018742
-0.07658847 -0.090441994 -0.03085398 0.0564504 0.10687983 0.07494827 0.02273665 -0.1326239
-0.124532074 0.081411906 -0.11081374 0.097447425 -0.13640209 -0.017887354 -0.047950644 -0.10870476
0.04520718 -0.026467994 -0.009663239 0.083015166 0.08300708 0.10336684 -0.07964296 -0.051245604
0.07100231 -0.15321334 -0.07613772 0.074241966 0.021253668 0.120548815 0.10377247 0.061075054
0.04437791 -0.08524325 0.059392374 0.0048946845 -0.054963075 -0.018070864 -0.09599122 0.046263073
0.03518263 -0.14294404 0.07646543 -0.0052044694 -0.0037081046 0.08412531 -0.10981592 0.034371242
-0.15092319 -0.05704406 -0.11619233 0.10478443 -0.08690165 0.15704134 0.10452068 0.061381143
-0.031341344 0.08122066 -0.15072145 -0.06567159 0.06445773 0.14139806 0.114449024 -0.039237075
-0.12435989 0.08055498 0.066620454 -0.042943448 0.03755782 0.043174233 -0.03148244 -0.13612515
-0.044557 0.036027662 -0.06747844 0.098205164 -0.08827771 0.10112195 -0.03046162 -0.034407288
0.09092391 -0.07426705 0.058223043 -0.08607902 0.011291183 0.07437203 0.033597205 0.1540851
0.11967369 -0.051208884 -0.0020182452 -0.006252663 -0.07515284 0.13011463 0.07187857 0.034728024
0.0014124784 0.082175076 0.019886464 -0.002478089 -0.044949494 0.15690173 0.030375544 0.1756719
0.028218592 -0.08462443 0.059761167 -0.11556102 -0.00448669 0.045593567 0.0054858658 0.043234654
0.015981503 -0.03119128 -0.05540079 -0.022130037 -0.11469515 -0.009207469 0.063497804 0.11141521
-0.057043128 0.06966359 -0.089811645 -0.013928005 0.031331696 0.025516476 0.11681117 0.06814949
-0.031495027 0.0609422 -0.10612701 -0.112956144 0.12217162 -0.00019037633 0.13954267 0.05128368
0.060056888 0.031884804 -0.06163179 -0.094463885 -0.057733633 0.041776177 0.091924846 0.09442582

conv1.bias f4 [32]
00000000: 8f80 ca3c 13b2 483d 238e 8a3d 8787 e3b9
00000010: 659a d83d 2eeb 9c3d 36a1 033b 7fda f6bc
00000020: 6537 eb3d 1a2b 5e3a 7ae1 823d c749 e5bd
00000030: 776f ec3d 3727 b23c be12 333d 0aac abbc
00000040: d014 57bc a3d3 d93d d148 543d 832e 66bd
00000050: e8f7 50bc 0121 783d 954d b23d 6287 083d
00000060: 0a7a 86bd 0539 ecbd 77f1 32bd b431 1e3d
00000070: 6181 e43d ece8 8f3d 4e71 7ebd aa6c a33c
0.024719505 0.04899795 0.06765392 -0.0004339779 0.105763234 0.076620445 0.0020085103 -0.030133484
0.11485175 0.00084750506 0.063906625 -0.111957125 0.11544698 0.021747215 0.043719046 -0.020956058
-0.013127521 0.106360696 0.051827256 -0.0561967 -0.012754418 0.06057835 0.08706204 0.033332236
-0.06566246 -0.11534313 -0.04368731 0.03862162 0.111574896 0.07026848 -0.062119775 0.019949276

bn1.weight f4 [32]
00000000: 6f8b 813f 284d 823f 61d8 7d3f e6e1 843f
00000010: 0640 823f c2aa 813f c2ff 803f 8a25 803f
00000020: bbfd 7a3f cddd 7c3f 2a2a 763f fbc2 833f
00000030: a60b 813f e9ed 763f 200a 803f 36bc 753f
00000040: 18c1 823f f2ec 763f f5e1 7a3f 7966 803f
00000050: ebaf 863f 7b6a 763f 27c6 803f 5f95 803f
00000060: 5cd0 813f c258 7a3f 874f 853f 87e6 7f3f
00000070: 1b7d 843f baae 833f 218f 763f 1701 763f
1.0120677 1.0179796 0.99158293 1.0381439 1.0175788 1.0130236 1.0078051 1.0011456
0.9804341 0.9877594 0.9615809 1.0293878 1.008168 0.9645677 1.000309 0.9599031
1.0215178 0.964553 0.98001033 1.0031272 1.0522436 0.96256226 1.0060471 1.0045584
1.0141711 0.97791684 1.0414895 0.9996113 1.0350679 1.0287697 0.9631215 0.9609541

bn1.bias f4 [32]
00000000: 7211 f43b 870b d93c 571a 0ebd 29be cdbc
00000010: fb88 aebc e8a3 813d 4334 a23c c66c fd3a
00000020: 6c82 57bc 6700 3b3d 6a8d eebc 4423 253d
00000030: d82b 5c3d b401 9b3c 6dfc de3c 1ea2 8abc
00000040: 5788 363d 44ea b5bc 7ea6 0bbd ca24 71bb
00000050: b9e8 3d3d 3254 473c 6bcc 64bd 58f2 f63c
00000060: f6f1 26bb 78cc cf3c f471 f93c 50da 133b
00000070: 718f 843d 45e4 3b3c 6526 e03b 7499 273d
0.0074483687 0.026494754 -0.03469309 -0.02511509 -0.021305552 0.06330091 0.019800311 0.0019334785
-0.013153654 0.04565468 -0.029120166 0.040316835 0.05375275 0.01892171 0.027219975 -0.016923007
0.044563618 -0.022206433 -0.034094326 -0.003679561 0.04636452 0.01216607 -0.05585901 0.030144855
-0.002547381 0.025366053 0.030449845 0.0022560544 0.06472672 0.011467998 0.0068405145 0.04091783

bn1.running_mean f4 [32]
00000000: 26c2 0840 8bc5 4cc0 1670 183f 007e 3d40
00000010: fb8b b7bf 1b07 b7c0 2242 3b40 eb75 e83f
00000020: f5c2 de40 3815 b240 cae7 ea40 60be 0ec0
00000030: 0179 ebbe c884 5b40 8249 3b40 0e72 05c0
00000040: 497f 3e40 8872 12c0 59b5 133e e262 ac40
00000050: 83ed 24c0 28df 7140 7dab 3740 ea69 ae40
00000060: 3ef2 ecbf 3dd6 503f b0a6 44c0 8826 c4bf
00000070: 5c89 a5c0 82d8 0b3e 55dc d4bd 48b8 b2bd
2.1368499 -3.199557 0.5954603 2.9608154 -1.4339594 -5.7196174 2.9259114 1.8160986
6.9612985 5.56509 7.3407946 -2.2303696 -0.45990756 3.4299793 2.9263616 -2.0850863
2.9765189 -2.2882404 0.14424647 5.3870707 -2.5769966 3.7792454 2.8698418 5.450429
-1.8511426 0.815769 -3.0726738 -1.5324259 -5.1730175 0.1365681 -0.103935875 -0.08726555

bn1.running_var f4 [32]
00000000: 0fef 2f43 3795 2443 528f 8543 2b1d 8a43
00000010: 3f4f 3143 a092 b243 c03b 4c43 022d 4e43
00000020: 3680 fe43 760c d043 b925 f343 cfa1 fb42
00000030: f743 d142 b13d 9243 2bb3 af43 e7d3 2943
00000040: 9745 ac43 12bb 2443 6395 dd42 f5d2 8e43
00000050: 9559 c542 7a02 4d43 64d2 9243 a86d 9a43
00000060: 2822 3c43 aa20 2643 cbd7 4643 5167 db42
00000070: f627 8d43 abb8 a843 34f3 3143 f616 4f43
175.93382 164.58287 267.1197 276.22787 177.30956 357.1455 204.2334 206.17581
509.00165 416.09735 486.2947 125.81603 104.632744 292.48196 351.39975 169.82774
344.54367 164.73074 110.79177 285.6481 98.674965 205.00967 293.64368 308.8567
188.13342 166.1276 198.84294 109.70179 282.3122 337.44272 177.95001 207.08969

conv2.weight f4 [64, 32, 4, 4]
00000000: ec54 73bc e9c8 143c ed91 27bc 67ab 403c
00000010: cb04 783c d897 0fbd 095d cd3c 843e 113c
00000020: cdcc c2bb 74aa 2e3d 4110 343c 580c a3bc
00000030: e3d6 63bd 40c1 26bd ed7d dc3c 2407 1fbd
00000040: 569f 44bd d8aa 223c e5e9 44bd 2f67 77bd
00000050: ff7d 583c 178c ac3d f6e7 95bc 5948 313d
00000060: 02b4 f73c f007 fe3c a3ea 3abc fa92 aabc
00000070: 903b 253d 8d5b 89b9 9242 d43c 97c9 10bd
00000080: a10f 2c3d 8138 efbc 64a7 553c aa7d 213c
00000090: 8e31 bebc a4c3 7a3c e81f ebbb 57a6 e8bc
000000a0: 0494 adbc 97b1 1fbc 3b59 ffbc 35cd 42bb
000000b0: 20c1 a53c a1e9 23bc 3852 a7bc 17a0 0fbd
000000c0: 2afc b1bb 2367 443c e66b 533d 3905 84bc
000000d0: 5f4e 02bd f09b 2e3d 0ec9 c1bc b251 2c3c
000000e0: f22c eb3c 8c88 4a3c 958a 373d ebef f1bc
000000f0: 103e 29bc 4bd8 e03b c94f a43c 2de9 b7bc
00000100: be9e 1b3b 043f 38bc 9c69 20ba 0256 20bd
00000110: ee15 75bc d453 983c 4227 f43a 3154 a7bc
00000120: 3102 9abd 84a9 0f3b e29d 033b cd4c 39bd
00000130: f31f 773c 5868 2d3d 1079 b0bc aabb e13c
00000140: 4957 323c a55c 803b 10cc e7bc 1ec1 d83c
00000150: 70cd b1bc 296b 193d ba28 813c c78e 1dbc
00000160: f651 d93c 2e7a 46bd 1b7f 59b9 61f9 463d
00000170: 9bb3 6e3b 1d46 f93c d220 d33c ee6e 3d3c
00000180: 7eed 123d 8c90 c33c 69f5 78bb ff47 793c
00000190: 6a7c 5539 cc53 cf3c 3a96 c8bc 5324 a2bc
000001a0: 8a50 2a3d 7233 aa3c 3097 28bc 5c0a 483c
000001b0: aa4b 20bd 11ee da3a 9645 713d 94c5 07bd
000001c0: 55c7 1c3a adb5 26bd 9d19 e5bb 79e4 293d
000001d0: 7294 8ebb 6cf3 453c 9588 2fbd 8f4a 6abd
000001e0: 8894 8bbd 62c2 44bd 4a11 0dbd bec4 253a
000001f0: 1ccf 90bd ea93 113d 7046 9aba 1862 81bc
00000200: 14b3 8abc 4895 0bbd e42a e13b f697 19bd
00000210: a72e 593d 67c1 993b 9f0c 37bc 908f ccbc
00000220: 1dfa 6dbd 724a 083c 8d71 8cbd 8bff cebc
00000230: e335 b9bc c9c7 39bc d5c2 81bc f9b5 33bc
00000240: a517 d0bc 89ce c83c abdd 803b a414 8d3b
00000250: c5f0 293d 9681 eebc 3c32 fabb 2601 81bd
00000260: 5fb0 db3b 0669 efb9 d1b8 81bd 795f 4bbd
00000270: f62b ce3b c998 b73c 4ba9 013d ba59 3fbd
00000280: 082f d93c 352d a03c c09b 403d 5484 01bd
00000290: d9b5 3b3d d22b 293c d8f4 47bc 1fe9 9cbc
000002a0: 44df 073d c5ed 0dbd 8c00 883c fedd 803c
000002b0: e591 1bbd 3bbc 82bc 4b19 ff3b ff97 03bd
000002c0: e784 133b 2775 75bc c52e cfbc cb6f c5bc
000002d0: eef8 09bb 18af 4a3b 399c a9bc 0de3 273d
000002e0: 15a0 383d 27d5 a5bb a94e aabc 054d ab3b
000002f0: 11cf 58bc 12ab 9abd e893 e6bb 5240 80bc
00000300: 1f1e 043c f087 cdbc fe5a 03bd e61a fc3b
00000310: d8cb 50bd 2c49 073c 1917 113d 2e7c 003d
00000320: 0633 bb3c 265c 38bd 734d 233d d2c1 42bd
00000330: 7ab5 02bd 4362 8bbc 0f77 953c f971 0b3d
00000340: af95 223d 2175 59bc 9879 ccbc 0ac5 b1bc
00000350: 3231 82bc d974 13bd edd3 fbbb 6ed5 23bd
00000360: e524 26bd 5b81 a6bc 0ceb dabc 7a6c 143c
00000370: 5bb1 a1bd c22d 04bd d991 033d a6fd d2bb
00000380: f34d 123d 1ff9 49bd fd92 0e3d dfe3 99bc
00000390: 4736 123d f0fc 553c f4b0 013d 6642 8abd
000003a0: 3cd7 cabc 80e8 04bd e374 413c c8f8 05bd
000003b0: b43e 60bd b6b7 17bd fe5c a6bc 9f4d 903b
000003c0: 4cb5 a3bb 96f3 ea3c 961c 10bd f499 d3bb
000003d0: 38f5 0ebd 7a06 ae3b 864e a5bc fa72 70bd
000003e0: 9716 24b9 009f 64bc a81c f9bc 99c9 be3c
000003f0: ccd4 023d 3d5b 793c 24c1 93bc 0ac5 b1b9
-0.01485179 0.009081104 -0.0102276625 0.0117596155 0.0151378615 -0.03505692 0.025068777 0.008865003
-0.0059448243 0.042643026 0.010990203 -0.019903347 -0.055624854 -0.04071164 0.026915515 -0.03882517
-0.048003517 0.009928428 -0.04807462 -0.060401138 0.013213634 0.084251575 -0.018299084 0.043281887
0.030237202 0.031009644 -0.011408481 -0.020822037 0.040340006 -0.00026198887 0.02591065 -0.0353485
0.042007092 -0.029201748 0.013040397 0.009856621 -0.023216989 0.015305433 -0.0071754344 -0.02839963
-0.021188743 -0.009746931 -0.031170478 -0.0029724364 0.02023369 -0.010004432 -0.020424947 -0.035064783
-0.0054316716 0.01198748 0.05161657 -0.016115772 -0.03181302 0.042629182 -0.02365544 0.010517525
0.028707955 0.012361657 0.044809896 -0.029533347 -0.010329738 0.0068617216 0.020057576 -0.022450054
0.002374574 -0.011245493 -0.00061192526 -0.039144523 -0.014958842 0.01859466 0.0018627422 -0.020425888
-0.07519949 0.0021921108 0.002008312 -0.04523926 0.015083301 0.042335838 -0.021542102 0.027555306
0.010885068 0.003917294 -0.028295547 0.026459273 -0.021704406 0.03745571 0.01576649 -0.00961656
0.02652834 -0.048456363 -0.00020742083 0.04857767 0.0036422971 0.03042894 0.025772486 0.011562092
0.03587102 0.023872636 -0.0037988073 0.015214919 0.00020359611 0.025308512 -0.024485696 -0.019792711
0.041580714 0.020776484 -0.010289952 0.012209501 -0.03913466 0.0016703029 0.058904253 -0.03314741
0.00059806305 -0.040700603 -0.0069915787 0.041477654 -0.004351192 0.012081962 -0.042854864 -0.05720001
-0.068154395 -0.04803694 -0.034440316 0.00063235674 -0.07070753 0.035541452 -0.001177026 -0.015793845
-0.016931094 -0.034077913 0.006871568 -0.037498437 0.053023007 0.004692245 -0.011172443 -0.0249708
-0.058099855 0.00831853 -0.068575956 -0.025268337 -0.022608703 -0.011339136 -0.015839973 -0.010968679
-0.0254019 0.024512546 0.003932675 0.004305439 0.04148938 -0.029114526 -0.007635383 -0.06299047
0.0067043747 -0.0004566388 -0.06334079 -0.049651597 0.0062918616 0.02241172 0.03165559 -0.04671643
0.026511684 0.019552806 0.047023535 -0.03162034 0.04582772 0.010325389 -0.012204371 -0.01915413
0.033171907 -0.034650583 0.016601823 0.015730854 -0.037980933 -0.015958896 0.0077849976 -0.032127377
0.0022509636 -0.014981545 -0.025290856 -0.024101159 -0.0021052915 0.0030927118 -0.020704376 0.040988017
0.04507454 -0.00506081 -0.020789461 0.0052276873 -0.013232962 -0.0755216 -0.007036675 -0.01565567
0.008063822 -0.025089234 -0.0320692 0.007693636 -0.05097565 0.008257192 0.03542242 0.031368427
0.022851478 -0.045009755 0.039868783 -0.047548123 -0.03191135 -0.017014628 0.018245248 0.03404424
0.03969353 -0.013272555 -0.024960324 -0.0217004 -0.015892599 -0.036000106 -0.0076851756 -0.039998464
-0.04056253 -0.020325353 -0.026723407 0.009059066 -0.07895156 -0.0322702 0.032121513 -0.0064389287
0.03571887 -0.049309846 0.034808148 -0.018785415 0.035696294 0.013060793 0.031662896 -0.06750946
-0.024760835 -0.03244829 0.011807653 -0.03270796 -0.0547473 -0.037040435 -0.020308014 0.0044037844
-0.0049959775 0.028680604 -0.03518351 -0.0064575616 -0.034901828 0.0053108307 -0.020179044 -0.0587034
-0.00015648674 -0.013953924 -0.030409172 0.023289489 0.03194122 0.015219507 -0.018036433 -0.00033906876

conv2.bias f4 [64]
00000000: 3f83 8e3b 2aab ca3b 9e72 12bd 0379 d0bc
00000010: cd0a 0c3d 5496 a1bc d507 023d 5a1d 10bd
00000020: 042d b73c ca69 2c3c 64c3 12bd 23eb 8d3b
00000030: 961d e13c 15ed 98bc 6460 f2bc 0547 e23c
00000040: ceba e4bc 5be6 0c3d 789a 29bc f5cf bbbc
00000050: 13ee 6fbb 166c 9e3c 9aa6 83bc 8e36 003c
00000060: af92 57bb 45b0 a539 b1e3 ec3b c168 883c
00000070: 8067 34bd de68 91bc b793 ad3c 43a7 6f3b
00000080: 94df 28bd dc65 07bd d101 d73c 5710 8e3c
00000090: 793e 25bd 3370 ccbc 79c6 62bb 29db 27bd
000000a0: e0e5 4e3c 7257 95ba 2ef1 d73c 3643 41bb
000000b0: 31a4 1bbc 386c fcbc 8b8d bfbc ae9c 33bd
000000c0: 965b 253d 6771 32bc 1c17 d7bc a18d f53c
000000d0: ef03 a8ba 8cfd 7d39 da73 21bd 53d1 fbbc
000000e0: 0871 25bd 4f99 463d 57a2 213d 0ab4 973c
000000f0: 005c 2b3d 6e70 b73c 5fc4 c23b 84c2 26bd
0.004349142 0.006184955 -0.03575384 -0.025448328 0.034189988 -0.019725002 0.03174575 -0.03518424
0.022360332 0.010523269 -0.03583087 0.004331009 0.027479928 -0.018667737 -0.029586978 0.027621755
-0.027921107 0.03439937 -0.01035177 -0.02292631 -0.003661041 0.019338649 -0.016070653 0.007825507
-0.0032893827 0.00031602583 0.0072292914 0.016651513 -0.044044018 -0.0177502 0.0211886 0.0036568202
-0.041228846 -0.033056125 0.026245983 0.017341776 -0.04034278 -0.024955845 -0.0034603162 -0.04098049
0.012628049 -0.0011393859 0.02636012 -0.0029489524 -0.0094995955 -0.030813321 -0.023382923 -0.043850593
0.040370546 -0.010891295 -0.026256137 0.02997476 -0.0012818555 0.00024222414 -0.039417125 -0.030739462
-0.040390998 0.04848605 0.03946146 0.018518467 0.041835785 0.022392478 0.0059438194 -0.04071285

bn2.weight f4 [64]
00000000: 05ee 813f bdc0 833f df75 7e3f 2531 803f
00000010: a14d 7c3f 0464 7e3f 9fd5 7a3f 03d0 7a3f
00000020: ff61 7f3f b393 7a3f 6662 8a3f 5097 793f
00000030: d7fd 7d3f 695b 7c3f 9cb1 7d3f 75e3 703f
00000040: fae0 7e3f cc35 833f c879 813f 6fd0 803f
00000050: a278 823f 55bc 793f 542a 7c3f fa9d 7c3f
00000060: 3d4c 7c3f 8e34 833f 2e6e 6f3f fe06 7d3f
00000070: 2563 8a3f 20c9 803f 9f49 813f c2d5 7b3f
00000080: 60a9 7b3f fc24 7c3f 176c 7f3f 9f8a 763f
00000090: 55aa 7e3f 2acc 7d3f 1079 833f 5d10 7c3f
000000a0: 769e 843f b367 813f 978b 823f 9d3d 773f
000000b0: f138 843f 0905 7f3f 2a93 783f e05a 7a3f
000000c0: bd31 803f c3ad 7c3f 5174 793f d1fa 843f
000000d0: f23a 7c3f 2d1b 7f3f 842d 7a3f adf4 823f
000000e0: 11df 823f 94fb 7d3f 0a5e 773f 4bd1 7a3f
000000f0: 17c6 823f 939f 783f 87cf 7c3f 630b 833f
1.0150763 1.0293194 0.99398607 1.0014998 0.9855595 0.9937136 0.9798221 0.9797365
0.99758905 0.9788162 1.0811279 0.9749651 0.99215454 0.9857698 0.99099135 0.9409707
0.99562037 1.0250793 1.011529 1.0063609 1.0193064 0.97552997 0.9850209 0.98678553
0.9855383 1.0250413 0.93527496 0.98838794 1.0811507 1.0061378 1.0100592 0.98373044
0.9830532 0.98493934 0.99774307 0.9630527 0.99478656 0.99139655 1.027132 0.9846247
1.0360858 1.0109771 1.019885 0.9657839 1.0329877 0.9961706 0.97099555 0.97794914
1.0015179 0.9870264 0.9744311 1.0389043 0.98527443 0.9965084 0.977257 1.0230919
1.0224324 0.99212 0.9662787 0.97975606 1.0216702 0.9711849 0.9875416 1.023785

bn2.bias f4 [64]
00000000: ed69 48bc cb7f c3bb b918 18bd dd88 c7bc
00000010: a9b9 93bc c308 aebb 0a9c 0dbd 281d ddbc
00000020: 8f8f 38bb e1f7 a1bc 9f36 16bb 341e c0bc
00000030: d279 85bc de78 adbc 25a4 b0bc 51b1 85bd
00000040: e826 8dbc 22be 143c 8ba6 c2bc 488f 2c3c
00000050: 59c8 06bc 413d 3cbd e027 0bbc d830 46bc
00000060: a353 6abc 3878 4738 0915 f5bc abda 43bb
00000070: df82 d9bc 1419 8abd a4a7 6cbb c2d3 8abc
00000080: fb99 9dbb 1b4f 0abc 1ebd 6abc c3d1 18bd
00000090: 2f4d 85bc 4050 2dbd 095b febc 2b0f f7bc
000000a0: 04a2 37bc 76e0 1bbc 8508 c8bb 697f 22bd
000000b0: 807a 943c d9f7 dcbc a44f 8abc b587 a7bc
000000c0: fd03 28bc c903 60bc 93b2 04bd 804f c3ba
000000d0: b08a 28bc 9a18 2dbd c958 09bd 9209 733c
000000e0: 70bc 1dbd f604 33bc 800b bebc 2d84 93bc
000000f0: 5847 a4bc d0bd d8bc e93a 9f3b 4643 fdbc
-0.012232286 -0.005966162 -0.037132952 -0.024357254 -0.018032866 -0.005311103 -0.03457264 -0.026991442
-0.002816174 -0.019771518 -0.002292074 -0.023451902 -0.01629344 -0.021175798 -0.021562645 -0.06527961
-0.017230466 0.009078534 -0.023761055 0.010532208 -0.008226478 -0.045956854 -0.008493394 -0.012096606
-0.014302167 4.755726e-05 -0.029917257 -0.0029884975 -0.026551662 -0.067430645 -0.0036110664 -0.016946677
-0.0048096157 -0.008441712 -0.014327316 -0.03730942 -0.016272156 -0.04231286 -0.031049268 -0.0301586
-0.011208061 -0.009513965 -0.006104531 -0.03967229 0.018124819 -0.026973652 -0.016883679 -0.020450452
-0.010254857 -0.013672777 -0.032396864 -0.0014901012 -0.010286972 -0.04225979 -0.033531938 0.014833825
-0.038509786 -0.010926476 -0.023198843 -0.018007362 -0.02005355 -0.026457697 0.0048593176 -0.030915868

bn2.running_mean f4 [64]
00000000: 6134 1bbf 6302 bcbe 43a8 053e 01f2 81be
00000010: eb00 11bf 9a75 7a3e 7c61 61bf 76e7 0c3f
00000020: d706 cbbf 2af5 483f 7e0a 39be cdab 06bf
00000030: dc8c b43f 8ea4 783e 57de e1be bd5b a2bf
00000040: 48c3 3e3f f3cb bdbf de34 a53f de6d 593d
00000050: b765 81bf c87c d4be 6b0c 72bf 8011 acbf
00000060: 68f8 31bd b25e 94bf 231a db3c f40b d5bf
00000070: 76bd 9fbe aa75 1f3f 7ce9 9fbf cc96 81be
00000080: 6651 c0bf 1ff8 993e ef2f 443e e125 8fbd
00000090: bc7b aa3f 63bc 003f 252e cc3d 8411 53bf
000000a0: c138 0cbe 4e13 cfbc 1523 30bf ef62 a3be
000000b0: 745c f3bf fa5e 03bf 20d9 46bf 31db 6d3e
000000c0: 8525 1f3f 24fb a3bf 4d3b b1bf 6726 b6bf
000000d0: e275 88bf e8a3 e4bb 03ea e0be 7d51 56bf
000000e0: a2c7 b23f 643a 2fbf d0c8 8b3f 2afe 8abf
000000f0: 6168 073f 41aa 53bf e63a 92bf 095e 0fbe
-0.606268 -0.3672057 0.13052468 -0.25379947 -0.56642026 0.24458924 -0.88039374 0.5504068
-1.5861462 0.7849909 -0.18070409 -0.526059 1.4105487 0.24281523 -0.44114944 -1.2684246
0.74516726 -1.4827865 1.2906759 0.053083293 -1.0109166 -0.4150145 -0.945502 -1.344284
-0.04344979 -1.1591399 0.026745861 -1.6644273 -0.31199235 0.62288916 -1.2493129 -0.2531036
-1.5024841 0.30072114 0.1915891 -0.06989647 1.3319011 0.50287455 0.09969739 -0.824486
-0.13693525 -0.02527776 -0.6880353 -0.31911418 -1.901259 -0.513168 -0.77675056 0.23228146
0.62166625 -1.2811017 -1.3846222 -1.423047 -1.0660975 -0.006977547 -0.43928537 -0.8371809
1.3967173 -0.6844847 1.0920658 -1.0858815 0.52893645 -0.8268166 -1.1424224 -0.14000715

bn2.running_var f4 [64]
00000000: f929 373f f026 7c3f 96a7 4e3f 27ee 783f
00000010: 438b 8940 50a9 9b3f ae7c fe3f 7415 cd40
00000020: 082b 4a40 16f7 cc3f 0f9b 083f 0b82 eb3f
00000030: 7459 2140 4335 ac40 7eee 8840 a47c fc40
00000040: 097c 2b40 514c 2b40 a1ef 8840 00e5 9840
00000050: 4ccd 363f 5b96 993f a664 e53f b830 3540
00000060: 64b5 2b40 8a78 2440 0b10 4440 cf4a f040
00000070: 5f93 fa3e 4a51 463f 0b12 d73f 5bff 973f
00000080: f6ce 9740 499a aa3f 2568 5340 9330 693f
00000090: d3e0 5740 7f09 9340 32c8 943f 4515 aa3f
000000a0: fc25 af3f dd9f 4f40 bbd5 4040 21f6 6c40
000000b0: 55ba 5540 4d3a b63f 31f2 cd3f 36b8 2b40
000000c0: 1b06 903f 50b3 ab3f 6049 5140 ea9e 3a40
000000d0: ef52 5d40 b3db af3f 9412 8a40 e84c 3440
000000e0: 88b4 4f40 8e07 3340 b8c7 7640 5c40 b33f
000000f0: dd22 f93e 2736 9540 76ac ad40 284b 8f3f
0.7154842 0.98496914 0.80724466 0.9723839 4.2982497 1.2161045 1.9881799 6.408869
3.1588764 1.6012905 0.533616 1.8399061 2.5210848 5.3815017 4.279113 7.890215
2.6794455 2.676533 4.2792516 4.777954 0.7140701 1.199901 1.792134 2.8310986
2.6829462 2.5698571 3.0634792 7.509132 0.4894056 0.7746779 1.6802381 1.1874803
4.744014 1.3328334 3.3032315 0.91089743 3.3730972 4.594909 1.1623595 1.3287741
1.3683467 3.2441323 3.013045 3.7025225 3.3394978 1.4236542 1.6089536 2.6831183
1.1251863 1.3414097 3.2701035 2.9159493 3.4581869 1.3738922 4.314768 2.817194
3.2453938 2.797336 3.8559399 1.4004016 0.4865941 4.6628604 5.4273024 1.1194811

conv3.weight f4 [64, 64, 2, 2]
00000000: 8950 523d db68 6f3d a041 923d c819 a33c
00000010: 4c07 82bd ddee ad3c 74c7 1a3d 4062 76bc
00000020: 20f6 b83c 6277 debb 3bfc ba3c 581d f1bb
00000030: 1e8b 5fbc d097 783a d95b 173c e96d 353d
00000040: 26ee f53b 300e 0cbd 5c45 5dbd 7fec 9bbb
00000050: 7ff0 3e3d 9d5e 2f3d f095 83bd 6147 083d
00000060: b5fa cd3c 180f 843c 10cf 81bb fc3e c33a
00000070: 8894 203b 6e30 7bbd f20c 093c 8b5f 7abc
00000080: 2878 14bd 6167 8a3b 3f65 013d 7735 4e3d
00000090: 076b 3fbc 8347 453c dfb4 a43b 306c 75bb
000000a0: e757 80bb 1247 1ebd 1460 8dba c80e d2bc
000000b0: d830 6bbd 1972 95ba ab20 633d c497 6e3d
000000c0: 64e8 3f3b 1bde 64bd 70b2 b43c 5f07 253d
000000d0: 44d4 373c 8e8a 2b3d 3810 a23c 61e8 593d
000000e0: 6921 90bc 14a3 b23a ecca bd3d 865b 47bd
000000f0: faa5 123d 1493 21bd 50be ccbc 61b3 2d3d
00000100: fb48 453d 64e8 593b 5dc7 a83c 0096 913d
00000110: b919 d83c 421d 4fbd b2a7 6dbd 851b 1fbc
00000120: 16d5 24bd 3128 78bd 1956 16bc a4a5 163c
00000130: 6529 9e3d 375c 2abd 597d d83c f1d6 933d
00000140: 5176 763d 42c9 6d3d bb48 7d3d 8998 8ebc
00000150: 385b 5f3d 455a 0b3c 2530 583d c6ed 933d
00000160: 45cd 1b3d d06d 5cbd 9330 503d c56a 7d3d
00000170: f42a 583d 1637 a2bc 2828 e8bc a328 b1bc
00000180: 434a 443d 2ad0 1bbd ec2d d13c f814 3a3d
00000190: d9cd 48bd b1ab 93bc ffd9 c93b b015 d83c
000001a0: 131d 0e3d ce2d 503c 71c3 b43d 0856 823c
000001b0: 8680 113d b5d6 973d 0e42 30bd 619b 25bb
000001c0: 79bf 5c3c b447 9a3c a79d 733d 7e5a 053d
000001d0: d095 2e3d 5333 803d c875 2bbd 9082 e5bb
000001e0: ea89 193d a2b9 6cbc 647f 843d 5649 a9bb
000001f0: 8fc2 dc3a 99d7 7c3d d467 e03c f8ff f2bc
00000200: 200c 803d e5fd 903a dcaf 783c c5f9 d1bc
00000210: 546e 7cbc 3f78 e1bc c85b a23c 2eee e0b9
00000220: 62a5 2abb 01b0 3d3d fa91 b2bc 5a44 82bd
00000230: 6ffd f5bc 1df1 c3bc 2d95 1dbc 7cfe 113c
00000240: 83cb 963d 60e4 41bd aa4a 0cbc 5aa9 d23c
00000250: 544e ecbc 80ca 54bd ad03 863d 950e 9ebc
00000260: 091f 193c 2c12 093d 8a95 13bd eaf3 1ebc
00000270: 750a 87bc d3de 7e3c 365b 4abd 36ef 003d
00000280: b832 d4bc 1460 3b3d 94ff 6c3d 8d22 9abd
00000290: 3ae2 11bc 7c9e 14bd 4025 8a3d edff 173d
000002a0: 19d1 253d d74f 26bd b306 cbbc 594e 5dbd
000002b0: 5279 323d cd40 5b3c d3f5 ee3c fa49 413d
000002c0: 5b3f f7bb f86d b7bc 7b26 cb3c b14e c6b8
000002d0: 48ba 483d 56c6 243c 9268 993d 7d79 37bc
000002e0: 185f 4b3d 5b2b 78bc 8d7f 003d da3f a5bc
000002f0: 9f94 913d ca86 dbbb cd81 943d 1944 46bd
00000300: 58c4 293d a4b2 943d 44a3 b1bc b3e3 443d
00000310: edff 8d3d ea6c b33c dc2a fd3c f116 5f3c
00000320: bee0 82bb 601d d2bc a98f a13c 1e62 cf3c
00000330: 5ca3 c5bc 70e1 5f3c 97fd 61bc a81c 07bd
00000340: c53c eabc 7dba e13c 45a8 43bd 375d a3bc
00000350: fb23 1539 528c 1bbb 1df7 793c e611 48bd
00000360: 3764 cf3c 9808 7dbd 07a8 adbb f0d9 acbc
00000370: 5906 6e3c eeae 803d 4120 01bd afd1 44bd
00000380: 8a3b 403b cb4c 48bd a950 e93c 8ab9 20bd
00000390: b234 fabc 025a 5b3c f09f c43d 0a2a 41bd
000003a0: d543 58bc 6444 6abb d4fb bbbc 92fe 513d
000003b0: 19f3 cd3c e3bb 003c fa66 79bd e278 bf3c
000003c0: 1d1c 123d 49d9 573d ee88 84bd ad9e 483d
000003d0: b4a9 19bd 134d b43c e742 45bd daf6 a0bc
000003e0: d787 893c 3e5f ccbb fea9 d4bc 703e 95bc
000003f0: 4800 26bd a4ee 16bc 55a4 bc3d b22c 4abd
0.051346336 0.058449607 0.07141423 0.019909754 -0.06349048 0.021232063 0.03778787 -0.015038073
0.022578299 -0.006789134 0.022825351 -0.0073582344 -0.013644008 0.0009483071 0.009238207 0.04429427
0.007505196 -0.034193218 -0.054021224 -0.004758417 0.046616074 0.04281484 -0.06425083 0.033271197
0.02514396 0.016120479 -0.0039614514 0.001489609 0.0024502594 -0.061325483 0.008364903 -0.015281568
-0.036247402 0.0042237495 0.031590696 0.050343957 -0.011683232 0.0120409755 0.0050264443 -0.0037448518
-0.003916729 -0.038641997 -0.001078608 -0.025641814 -0.057419628 -0.0011401802 0.055451076 0.058250204
0.0029282803 -0.05587588 0.022057742 0.040290233 0.011220042 0.041880183 0.019783124 0.05320013
-0.017594056 0.0013628923 0.0926722 -0.048671268 0.03580282 -0.039446905 -0.024993092 0.042407397
0.048165303 0.0033250088 0.020602876 0.07108688 0.026379453 -0.05056501 -0.058021255 -0.009711151
-0.040242277 -0.060585205 -0.009175801 0.009194765 0.07722739 -0.04159185 0.026426958 0.07218731
0.06017143 0.058053263 0.06183694 -0.017406719 0.054530352 0.008505409 0.05278029 0.07223086
0.038037557 -0.053815663 0.050827574 0.0618694 0.05277534 -0.019801658 -0.02833946 -0.021625822
0.047922384 -0.038040318 0.025534593 0.045430154 -0.049024437 -0.018026205 0.0061600204 0.026377529
0.034695696 0.012706233 0.0882634 0.015910164 0.03552296 0.07413999 -0.043031745 -0.0025269615
0.013473385 0.018833019 0.05947652 0.032557003 0.04262334 0.06259789 -0.04186037 -0.0070040897
0.03748504 -0.014448555 0.0646961 -0.005166213 0.0016842651 0.061729047 0.02739326 -0.029663071
0.06252313 0.0011061995 0.015178647 -0.025631795 -0.015407164 -0.027523158 0.019819155 -0.00042902067
-0.0026038517 0.04631043 -0.021798123 -0.06360693 -0.030028073 -0.023918683 -0.009618086 0.008910771
0.073630355 -0.047336936 -0.008562723 0.025715519 -0.028845944 -0.05195093 0.0654367 -0.019294063
0.009345778 0.033464596 -0.036031283 -0.009701708 -0.016484478 0.015556055 -0.04940339 0.03147813
-0.02590309 0.045745924 0.057860926 -0.07526121 -0.008904034 -0.036283955 0.06745386 0.037109304
0.040482614 -0.040603485 -0.024783468 -0.054029796 0.04357273 0.013382149 0.029169952 0.04718969
-0.0075453944 -0.022391304 0.024798622 -9.456033e-05 0.049005777 0.010057053 0.07490648 -0.011198399
0.049651235 -0.0151470555 0.031371642 -0.020172048 0.07108425 -0.0066994177 0.0725132 -0.048404787
0.041447014 0.072606355 -0.021684296 0.048068713 0.069335796 0.02190252 0.030904226 0.0136163095
-0.0039940765 -0.025648773 0.019721823 0.02531534 -0.024125747 0.013664588 -0.013793371 -0.032986313
-0.02859343 0.027554745 -0.047767896 -0.01994191 0.00014223151 -0.002373476 0.01525667 -0.048845194
0.02531634 -0.061775774 -0.0052995714 -0.021100014 0.014527881 0.06283365 -0.0315249 -0.048051532
0.0029332363 -0.04890136 0.028480845 -0.039239444 -0.030542705 0.013388159 0.09600818 -0.047159232
-0.013199766 -0.003574633 -0.02294723 0.051268168 0.025140332 0.007857296 -0.06088922 0.023373071
0.035671342 0.052697454 -0.0647143 0.04897945 -0.037515357 0.022009408 -0.048159506 -0.019648958
0.016788406 -0.0062369397 -0.025959965 -0.01821825 -0.040527612 -0.00921217 0.09211031 -0.04935903

conv3.bias f4 [64]
00000000: fb46 b63a 5ec0 05bd c858 dabc 5721 8bbc
00000010: 16de 023d a2ad 4a3d 8685 18bd fbc0 fa3c
00000020: b510 57bd 4aba e33b 0985 a9bc 0b26 2bbd
00000030: ad08 853d cafb 28bd 45ea 50bc ae5c c2bb
00000040: 8def 4ebb 3935 213d 8640 adba b552 833d
00000050: e99b 853d a245 5bbd 4af7 2b3c 3031 4c3d
00000060: 2713 a9bb 62fc 51bd 2c01 43bd c580 553d
00000070: ab90 0a3c 31c3 9f3c 9543 cb3b 31ae e03c
00000080: 592a 61bd a3db 54bd be84 ce3b 3c4c 75bc
00000090: ba60 873c 3854 0d3d f6fb 393d d8cc 3fbc
000000a0: 516a 5abd 4aaf fa3c 6a23 353d dd11 6abd
000000b0: 3e20 413d 2f07 41bd 1ee3 bd3c 01ce 623d
000000c0: 800b 4e3d c8c8 97bc 8775 6abd 1d0c f6bc
000000d0: 3a55 67bd 20c5 ba3b 08a0 283c 4ecd 483d
000000e0: 1c61 1fbd ddb5 f43c 285e 593d acc0 19bd
000000f0: e3bc 0c3d e04b 523d 6255 473d 5255 4d3d
0.0013906652 -0.03265416 -0.026653662 -0.016983671 0.03195008 0.049481995 -0.037236713 0.030609598
-0.052506167 0.0069496976 -0.020693319 -0.041784327 0.064957954 -0.04125575 -0.012751167 -0.0059314584
-0.003157589 0.039357398 -0.0013218082 0.064122595 0.06523878 -0.053533204 0.01049597 0.049851596
-0.005159754 -0.05126608 -0.04760854 0.052124757 0.008457343 0.019502254 0.0062031248 0.027426811
-0.054972026 -0.051967274 0.006302445 -0.014971789 0.016525615 0.034504145 0.045406304 -0.011706553
-0.053324047 0.030601162 0.044223227 -0.057145942 0.04714989 -0.04712599 0.023179587 0.055372242
0.050303936 -0.018528357 -0.05724099 -0.030035073 -0.056477763 0.0056997687 0.010292061 0.04902392
-0.03891097 0.029871875 0.05306831 -0.03753726 0.034359824 0.05134189 0.04866541 0.050130196

bn3.weight f4 [64]
00000000: 9c58 803f c666 833f cd1e 823f 83f6 823f
00000010: 59d8 833f 32d1 793f b204 853f 3515 823f
00000020: 05a6 813f ce02 823f f44b 813f 99f1 803f
00000030: 7ed3 803f f885 843f c8da 833f 0128 833f
00000040: 59ec 803f 9418 803f 7305 843f 826a 843f
00000050: e8de 7c3f 695c 7e3f a493 813f ad7a 813f
00000060: 94ed 7d3f 45d8 823f db6c 7d3f fea4 803f
00000070: 7414 833f 0fe8 803f bb79 7d3f 3c5c 823f
00000080: eaf6 813f c7cb 803f ef61 823f 7f7c 813f
00000090: 7d5a 813f f63e 7e3f e343 803f dbc9 843f
000000a0: 517f 7f3f ef49 813f cf5a 7a3f 3183 803f
000000b0: 9af2 7f3f e646 823f 3a32 793f 5d92 763f
000000c0: 72c4 833f c293 813f 109d 823f ff2e 813f
000000d0: fdaa 843f 9c4d 7f3f a23b 813f 28cd 813f
000000e0: 9145 813f e2be 843f fa37 813f 0d5c 813f
000000f0: d16d 813f c104 833f cd8e 833f 3ec2 863f
1.0027041 1.0265739 1.016565 1.023148 1.0300399 0.9758483 1.0392058 1.0162722
1.012879 1.0157106 1.0101304 1.007373 1.0064542 1.0353384 1.0301142 1.0246583
1.0072128 1.0007501 1.0314163 1.0345004 0.9877763 0.99359757 1.0123181 1.0115563
0.9919064 1.022225 0.98994225 1.0050352 1.0240617 1.0070819 0.9901387 1.0184398
1.0153477 1.0062188 1.0186137 1.0116118 1.010574 0.9931482 1.0020717 1.0374101
0.99803644 1.0100688 0.9779481 1.0040036 0.99979556 1.0177886 0.97342265 0.9631708
1.0294325 1.0123217 1.0204182 1.0092467 1.0364681 0.997278 1.0096323 1.0140734
1.0099355 1.0370753 1.0095208 1.0106217 1.0111638 1.0235826 1.0277954 1.0528028

bn3.bias f4 [64]
00000000: 9dbf 1fbc ccfd 7a3b 7e0e 79ba 942b 7a3c
00000010: 03c0 9eba bbd5 19bd 3f7b 983c db5b a03b
00000020: 4e2b 11bc e879 b83b 0fe4 45bc f2c9 0a3b
00000030: c9f2 f8ba bf52 9bbb b8a7 fa37 baa6 82bb
00000040: 1168 4cbb f3d1 62bc cab0 e739 d3be 143c
00000050: bfcd 68bb 48fc 31bb 984c 68ba b26b 5bba
00000060: c2da f4bc 78a9 063a 56f6 3cbc 9241 ac3b
00000070: 6b43 68bb 31c3 eaba d61e aaba 983a 0cbc
00000080: 5080 963b eb0d 313b da9c 9e3c 7490 98bb
00000090: df11 53bc 2ae8 08bc a379 1f3b 7bb1 093c
000000a0: a54b 35bc 710a 713c 033e ccbc 8265 72bb
000000b0: 822b 243a 6aa5 083c 34cf e0bb cc65 16bd
000000c0: de3c a23c 004e c2ba 0706 073c b650 39bc
000000d0: 3a7f 543b 134a 34bc 295d 543a 1410 2e3c
000000e0: 61b3 183c a361 973c 6bd9 1abc 229a 04bb
000000f0: 9fa8 a639 03ac 923b 5a09 1f3c 28bc 8dba
-0.009750274 0.0038298247 -0.00095007557 0.015269179 -0.0012111667 -0.037557345 0.018613456 0.0048937625
-0.008860422 0.0056297667 -0.012078299 0.0021177498 -0.0018993254 -0.0047400887 2.9880423e-05 -0.0039871605
-0.0031189958 -0.013844001 0.00044191472 0.009078699 -0.0035523025 -0.0027158428 -0.0008861511 -0.0008370235
-0.029889468 0.0005136947 -0.01153334 0.00525684 -0.0035440575 -0.0017910955 -0.001297916 -0.008558892
0.0045929328 0.0027016352 0.019361902 -0.004655892 -0.012882679 -0.0083561335 0.0024333976 0.008404131
-0.011065398 0.014711962 -0.024931913 -0.0036986773 0.00062625867 0.008340219 -0.006860638 -0.036718175
0.019804414 -0.0014824271 0.008241183 -0.011310747 0.0032424466 -0.011003989 0.000810104 0.0106239505
0.009320111 0.018479174 -0.009451251 -0.0020233472 0.0003178762 0.004476072 0.009706819 -0.0010813521

bn3.running_mean f4 [64]
00000000: a44c 453f 44d0 523c a493 843d 3b24 bd3e
00000010: d65f 573e 7c44 f03d 3100 193f 2277 523f
00000020: 254d dd3e 2737 ce3e 985a 353c d6bf 8d3e
00000030: ab9a 013f 526c e5bb 5f7c 72be 5c75 283d
00000040: 0bf2 a93e 2b32 633d cd53 05be 8027 1a3f
00000050: c478 eabe 6ac6 82bf 1bfc 353f c4a9 e1be
00000060: 8aa6 8abe e850 923e 30b7 d2be 5fd9 183f
00000070: 0edb 9bbf 4581 5f3f 7415 9dbf c05a ae3d
00000080: 9cd9 3d3f 583f 7ebf 8565 e33e 338c b1be
00000090: ab3f 433f ef88 01bf 0648 6d3f 69a5 cd3c
000000a0: bd29 e43d 4d3f 87bf f559 02bf 9c74 e13c
000000b0: 8e89 14bf ad5a 583e 4c80 f4be 93a7 a63d
000000c0: 0da4 753e 7111 7fbf 1cdc d73e f0f0 13bc
000000d0: 8620 52be e81e 93be e176 b33e 1d40 773e
000000e0: 4293 db3d e6a8 283f 95f6 3d3f 74df a3be
000000f0: 65c7 d43e dcbf 9fbf 4739 6b3e 71cf e9bd
0.7707007 0.012867037 0.06473473 0.36941704 0.21032652 0.11731812 0.5976592 0.8221303
0.4322292 0.40276453 0.0110689625 0.27685422 0.5062663 -0.007001438 -0.23680256 0.041127548
0.33192477 0.055467766 -0.13020249 0.6021652 -0.45795262 -1.0216801 0.7108781 -0.44074833
-0.27080184 0.28577352 -0.41155386 0.5970668 -1.2176225 0.87306625 -1.2272172 0.08513403
0.7416017 -0.99315405 0.4441339 -0.34677276 0.76269025 -0.5059957 0.92688024 0.025103288
0.111407734 -1.0566193 -0.50918514 0.027521424 -0.5802239 0.2112834 -0.47754133 0.08137431
0.23988362 -0.9963599 0.42160118 -0.009029612 -0.20520219 -0.28734517 0.35051635 0.24145551
0.107214466 0.6588272 0.7420438 -0.3200642 0.41558376 -1.2480426 0.22971068 -0.114165194

bn3.running_var f4 [64]
00000000: c7ac 5d3f 816c 133f 2e8a 0d3f e6fe 2a3f
00000010: 3670 243f a799 673f 1a75 a63e f2f6 f13e
00000020: 013e 133f e3a7 193f 72f8 913f 42de 843f
00000030: 0149 363f e09d ab3e f48a 843f 22c1 113f
00000040: 4a0d 0b3f 32b3 4b3e e999 223f 85a5 d33e
00000050: 2def 453f e1b5 1b40 a553 0a3f 475a 3e3f
00000060: 95c8 ef3f f77c 4c3f 7447 413f ea62 563f
00000070: d537 113f d1bc 623f ef94 0540 b4b2 903e
00000080: 7214 713f 1558 443f 76b5 e73e 22af b33e
00000090: c224 e23e 48a0 5b3f 4a7f 383f af08 753e
000000a0: 9dee 9f3e 161e d73f cbf9 0140 b175 473f
000000b0: 5d5a a03f 076d e53e 2aec 403f b1a7 f93f
000000c0: 8b7f ab3e 362e a13f 3a29 4d3f fef9 333f
000000d0: 2513 063f a946 283f ae38 053f 028d 023f
000000e0: ede0 dc3e 8440 463f ae1e 353f 5ff8 0a3f
000000f0: 7b44 e53e f564 333f 8bdd fd3e 2cc5 e43e
0.8659176 0.5758744 0.5528897 0.66795194 0.6423372 0.9046883 0.32511216 0.47258717
0.57516485 0.600218 1.1403944 1.0380328 0.71205145 0.33518887 1.0354905 0.5693532
0.5431715 0.19892576 0.635161 0.4133722 0.7731808 2.432976 0.5403388 0.743565
1.8733088 0.7987818 0.75499654 0.8374468 0.5672582 0.8856936 2.0872152 0.2826134
0.9417182 0.766969 0.4525563 0.35094553 0.4416867 0.85791445 0.7206923 0.23929094
0.31236735 1.6806056 2.0308712 0.7791396 1.2527577 0.44809744 0.7536036 1.95043
0.33495745 1.2592227 0.8014103 0.7030333 0.5237296 0.6573282 0.5203961 0.5099641
0.43140355 0.77442193 0.7074994 0.54285234 0.4477881 0.70075923 0.49583086 0.4468168

fc1.weight f4 [64, 64]
00000000: 5b17 cabd e114 e53c 7197 c43d b323 e23b
00000010: f661 053d e3d6 b1bd f7e5 4fbc 74d3 c43d
00000020: aebe 943b 3732 a93c 1113 9ebd cd8e 89bd
00000030: f33e 873d 4877 b3bc 6ee8 283b a2f5 c63d
00000040: 7358 bebd 88c6 82bd d809 8d3d 7311 7a3c
00000050: ba5f b13d e943 89bb 4678 d5bd 7a26 40bd
00000060: 8051 56bc 53ea 3a3d 4b32 4fbc 2d2d 33bd
00000070: dba6 183d db59 7ebc a55c 7dbd c7f8 e0bd
00000080: 8de1 833b f460 27bc 651a e1bd 3ced b1bc
00000090: 20cc 5c3d 6031 813d c2c9 c23d d789 c6bc
000000a0: 8c2d a53d d094 c93d 31d2 c1bd 7ac9 d0bd
000000b0: 3b23 24bd 4985 353d a8c3 b7bd 6b1e f3bc
000000c0: fdd0 1b3c 78eb fd3c c078 e33d 24d2 9a3d
000000d0: 8941 a1bb edb5 eabd 48bc 5d3d dc65 d0bc
000000e0: 099a 8e3d 8042 c1bd 7ac2 c3bd 1c1a b9bd
000000f0: 9862 a1bd f2c6 78bd 9448 d9bd acd1 f0bc
00000100: 38e0 abbd 3077 15bc 2730 4dbd 80a2 823c
00000110: 3ad0 48bc 7ce6 a6bd b15f 9f3d 5c6c 37bd
00000120: 04ca b13d 206a b8bb ae3d e5bb edf8 533d
00000130: 4136 2e3d f2b2 2f3d 8281 c0bc 97f5 05be
00000140: 793c d03b 844b 2aba ad11 b73d d9c8 babd
00000150: 3ee5 22bc 343c bdbb 6927 ad3d f0a3 a43c
00000160: c2b0 473d ffb7 c03b d0a6 19bd 385c cebc
00000170: 331e dfbc 3712 b5bd 3f39 cc3c 2c6f cabd
00000180: b624 343d f6f5 a3bd 7bcc c5bc 8b1a e5bd
00000190: 8cdd 283d f197 b0bd 4b3e e5bd 64da 15bd
000001a0: 14c8 cf3d cb2b ad3d d44a 973c 0a37 883d
000001b0: 48d7 863d e69e babd d3fa c53d 61ee 9c3d
000001c0: f02c 0dbd e1c2 04be 8136 e73d 789b cd3c
000001d0: 0516 5e3c 5aeb d43c e471 00be 34af d5bd
000001e0: 2cde 473d ed30 1137 dfe4 cf3d 8d52 c6bd
000001f0: 487c cd3d 7828 c83c d123 4fbd eb70 09bd
00000200: 8b9a db3d de0e 3e3d ca7c 373c 5d51 8b3d
00000210: 7bcc 08be 89cc a8bd b5d0 b5bd dfd2 d0b9
00000220: 0a15 3bbc b85b a43d 44bd a8bd 4b92 4cbd
00000230: 9429 10bd ccb3 c0bd 65e9 193e 6600 f2bd
00000240: 3b0c 3ebd 8ed8 7fbd a3c4 753d 12b8 673d
00000250: 1548 8e3d 3129 97bd 67be de3d 0601 30bc
00000260: 4c35 003d ef4f 62bd e265 e1bb a730 893d
00000270: 6d8d 85bd 6f85 aa3d f9e3 d73d 0156 863d
00000280: 4127 6cbd 14bf 853d 6ce5 fa3d be5e d1bd
00000290: 7fe5 743d 1aed 8239 e0f7 15bd 628a 29be
000002a0: 3b56 e3bd cf0a ab3d 0460 0d38 bc45 93bd
000002b0: 909a d2bd faac 663d 52cf b73d 34bc 86bd
000002c0: 77c0 703d 075c 73ba 211c fcbd 645f 383d
000002d0: c0b5 03be 27a1 a2bd 2c40 c33c d220 fc3c
000002e0: a172 a93d e711 e23d f82a d73d 8141 df3c
000002f0: e8b0 ef3c cbde 9b3d 95cd e2bd 284e 7abd
00000300: 6d75 853d fe8e d33d 59a4 a2bd 4c2d 81bd
00000310: 06ef c23d 3ff9 cabc ea28 ffbd e7fa a63d
00000320: cc1c 84bd c444 a1bd 7b5d 8abd 2c97 98bd
00000330: c722 dc3d bf7d 993d a183 18be 003a a43d
00000340: 4d9b d83d 7ee9 c23d 1659 41bc 1685 9c3c
00000350: c7b5 dd3c db77 f7bd c004 d13d 10da 3fbd
00000360: 7fcd a43d c1f3 4dbd 48d4 a33d 7760 d83d
00000370: 3eb7 cc3d 8355 023b d05d ab3d 9070 39bc
00000380: c767 c2bd 1926 6b3d 6967 a43a 02cb 043e
00000390: 895a 5a3c 2609 bc3d 4fd0 6cbd 4d22 28bd
000003a0: ff5a 2fbb e24a d1bd 8a4a 973d c8c9 00be
000003b0: e06a ebbd 7775 893c 9b48 7a3d 7e4d d23d
000003c0: 10c1 913d e300 e9bd dfd4 aabd 73cf fb3d
000003d0: 29d8 ae3d fa8d 853d 58db 1fbd 967f 473d
000003e0: 85ac afbd 5b33 c83c 87d7 cbbc 66b4 e03d
000003f0: 3189 523d ba57 c43d 7d8d e53a cdd0 bf3d
-0.09867736 0.027964057 0.09599198 0.0069012283 0.032564126 -0.086835645 -0.012689105 0.09610644
0.0045393324 0.020653827 -0.077184804 -0.0671669 0.066038035 -0.021907464 0.0025773305 0.097148195
-0.09294214 -0.06385523 0.06886643 0.015262949 0.086608365 -0.0041890037 -0.10423331 -0.046911694
-0.013080955 0.045633625 -0.012646268 -0.043744255 0.0372685 -0.015524353 -0.06185593 -0.109849505
0.0040246905 -0.0102159865 -0.109913625 -0.021719567 0.053905606 0.06308246 0.095111385 -0.024235649
0.08065328 0.09842837 -0.09463919 -0.101946786 -0.04007266 0.044316564 -0.08972865 -0.02967759
0.009510276 0.03099607 0.111070156 0.075596124 -0.0049211425 -0.11460481 0.054134637 -0.025439195
0.069629736 -0.09436512 -0.09558578 -0.09038183 -0.078801334 -0.060736604 -0.10609546 -0.029396854
-0.08392376 -0.009122655 -0.05009475 0.015946627 -0.012256676 -0.0814943 0.077819236 -0.044781074
0.086811095 -0.0056278855 -0.006995878 0.051751066 0.04253221 0.042895265 -0.023499254 -0.13081966
0.006354865 -0.0006496238 0.08938918 -0.0912034 -0.009942351 -0.005774999 0.084547825 0.020097703
0.048752554 0.005881309 -0.0375126 -0.025190458 -0.02723608 -0.08841365 0.02492964 -0.098844856
0.043980323 -0.08005898 -0.024145355 -0.11186703 0.04122691 -0.086227305 -0.11193522 -0.036585227
0.10145584 0.084556185 0.018468298 0.06651123 0.065840304 -0.09112339 0.096669815 0.07662655
-0.034466684 -0.12964965 0.11289693 0.025098547 0.013555055 0.02599113 -0.12543446 -0.10433808
0.048795864 8.654065e-06 0.101510756 -0.09683714 0.100334704 0.02443336 -0.050571267 -0.033554953
0.10722836 0.046400897 0.011199186 0.06802628 -0.13359253 -0.08242137 -0.08877698 -0.00039829963
-0.01141859 0.080253065 -0.082392246 -0.049944203 -0.035195902 -0.094092935 0.15030439 -0.11816482
-0.046398383 -0.062462382 0.06000198 0.056572028 0.06947342 -0.073809035 0.1087616 -0.0107424315
0.031300828 -0.055252012 -0.0068786005 0.06698733 -0.065211155 0.08326232 0.10541529 0.06559373
-0.057654623 0.06530586 0.1225079 -0.10223149 0.059789177 0.00024972187 -0.036613345 -0.16556695
-0.111004315 0.08351671 3.370644e-05 -0.07191035 -0.10283387 0.056317307 0.0897509 -0.06578866
0.0587773 -0.00092834275 -0.12310053 0.045012847 -0.12862301 -0.079408936 0.02383431 0.030777369
0.08273817 0.11038571 0.105062425 0.027252914 0.02925916 0.07610854 -0.11074368 -0.06110969
0.06516538 0.10330008 -0.07941503 -0.06307468 0.09518246 -0.024777053 -0.124589756 0.081533246
-0.06450805 -0.07874444 -0.06756111 -0.07450709 0.10748821 0.07494687 -0.14893962 0.08018875
0.10576496 0.09517191 -0.011801025 0.01910643 0.027064217 -0.120834075 0.10205984 -0.04683882
0.08047008 -0.05028129 0.07999474 0.10565274 0.09995888 0.0019887395 0.08367503 -0.011318341
-0.0949245 0.05740938 0.0012543026 0.12968066 0.013327249 0.091814324 -0.057815846 -0.041048337
-0.0026757119 -0.10219361 0.07387264 -0.12576973 -0.11494994 0.016779644 0.0611044 0.10268687
0.07116902 -0.11377122 -0.08341383 0.12295427 0.08537323 0.065212205 -0.039027542 0.04870566
-0.08577827 0.02443855 -0.024883045 0.10971908 0.051400367 0.09587045 0.001751348 0.093659975

fc1.bias f4 [64]
00000000: f901 84bc 09a0 c0bd 35a9 003d a6cd c9bd
00000010: bd87 74bd 3534 a6bc c0d4 c4bd e896 3bbd
00000020: 1ec5 dc3d fcc7 87bd 6606 8dbc 9584 e83d
00000030: 9f0e 70bd 3d01 a73d 316e b1ba 490c b1bd
00000040: 86fb d8bd fbe3 c6bd ad89 8d3d e93c f3bc
00000050: 60e8 603d a377 483d b131 d3bd 91e3 db3d
00000060: 81f0 703d 99e2 983d ec5d 3cbd ecc1 77bd
00000070: 89bb 41bd 5b6d 8c3d 9d77 dfbd 5576 cabd
00000080: 034b d13d 595f f43c f51d 88bd 412d bebd
00000090: f875 703c fa54 ef3c 48d6 b8bd 5e61 e43d
000000a0: 9ff3 963d 5b1f c3bd 1c4a 783d 2bc1 c7bd
000000b0: 27bc 8fbd 09a3 3a3d 2f95 03bd 7f19 313d
000000c0: b065 bfbd fe97 b23c 291f 75bd a253 cc3d
000000d0: 845d 2bbd 5f7a 8a3d 2967 37bd 0316 90bc
000000e0: 604a e43b 21a3 143e 5e5b b3bd 6139 f8bc
000000f0: 60c8 f03d 6c46 8bbd e233 fcbd f34d c93d
-0.016114222 -0.09405524 0.03141137 -0.098536775 -0.059699763 -0.020288566 -0.09610891 -0.045798212
0.107797846 -0.06629941 -0.017214965 0.11353413 -0.058607694 0.08154533 -0.0013536868 -0.08644921
-0.10594849 -0.097114526 0.06911025 -0.02969213 0.05490911 0.04894222 -0.10312212 0.10736764
0.058823112 0.07465095 -0.04598801 -0.060487673 -0.047297988 0.068567954 -0.10911486 -0.09885851
0.102193855 0.029830622 -0.06646339 -0.09285975 0.014676563 0.029215325 -0.09025246 0.11151384
0.07370686 -0.09527465 0.06061755 -0.09753641 -0.07018309 0.04556564 -0.032124694 0.043237206
-0.09345567 0.021800991 -0.05984417 0.09976889 -0.04183723 0.06761622 -0.044776116 -0.017588621
0.006966874 0.14515354 -0.08757661 -0.030300798 0.117569685 -0.06800541 -0.12314583 0.09829321

fc2.weight f4 [2, 64]
00000000: dd9e b7bd c0db adbd 42f2 d4bd 08a1 c83d
00000010: a6e5 5f3d 3fac 1b3e e1e2 acbd 617d 903c
00000020: 8ec2 dfbd 4052 e1bd 36fb 9bbd 43ce d3bc
00000030: fbdb b5bd adac bc3d a91c d23c 53bc c3bd
00000040: 6abb 043e 583b 59bc b9c4 f2bc 4af9 64bd
00000050: b0c9 f53d 8cb7 94bc 7052 dc3d 50fa 68bd
00000060: 2c19 083d 16fb 8dbd e73a bebb 46cb c93d
00000070: 3c5b 993b 990b 2bbc 60d3 fd3c 3f62 bf3d
00000080: 8f98 a1bd 1477 513d 3eb5 bfbd c3cb 833d
00000090: 4598 8b3d d9d1 79bd 0e15 ac3d 76e7 ac3d
000000a0: b7de 07bc 892d ff3d 21ec 0e3e 46be a4bd
000000b0: 2225 eabd 0cfa e73d 9ac1 e13c 0141 223c
000000c0: bbbf f0bd 815b 873d 623e f53d 26c8 8cbd
000000d0: d0cc d0bc fff4 a73d 8000 c6bd ce7c f73d
000000e0: 8a13 9fbd de03 0abe 1932 e8bd 166b 6f3d
000000f0: 1ae3 f7bd b9a7 f0bc 3e60 b33d 4f4e 16be
00000100: e159 ce3d 15f5 ec3d 5070 4bbb 299f 9cba
00000110: 22b2 de3d e254 e93c 8d5a a3bd c14b ed3d
00000120: 1f3b d6bd 5551 463d 2048 42bc dd90 80bd
00000130: 8738 f93d 5732 023d ec74 e13d c3be 1d3d
00000140: 35b9 54bd c929 7f3d d592 b9bd 0071 143c
00000150: a49c 82bc bba2 793d f1c6 373e 1312 51bc
00000160: 0865 253d e0df f9bc f9d9 f83d 0818 ba3d
00000170: 00fd f13c 7192 fbbc 19c3 6fbd 5714 e13c
00000180: 8a20 ad3d 43d2 973d 6743 fbbb 9a07 e73d
00000190: 6e2c 2a3d 55f6 28bd 0e9d 273e 8aba 7b39
000001a0: 53b2 f8bd 89e9 8d3d 85e5 393e b3d0 bbbc
000001b0: 24f7 b73c 9592 623d bd47 f6bd 0fde 13bc
000001c0: ae35 d7bd c636 113b a45f 903c 38fb aa3d
000001d0: 986e 31bd 28be a8bd df11 b83d e27d be3c
000001e0: 2d4c b7bd 604a b1bd 420a b03b a785 123e
000001f0: 68e1 2ebd 8862 f1bc 8e44 b13d a232 8c3d
-0.08965848 -0.084891796 -0.103977695 0.09796339 0.05466237 0.15202425 -0.08441711 0.01763791
-0.1092578 -0.11002016 -0.07616274 -0.02585519 -0.088798486 0.09212623 0.025648432 -0.09557404
0.12962118 -0.013258778 -0.02963482 -0.055901803 0.120013595 -0.018153928 0.10757911 -0.05687934
0.03322713 -0.069326565 -0.0058053616 0.098532245 0.0046800654 -0.010439777 0.03098458 0.09344911
-0.07890426 0.051138952 -0.09360741 0.06435349 0.068161525 -0.060991142 0.08402453 0.08442585
-0.008292845 0.12459857 0.13957264 -0.08044104 -0.11432864 0.113269895 0.027558137 0.009903193
-0.1175532 0.0660925 0.11974789 -0.06874113 -0.025488287 0.08201026 -0.09668064 0.120843515
-0.07767399 -0.13478038 -0.1133768 0.058451734 -0.12103863 -0.029376851 0.08758591 -0.1467831
0.10075737 0.11570183 -0.0031042285 -0.0011949289 0.1087382 0.028482858 -0.079762556 0.115867145
-0.10460495 0.048417408 -0.011858016 -0.062776305 0.12168985 0.03178629 0.11008629 0.038512003
-0.05193444 0.06229571 -0.09061209 0.009060144 -0.015943833 0.060946207 0.17946984 -0.012760657
0.040379554 -0.03050226 0.1215095 0.09086615 0.029539585 -0.030709477 -0.05853567 0.02747552
0.08453472 0.07413151 -0.007667947 0.11280747 0.041546278 -0.041250546 0.16368505 0.00024006717
-0.12143388 0.06929309 0.18153961 -0.022926664 0.022456713 0.055315573 -0.12025402 -0.009025111
-0.105082855 0.0022157892 0.01762373 0.083486974 -0.04331836 -0.082393944 0.08987784 0.023253385
-0.08950076 -0.08656764 0.0053723166 0.14308797 -0.042695433 -0.029465929 0.08655654 0.06845595

fc2.bias f4 [2]
00000000: 6b3a 56bd 0cb1 a1bd
-0.052301805 -0.07895097
